Weights/acrobot_model_weights2.pth (torch, 75124 bytes, 7 tensors)

layer1.weight f4 [128, 6]
000000 6c 8f 38 be 0f 85 34 3f 12 91 75 bf 3a 79 5d be
       -0.18023461 0.7051553 -0.95924485 -0.21628276
000010 79 b6 ea bc 05 f5 89 3e 58 a2 79 3e 8e a0 2d 3f
       -0.028651463 0.26944748 0.24378335 0.6782311
000020 ed 7c 04 3e aa c6 05 3c cd 88 d1 bd a5 76 f2 bd
       0.1293828 0.008165041 -0.10231171 -0.11839036
000030 77 1c 77 bf 73 60 ba be d8 3b 10 be 34 4c bb bb
       -0.9652781 -0.3640171 -0.14085329 -0.005715871
000040 75 91 db 3e 09 74 e6 3d b0 72 87 be c8 41 da be
       0.42884412 0.11252601 -0.26454687 -0.42628312
000050 b9 96 0e 3e e8 cb af 3e 97 7d a9 bd 22 71 bf 3e
       0.13924684 0.34335256 -0.082759075 0.37391
000060 38 fe 61 3d 9e 64 10 be 99 1e 3b 3f 0d c6 ca be
       0.055174083 -0.14100882 0.73093563 -0.39604226
000070 96 cd 89 be 8a ff fd bc f5 64 6e be 17 fc 5b 3f
       -0.26914662 -0.03100564 -0.232807 0.85931534
000080 47 b4 fb be ca 22 ba 3d 4b f5 a4 be 9f 3b 57 be
       -0.49160978 0.09088667 -0.32218394 -0.21018837
000090 ef 55 9b be 79 39 20 3f 9c f1 d2 3e ad 2a 6e 3d
       -0.30339 0.62587696 0.41199958 0.058146168
0000a0 68 fc 24 be 02 93 ed bd 0a ba 09 3c d5 f8 a7 3e
       -0.1611191 -0.11600305 0.008406172 0.3280703
0000b0 3e fd 2b bf 89 19 0b bf ca 4a 72 3e 4c 2a a7 3e
       -0.6718329 -0.5433584 0.23661342 0.32649457
0000c0 c8 bc 6a 3b 7f 34 e6 3d 39 fe b1 3e ed dc d7 3e
       0.0035818089 0.112404816 0.3476427 0.4216074
0000d0 8b ee bb 3d 23 3f a9 3d 06 4e 95 3e 72 12 06 be
       0.09176358 0.082639955 0.2916109 -0.13092974
0000e0 e0 ac 58 3e a9 ad 69 be e5 0d f6 be a2 15 aa be
       0.21159697 -0.22820152 -0.48057476 -0.3321963
0000f0 4e f2 0c 3f 3e 84 9f 3d 9d 53 06 be 92 db b3 3d
       0.5505723 0.07788895 -0.13117833 0.08782114
000100 4a a8 95 3e be 50 bb 3c 8a de 0c be fd 41 af 3d
       0.29229957 0.02286565 -0.13756767 0.08557508
000110 f9 d6 21 3f 91 8d c5 3e 58 13 03 bf 96 58 bf bd
       0.6321865 0.3858457 -0.5120139 -0.09343068
000120 8a 97 80 3c 9d 0d 07 be 24 ec b3 3e 0b 50 9d 3f
       0.01569726 -0.13188787 0.35141098 1.2290052
000130 f1 ee 15 3e 21 ae 8c be f0 07 71 3e 34 80 70 bf
       0.1464193 -0.274766 0.23538184 -0.9394562
000140 65 67 eb be f8 ec 51 3f 19 ca 0e 3d 71 ea a5 be
       -0.4597732 0.8200221 0.034860704 -0.32405427
000150 48 2c af 3c 12 22 8f bc 39 ce a0 3e 2a b9 3f bf
       0.02138342 -0.0174723 0.31407335 -0.7489191
000160 61 91 84 3e cb 9f 50 be b1 11 8e be 5c b7 1c 3f
       0.25892165 -0.20373456 -0.27747872 0.61217284
000170 76 3c 9b 3e 17 5b aa 3e 32 d2 ee be 39 ac a5 be
       0.30319566 0.3327262 -0.4664474 -0.32357958
000180 a3 34 81 3e 1b 51 37 3f f2 99 2e bf 21 52 41 bf
       0.2523547 0.7160813 -0.6820365 -0.75515944
000190 64 37 c6 3e 5e 28 99 3e e2 e1 3b bf c5 13 1a be
       0.38714135 0.2991361 -0.73391545 -0.15046604
0001a0 28 d5 5a bf a1 b5 15 be c2 8a be be 49 4b c8 be
       -0.854815 -0.14620067 -0.3721524 -0.39119938
0001b0 e4 8b c6 bd 4a d9 af 3e 63 3b ec 3d d9 ea 80 3d
       -0.09694651 0.34345466 0.115347646 0.06294794
0001c0 23 0f 88 be 6b 38 99 3e 6c 59 c1 3e 95 39 81 bf
       -0.26574048 0.29925856 0.37763536 -1.0095698
0001d0 07 c3 81 bd c0 c5 1e 3f 72 ae d6 3c 16 bc a5 bc
       -0.06336027 0.6202049 0.026206229 -0.020231288
0001e0 4e 4c 24 3f 63 0a e2 be c7 81 46 bf e8 8e 70 3e
       0.6417893 -0.4414855 -0.77541775 0.23492014
0001f0 69 3f f9 be bb 8d 5f be f7 26 f5 bd 8f 32 5e be
       -0.4868119 -0.2183141 -0.119703226 -0.21698974
000200 21 95 c2 be c7 60 38 bf c4 c9 90 3d ed 02 59 3e
       -0.380044 -0.7202267 0.07069734 0.21192522
000210 20 3c 55 be db 73 64 3e 08 c7 4e 3f 71 17 0b bd
       -0.20823717 0.2230982 0.8077245 -0.033957902
000220 6e 09 20 be cf 5a 89 bd 0a a5 1f 3a c6 66 62 3f
       -0.15628597 -0.067067735 0.00060899614 0.8843807
000230 1f 63 4c 3f ff 45 0e 3f b8 79 d1 3d 96 d3 d4 bc
       0.79838747 0.55575556 0.10228294 -0.025979798
000240 52 8a 4a bf 57 6d 95 be 1d 6f 62 3e de 63 16 be
       -0.7911731 -0.29184982 0.22112699 -0.14686534
000250 35 b9 86 be 55 dc 8e be 72 d2 33 bf 71 0c 81 bf
       -0.26313177 -0.27902475 -0.7024299 -1.0081922
000260 48 a1 26 bf 07 ef 4b 3f 76 28 2d 3e 71 36 ba be
       -0.65089846 0.796616 0.16909966 -0.3636966
000270 7c 7d 11 3f e0 d8 09 bf fd 75 69 3d 9d d5 05 bf
       0.568321 -0.5384655 0.056997288 -0.52279073
000280 49 30 07 be db eb fd bd 59 a8 15 bf d1 75 1a bf
       -0.13202013 -0.123985015 -0.58460003 -0.60336024
000290 46 4f e8 bd 09 73 b1 be dc b7 99 be d8 27 5f 3d
       -0.11343245 -0.34658077 -0.30023086 0.054481357
0002a0 82 ce a6 be cd db 0f bd b2 38 d6 3e c7 f8 12 3e
       -0.32579428 -0.035121728 0.4184013 0.14352714
0002b0 c9 ad 10 3f 50 d5 11 3e 26 3f 03 bf 2a 55 2a 3f
       0.56515175 0.14241529 -0.5126823 0.665362
0002c0 73 f4 d3 3d 66 47 e0 3e 76 0f e8 3e 05 25 07 be
       0.10349359 0.43804473 0.45324296 -0.13197716
0002d0 4a 5f 1e 3f 8e 4b 0a be 15 3a cd 3e 86 c1 83 3e
       0.6186415 -0.13505384 0.40083376 0.25733584
0002e0 3a ed 4e 3e 18 43 46 3e d5 0e ce be 1a 0e f3 3d
       0.20207682 0.19361532 -0.4024569 0.11867924
0002f0 1e 46 7e 3e 0b 48 39 3e 08 c8 05 3f 89 d6 b3 3e
       0.24831435 0.18093888 0.5225835 0.35124615
000300 da 48 03 bf 7b 96 c2 3e 14 9e 34 bf 34 58 ad be
       -0.5128304 0.38005432 -0.7055371 -0.33856356
000310 f9 2c ae 3d 3a 53 69 3e 32 ee 36 be 7e 85 ac ba
       0.085046716 0.22785655 -0.17864302 -0.0013162342
000320 97 0f 54 3e ba 04 47 3f 60 c5 c3 be 37 43 bf be
       0.20709072 0.7774159 -0.38236523 -0.37355968
000330 84 99 07 bd da b3 1e 3f ff 5e be be d2 d7 7b 3e
       -0.03310539 0.6199318 -0.3718185 0.24594048
000340 1a c4 83 bd 6c 07 26 3d fc 23 0c 3e ce b2 4a bd
       -0.06433888 0.04053442 0.13685602 -0.049486928
000350 eb fe 71 be aa 15 8c be 8f de 08 be 30 b6 c2 3d
       -0.236324 -0.27360278 -0.1336615 0.09507406
000360 56 7e d0 be 0a 01 8e be be cc f0 3e a7 3a 2e bf
       -0.40721387 -0.27735168 0.47031206 -0.68058246
000370 08 66 33 bd 8f c9 d7 3e 93 ac a1 3e ab 69 a8 3d
       -0.043798476 0.42145965 0.31576976 0.082232796
000380 c5 af ab bd 61 bb 21 3e d5 b3 9f be 24 76 83 bd
       -0.08383135 0.15794136 -0.31191888 -0.06419018
000390 b6 52 ee be 92 ea 55 39 f6 c4 fc 3e 5c f9 e3 3e
       -0.46547478 0.00020400647 0.4936902 0.44526184
0003a0 72 2b b6 3b 23 a4 82 3e 14 2f 1b 3f ad fd 1b bf
       0.0055593783 0.2551585 0.6061871 -0.60933954
0003b0 98 72 f3 3e 9e b7 e9 be d7 81 17 be 04 58 d7 bd
       0.47548366 -0.456479 -0.14795624 -0.105148345
0003c0 ad e9 36 3e 9d 1a 82 3f 7d 8e 2e be c5 51 f1 3e
       0.17862578 1.0164372 -0.17046542 0.47132698
0003d0 6b ba 2f 3e 1a fe ee bd 49 7f 2c 3f bb bb 49 bf
       0.17160957 -0.1166956 0.6738172 -0.7880208
0003e0 11 67 46 3c 6a 78 3c be 0d 35 84 be aa 8f 5b bc
       0.012109534 -0.1840531 -0.25821725 -0.013400951
0003f0 03 5e 9f 3e 9f 41 c5 bd 41 bb d4 bd 49 b7 0d bf
       0.31126413 -0.09631657 -0.10387278 -0.55357796

layer1.bias f4 [128]
000000 76 4a 08 bf 3f d9 50 3d 46 a6 68 be b9 7d 58 be
       -0.5323862 0.050988432 -0.22719678 -0.2114171
000010 a9 4b 5f 3e 7b 64 5e 3e 13 1c bb 3e 4b c7 de be
       0.21806206 0.21718018 0.36544856 -0.43511423
000020 10 71 0c 3f 8f 6d b0 be 15 5b 19 3f c5 76 f2 be
       0.5486002 -0.34458587 0.59904605 -0.4735624
000030 c1 c1 b8 be 93 1a 23 3e 70 29 4e 3d 69 6e 1e be
       -0.36085322 0.15928106 0.050332487 -0.15471806
000040 a6 77 28 be 0a 16 6e bd 8f 86 8c be f7 05 98 be
       -0.16451892 -0.058126487 -0.2744641 -0.2969205
000050 68 2a 58 bb a9 2c 14 3e c0 52 03 bd c1 9a 2f 3e
       -0.003298426 0.14470161 -0.03206134 0.17148878
000060 fb 8a b9 3e 38 f1 da be 0b 89 86 3c b2 a3 5d be
       0.36238846 -0.4276216 0.016422769 -0.21644476
000070 0e 7c c1 be 11 51 3a bf 42 2b 82 3d e8 74 95 be
       -0.3778996 -0.7277995 0.06355907 -0.29190755
000080 f7 27 39 bd 71 cc fb be f8 cf e2 3e 69 36 da be
       -0.04520413 -0.49179414 0.44299293 -0.42619637
000090 82 fa 6d be 98 85 39 3f 4e b3 13 3f 0f 32 7e 3a
       -0.23240092 0.7246947 0.5769547 0.00096967904
0000a0 d5 23 64 3e 3a 28 b9 bb bc 9a 40 be 6e f4 8c be
       0.22279294 -0.0056505473 -0.18809026 -0.27530235
0000b0 66 80 d3 3e 1d ac 15 bf a5 dd 86 bd 77 65 d1 3e
       0.41308898 -0.5846575 -0.06585244 0.40897724
0000c0 e3 86 f8 be db e8 1d 3f bd 49 77 be 75 c2 dc 3e
       -0.4854041 0.61683434 -0.24149223 0.4311711
0000d0 48 07 27 3f c9 15 36 be 75 c3 6f 3e e0 c9 3c 3d
       0.65245485 -0.17781748 0.23414405 0.04609096
0000e0 c6 46 04 3e d7 17 25 3d 53 39 24 bf 25 d6 51 bf
       0.12917623 0.04030594 -0.6414997 -0.81967384
0000f0 e1 b7 dc 3d 9b fe 69 be eb da ca bb 4d 75 ab 3e
       0.107772596 -0.2285103 -0.006190648 0.3348793
000100 f3 e3 a8 3e 9b 51 bd be 25 3f f2 be 95 d6 d1 3e
       0.3298641 -0.36976323 -0.473138 0.40984026
000110 81 d7 17 bd 60 97 7f be c9 af 8a be 8f d9 5e be
       -0.037070755 -0.24960089 -0.27087238 -0.2176268
000120 37 81 b1 be 7d fb 26 3e 0e 25 b5 be e0 5d e4 3e
       -0.34668896 0.16306873 -0.35379833 0.4460287
000130 3d 8d 2f 3e 5d a1 96 be 74 41 86 3e 6a 41 1a 3f
       0.17143722 -0.29419985 0.26221812 0.60256064
000140 3e 93 91 be 46 72 71 3e ac 1d ea 3e 5a 70 2a 3e
       -0.2843265 0.23578748 0.45725763 0.16644421
000150 8d 69 8c be 80 e0 5e be 0e 01 37 3e cb 75 87 bf
       -0.2742428 -0.21765327 0.17871496 -1.0582823
000160 ad 1f 80 bd 44 c6 aa be 76 78 d4 3e 21 bc 8d bf
       -0.06256042 -0.3335439 0.41498154 -1.1073037
000170 58 63 0a 3f 3c a1 1e 3f 0d d7 4b 3e c7 c2 f8 3d
       0.54057837 0.61964774 0.19906254 0.12146526
000180 22 59 d8 3e 23 bc 5c be 57 82 76 bb 70 b7 29 be
       0.42255503 -0.21556143 -0.003761431 -0.16573882
000190 a4 cd 04 bf e2 8c 06 3e 43 48 41 3e c2 05 f2 be
       -0.5187628 0.1313968 0.18875222 -0.47270018
0001a0 6f 52 f0 be 27 31 1c 3e be c8 7d 3e 6e 2b cd bd
       -0.46937892 0.15253125 0.24783608 -0.10018049
0001b0 db 46 b4 3d c1 b5 ba 3e ad ec 0e bf f9 45 41 be
       0.08802577 0.36466792 -0.5582989 -0.18874349
0001c0 54 6d 5e bc 2e 70 1a 3c ce 18 07 be 45 65 0d 3f
       -0.013575871 0.00942616 -0.13193056 0.5523265
0001d0 c5 65 b9 3d 19 54 76 3e cc 54 91 3e ce c7 12 bf
       0.09052614 0.24055518 0.28385007 -0.5733613
0001e0 ca 91 5e 3e 44 01 12 3f 71 4c 0a bf 57 99 bd 3e
       0.21735302 0.5703318 -0.5402289 0.37031052
0001f0 9e 36 bd 3c 3d e4 96 3e 34 b2 75 3c 4e c7 b4 3e
       0.023097333 0.29471007 0.0149961 0.35308307

layer2.weight f4 [128, 128]
000000 6a 57 c1 bd ad d0 90 3d de a9 52 be a7 e8 72 3e
       -0.09440501 0.07071052 -0.20572612 0.23721562
000010 7c cb 5d 3e 2a f3 9b bc 8a 26 23 3c 69 65 86 3e
       0.21659654 -0.019036848 0.009957919 0.26249245
000020 b6 6e cf bd 8b 3a 28 3e 3b 94 00 bf e3 20 76 3e
       -0.10128538 0.16428582 -0.5022618 0.24035983
000030 36 d4 15 3f b5 1a 15 bf be 53 31 3e a8 b6 ab 3e
       0.58526933 -0.58243877 0.17317101 0.33537793
000040 fd 51 24 bf 73 3e 92 be f1 9e 14 3e ac 7e c3 3e
       -0.64187604 -0.2856327 0.14513756 0.3818258
000050 c5 61 69 be 80 f3 c3 bd e7 0e 74 bd 38 57 20 3e
       -0.22791202 -0.09567928 -0.059584524 0.15658271
000060 cd 1b b6 3e d7 aa 4a be 20 ce f8 be b9 8f a0 3e
       0.35568085 -0.19791733 -0.4859476 0.31359652
000070 62 d6 95 bf 99 c0 dc be 1d 9d f4 be 6f 15 5d be
       -1.170605 -0.4311569 -0.47776118 -0.21590208
000080 e4 18 35 3d d0 ae d0 3e af 17 65 bd fd 8f 5c 3e
       0.04421319 0.4075837 -0.05593079 0.21539302
000090 22 7a 81 3d 9d 10 03 3d d5 9b 1d 3e 26 dc de bd
       0.06322123 0.031998266 0.15391476 -0.10881834
0000a0 47 9c c0 3e ca b2 10 be c2 53 46 3d 9e e2 2a 3e
       0.3761923 -0.14130703 0.04841972 0.1668801
0000b0 be 26 4f bd 63 35 d7 3e c4 4e 99 bd 68 67 b6 be
       -0.050574057 0.42032918 -0.074857265 -0.35625768
0000c0 a6 2c 07 c0 7f a3 23 3e 88 51 97 3e 0a ce b4 3c
       -2.1121001 0.15980338 0.2955439 0.022070903
0000d0 76 e2 4c 3d 0b cd ac 3c bd 34 03 3e 4c b7 65 3e
       0.050020657 0.021093866 0.12813087 0.22433203
0000e0 db e1 eb 3d d4 9d 2a 3e 20 94 48 3e 2b 6c 0d 3e
       0.11517688 0.16661769 0.19587755 0.13810794
0000f0 ba 1b 13 be b4 f2 28 3d ca 37 51 be 00 af 8a be
       -0.14366046 0.041247085 -0.20431438 -0.2708664
000100 62 12 06 bc e5 c9 f2 3d 7c 06 1b 3f b2 4e a8 be
       -0.008183094 0.118549146 0.6055677 -0.3287254
000110 0e 2b 25 bf 65 4b 50 3e 27 a5 6d 3e e4 8b c3 bd
       -0.6451882 0.2034126 0.23207532 -0.095481664
000120 e7 5f bc bf 11 13 f0 3d 61 b8 1a bd ec 0b 90 bd
       -1.4716767 0.11722387 -0.037773494 -0.07033524
000130 be 90 bc bc f3 76 29 3f d3 51 28 bf 4e ff 07 bd
       -0.023018237 0.6619713 -0.65749854 -0.033202462
000140 86 85 e5 bd f2 0e cc 3d c0 9b 8f be 05 95 c3 bb
       -0.11207108 0.09963788 -0.28048515 -0.0059686922
000150 52 30 4c 3d 6b 90 33 bd 96 d2 d0 3c 9e 66 53 c0
       0.04985077 -0.0438389 0.02549104 -3.3031383
000160 2b b1 d5 be 36 32 8d 3d d1 5b 7b 3d 79 ea 98 bd
       -0.4173673 0.068943426 0.06136686 -0.07466597
000170 d5 a3 b6 be 66 0f 63 bd d9 7b 6b bd 55 48 0e 3d
       -0.3567187 -0.055434607 -0.057491157 0.03473695
000180 3b 46 9f be 2f 98 ae 3d 4e 1c e5 3c 49 3e 59 3e
       -0.3110827 0.085251205 0.027967598 0.21215166
000190 99 28 34 bf 44 c6 08 3f 0a c3 2c bf c9 49 17 3e
       -0.7037445 0.5342753 -0.67485106 0.1477424
0001a0 1e c8 33 3e 7d 59 07 3b aa db d6 bc e4 8b a2 bd
       0.17556807 0.0020652704 -0.02622779 -0.07936838
0001b0 ed e3 a0 3c 03 ad 7d 3d e3 82 01 bd 40 a2 23 3d
       0.019639933 0.061932575 -0.031618964 0.039949656
0001c0 2f 87 65 bc 1f 23 93 3c 02 00 dc be b1 ef 6d 3e
       -0.014009281 0.017961083 -0.42968756 0.23235966
0001d0 d5 c9 55 3d ab 67 c9 bd cd 4c b5 3d 89 5a 64 be
       0.052194435 -0.09834226 0.08852539 -0.22300161
0001e0 5a e5 08 3b 31 15 44 3c 99 85 90 be bd ac 05 be
       0.0020888657 0.011967943 -0.28226927 -0.13054176
0001f0 59 e2 58 3e c4 01 af be af aa 06 3e 6e 6d 46 3e
       0.21180095 -0.34181035 0.13151048 0.19377682
000200 bd 56 8d 3e 8c 39 1f 3d 47 67 c9 3e 35 9f 27 3e
       0.2760524 0.03887324 0.39336607 0.16369326
000210 5a 5a 82 3c dd 3b 95 3e 70 ed b3 3d 8e 40 93 3d
       0.015912224 0.29147235 0.08785522 0.07190047
000220 15 1e ef bd ee 6b 73 3c 81 34 cf 3d d3 9b 0e be
       -0.116756596 0.014857275 0.10117436 -0.1392663
000230 8a 9e ed 3c e9 06 d5 be 5e c6 c1 3d 6c 6f 42 bd
       0.029006261 -0.41606835 0.09461664 -0.04746954
000240 ef 9d 8f 3e 4e aa 4b 3e bd 11 9a 3d 63 fd ab be
       0.2805018 0.19889185 0.075229146 -0.33591756
000250 2e 8d c5 bd e5 71 0f 3e 6d e9 15 3e 29 ba b7 be
       -0.096460685 0.14008291 0.14639826 -0.35884216
000260 24 d1 1e 3e e3 e8 a5 be f1 a6 62 3e 62 4d 91 3e
       0.15509468 -0.3240424 0.22133996 0.2837935
000270 77 92 b6 bd 54 49 20 be 44 1a 3d be 2a 39 e7 3c
       -0.08914655 -0.15652972 -0.18467051 0.0282255
000280 d9 10 a9 3e eb 5a e3 3d af f7 dc 3c a7 d4 e7 3c
       0.33020666 0.111013256 0.026973573 0.028299643
000290 77 00 04 bd 8b 44 bf bd 6f fb b8 3d 8c 92 9d 3e
       -0.032227006 -0.093392454 0.09032332 0.3077587
0002a0 2d 6a 4f bc 78 2a b4 be e7 a2 8c bd 14 84 a4 3d
       -0.012659592 -0.3518865 -0.06867009 0.080330044
0002b0 12 e9 93 3c d5 ab 14 be cd f3 55 bd 2d 7b 16 3e
       0.018055473 -0.14518674 -0.05223446 0.14695425
0002c0 9a 11 9c be bf dc 0d bc 6a 2e f2 3d f1 89 05 be
       -0.3048218 -0.008658587 0.11825259 -0.13040902
0002d0 df 65 84 be ec e4 a1 bd ee 64 3f 3e 85 1a 17 3e
       -0.2585897 -0.079049915 0.18690845 0.1475621
0002e0 e0 15 82 be 93 b7 e9 bd be 86 ce 3e 78 e7 28 3e
       -0.25407314 -0.11411967 0.40337175 0.16494548
0002f0 ac 37 b7 3e ba c3 35 3d 70 e0 bd 3e 6b 4a 2b be
       0.35784662 0.044376113 0.37085295 -0.16727607
000300 b6 0b 80 3c 4e 7b 3c bd 8e 75 13 bf 89 ed 7d 3c
       0.015630584 -0.04601603 -0.5760125 0.015498527
000310 aa 6c b8 3d e7 bf bc 3d bc fa 6a 3d bd 3f a6 3d
       0.09005101 0.0921629 0.057368025 0.08117626
000320 30 79 4b 3d b9 31 e7 bc a7 71 b1 b9 40 0d 3e be
       0.04967612 -0.028221952 -0.00033844748 -0.18559742
000330 6e 44 3d 3e 75 26 6d bb 9a 08 53 3e ce 2b 14 3e
       0.18483135 -0.0036186252 0.2060875 0.14469835
000340 64 00 b2 3e 9a e6 e3 3d 02 b1 20 be 3b b0 9f bd
       0.34765923 0.11127968 -0.15692523 -0.07797285
000350 6e bd 65 bb 1b 62 dd 3b e9 2f 31 bc b5 66 a8 bd
       -0.0035055536 0.00675608 -0.010814645 -0.08222715
000360 b7 df b4 3d 30 3b 6c 3e de a4 04 bb 60 a7 20 3e
       0.08831733 0.23069453 -0.002023987 0.15688848
000370 ff 1e cf 3d c0 d3 9b 3d 0f ca 09 3e 48 27 bc 3c
       0.10113334 0.076087475 0.13455985 0.02296795
000380 09 39 79 3d 56 59 4e be a4 a4 4e be 04 ac 2a 3d
       0.06084541 -0.20151266 -0.20179993 0.041667953
000390 32 a7 13 bf 7d 05 d1 bd 19 38 91 be b5 b4 42 be
       -0.57676995 -0.10206125 -0.28363112 -0.19014247
0003a0 2d 41 2c 3e 89 0e 49 be ca 80 ac 3b 68 5c 1b 3e
       0.16821738 -0.19634451 0.0052643763 0.15171969
0003b0 ac a0 18 3e f4 9f 83 3e 72 4d 9c 3c 00 d9 cf 3d
       0.14905041 0.25707972 0.019079898 0.10148811
0003c0 d9 27 0d be a0 2a b7 be 8a 76 99 3d ca 5d 92 be
       -0.13784732 -0.35774708 0.07493313 -0.2858718
0003d0 7a b7 16 bd 90 18 af 3e 2e 6a 23 3e d3 fe 1d 3d
       -0.03679607 0.34198427 0.15958473 0.038573097
0003e0 ac 2f 68 3d 93 c9 39 be ec 81 05 bf 97 3f 85 be
       0.05668609 -0.181433 -0.5215137 -0.26025078
0003f0 14 46 05 3e d7 1e d2 3b 3f 10 6b 3e da 96 48 be
       0.13015014 0.006412368 0.22955416 -0.19588795

layer2.bias f4 [128]
000000 e9 e5 5d bd 2e 91 a3 3c d5 de 0a 3e b3 25 a6 bc
       -0.054174338 0.019966688 0.13561566 -0.020281648
000010 b9 36 44 3e 88 75 fa bc e1 97 33 3e e2 51 84 3d
       0.191615 -0.030573621 0.17538406 0.064609304
000020 d5 a6 19 3e 35 99 93 3e b1 06 60 3d 54 a9 0e bd
       0.15005048 0.28827825 0.05469388 -0.034829453
000030 c2 64 26 3e de 31 09 3e 8f 01 34 3e c0 dc a1 3d
       0.16249374 0.13397929 0.1757872 0.07903433
000040 30 b0 cc 3c 1d fe c3 bd c7 45 43 3e 1e e1 9e bd
       0.024986356 -0.09569953 0.19069587 -0.077577814
000050 cd f1 65 bd dc 9d 73 be cf e6 f8 3c 80 a1 90 3e
       -0.056138802 -0.23790687 0.030383496 0.28248215
000060 c9 81 03 3e b8 28 92 bd 83 54 ff 3d de b6 bd bb
       0.12842478 -0.07136673 0.12467291 -0.0057896217
000070 54 79 5f bd f9 d6 36 3e c5 42 59 3e d2 d2 1d bf
       -0.054559067 0.17855443 0.21216877 -0.6164981
000080 47 8f 28 be 7e 49 8b 3d 12 c0 4b 3e c0 54 8b bc
       -0.16460906 0.06801127 0.19897488 -0.017008185
000090 32 35 78 3e 88 fe a8 3e 09 d6 11 3e cb 59 42 3d
       0.24239042 0.33006692 0.14241804 0.047448914
0000a0 82 6f 8a 3b 93 0d 38 3e 08 97 97 3d df 6a c4 bd
       0.0042247185 0.17973928 0.07401854 -0.095906965
0000b0 e4 93 a8 3d c4 ec 7d bd 30 38 ce 3d a9 46 c3 bd
       0.08231333 -0.061993375 0.10069311 -0.09534962
0000c0 f9 08 87 3d cb ee 05 3d b7 a3 c6 bd df a8 11 3d
       0.06593508 0.032698434 -0.09699195 0.03556144
0000d0 f0 d0 77 3e a1 fb 0d 3e b1 ec 89 be 29 26 ec 3d
       0.24200797 0.1386552 -0.26938394 0.11530716
0000e0 5f 56 6a 3e 06 e7 28 3d 0e d4 80 3e 51 a1 cb 3d
       0.2288451 0.041235946 0.25161785 0.09942878
0000f0 36 8a 1a 3e 37 a3 02 be 3d d4 92 3d 6f 63 1d be
       0.15091786 -0.12757574 0.071693875 -0.15369962
000100 b8 d1 9d 3d ac e9 24 3e 30 40 bd 3e d3 5c f3 bc
       0.07706016 0.16104764 0.36963034 -0.029707348
000110 20 d0 c9 3c 9f 7c 05 be 7c 50 82 3e a3 a0 c8 bb
       0.024635375 -0.1303582 0.2545203 -0.006122665
000120 56 e8 c4 3d 22 26 fd 3d be 03 de 3d ed be 95 3e
       0.09614627 0.12360789 0.108405575 0.29247227
000130 e0 ea c0 bd 22 cf 36 3e 51 f6 ae 3c 0f 14 03 bd
       -0.09419799 0.17852452 0.021357687 -0.03200155
000140 44 5c fb 3b f8 5f 77 3d 22 96 77 3d 74 1c 0d 3e
       0.007670911 0.060394257 0.060445912 0.13780385
000150 e7 fc 9c 3e 7f 7a 2a 3e e5 b8 c5 3d 2d 14 6f 3c
       0.306617 0.16648291 0.096544065 0.014592213
000160 a0 16 88 3e 82 c1 9d 3d c1 5f f7 bd 93 ca 4f bd
       0.26579762 0.07702924 -0.120788105 -0.0507303
000170 f8 f1 5e 3e a1 1c 61 3e cb 89 31 3e 09 99 05 be
       0.21771991 0.21983577 0.1733772 -0.1304666
000180 6b 81 c0 3d 4a 81 d7 3d 2e 09 14 3e a7 41 66 bc
       0.093996845 0.10522707 0.14456627 -0.014053739
000190 97 f6 bb be ff d3 9d bd a5 14 86 bd 81 e1 4d 3d
       -0.3671157 -0.07706451 -0.065469064 0.050263885
0001a0 5e 91 4a 3e 1e 61 39 3d 1c ed d4 bd b9 4e 5c 3d
       0.19782016 0.045258634 -0.103967875 0.053786013
0001b0 b6 de c9 3d 59 a8 cd 3e ac 9a a8 3e 7d 68 56 3e
       0.09856932 0.40167502 0.32930505 0.20938297
0001c0 04 d0 0a 3e d4 c5 a3 3e c2 d6 1f be 40 15 98 3d
       0.13555914 0.31986868 -0.15609267 0.07425928
0001d0 34 39 81 3e ed b0 7a ba ce f0 02 3e a2 b2 76 3e
       0.25238955 -0.0009563107 0.12787172 0.2409158
0001e0 c7 43 f2 bd 90 09 47 3d 32 ee d8 bd bd fa 7f 3d
       -0.11829334 0.048593104 -0.10592307 0.062494982
0001f0 b0 ff b0 3e db 22 ec 3c c2 86 16 3e c6 46 e0 bd
       0.34570074 0.028825214 0.14699844 -0.10950999

value_function.weight f4 [1, 128]
000000 d2 04 b2 3f 83 09 5f bf f5 f3 05 40 f6 46 67 3f
       1.3907721 -0.8712389 2.093015 0.9034265
000010 3f 2f de be 18 ca 59 3f e3 43 8b 3f 13 04 d4 3f
       -0.4339542 0.85073996 1.0880092 1.6563743
000020 84 5b 1f be 35 1d e1 be 64 9a 55 40 f1 f9 38 3f
       -0.15562254 -0.43967596 3.3375483 0.7225638
000030 01 29 4b be 66 f0 10 bf f5 22 0b be 44 fa 58 bd
       -0.1983986 -0.5661682 -0.13587554 -0.052973047
000040 d9 8a fc 3e 81 21 40 3c 25 42 9c be 4f f1 43 3f
       0.49324682 0.011726738 -0.30519214 0.7654008
000050 c0 49 27 bd 89 38 ce bf a7 94 d7 bc 1f 72 69 3f
       -0.040841818 -1.6111003 -0.026316 0.9118976
000060 ee da 33 bd 3c 92 68 3d 64 c9 2c be aa 3e 21 3f
       -0.04390996 0.056780085 -0.168737 0.6298624
000070 50 64 95 3d ec cf 2d bf 3e 8a dc 3f 15 0e 0d c0
       0.07294524 -0.6789539 1.7229688 -2.2039845
000080 04 6d 42 bf 52 5c 16 be f5 e3 1b 40 7f c8 1d 3d
       -0.75947595 -0.14683655 2.4357884 0.038521286
000090 09 41 2d be d2 d6 14 bf b5 e9 08 be fb dc 0a 40
       -0.1691934 -0.5814029 -0.13370402 2.1697376
0000a0 78 25 8a 3f 76 81 30 be a9 80 07 be 63 00 f2 3c
       1.0792685 -0.17236885 -0.13232674 0.0295412
0000b0 40 87 22 be f5 e6 46 3f f7 ef 22 be 60 44 aa 3f
       -0.15871906 0.7769616 -0.15911852 1.3302116
0000c0 b2 4a 00 be 0a aa 67 3f 4a 62 39 40 78 2f 6a 3f
       -0.12528494 0.90493834 2.896624 0.9147868
0000d0 2d 1c 02 bf 52 ff 0b be 69 ed 8e bf 49 b8 bd bd
       -0.5082424 -0.13671616 -1.1166202 -0.09263665
0000e0 b8 ef 21 bf ef 51 6c 3d a6 02 21 bf fe 9a 00 be
       -0.63256407 0.057695325 -0.62894666 -0.12559125
0000f0 af f2 07 be c9 c9 07 bf ba 5c 04 be 8e c5 d3 3f
       -0.1327617 -0.53042275 -0.12925997 1.6544664
000100 87 0a 61 be da d7 e3 bd 26 8d f7 be ec c7 0e 3f
       -0.21976672 -0.11125155 -0.48349875 0.55773807
000110 ed 33 88 3f 12 4d 77 bf eb 04 33 40 09 58 20 3f
       1.0640846 -0.96601975 2.7971752 0.6263433
000120 c3 ad 14 be 81 4a f9 bd 7c c7 a7 3f 9f 23 fe be
       -0.1451941 -0.121724136 1.3107753 -0.49636552
000130 be 1a c5 3c 44 ee 09 bf 80 26 ef bd 46 a0 d4 3f
       0.024060603 -0.5387919 -0.11677265 1.6611412
000140 2d 93 a8 3f 67 33 ec bd a5 03 03 3b b0 61 18 be
       1.3169914 -0.11533242 0.0019991186 -0.14881015
000150 62 f1 6f be fe 5d a7 be cf 48 15 be f5 ed 01 be
       -0.23431924 -0.32688898 -0.14578556 -0.1268843
000160 b2 5c e0 be f1 46 02 be d5 08 e0 bf 31 40 eb 3e
       -0.4382072 -0.12722374 -1.7502695 0.45947412
000170 ba 70 40 be 36 77 13 be d6 c8 a1 be 6f 0e 4f 3f
       -0.18793002 -0.14400944 -0.31598538 0.808814
000180 30 31 05 40 51 a0 66 be f3 e4 60 be 6f 0c 30 bf
       2.0811272 -0.22522093 -0.21962337 -0.6876897
000190 8a ff 1c bf 1d ed ba 3f ce 18 9e 3d 92 c4 98 bd
       -0.6132742 1.4603611 0.07719575 -0.07459368
0001a0 3b 11 03 be 2d 5d 41 be c1 75 a4 3f b3 13 37 be
       -0.12799542 -0.188832 1.2848436 -0.17878608
0001b0 62 83 95 be 44 0f 85 be ca 57 1b bf c8 d0 d7 3e
       -0.292018 -0.2598821 -0.6068083 0.42151475
0001c0 fc a5 de 3f 8f 3c a2 3f 3f 85 a8 3f f5 49 81 bd
       1.7394404 1.2674731 1.3165663 -0.06312934
0001d0 fe 89 51 40 df c4 99 3d 01 be 17 be e8 9d 34 be
       3.2740474 0.07508253 -0.14818574 -0.17638361
0001e0 49 b6 82 3f e6 fb 96 3f b0 7b 6a 3f 7b ec 72 3f
       1.0211879 1.1795623 0.9159498 0.9489209
0001f0 26 3f 51 be f5 cf 45 3f 44 84 27 3f 91 9c 10 40
       -0.20434245 0.7727044 0.65436196 2.259556

advantage.weight f4 [3, 128]
000000 c2 5b 2f 3e 1f 4a ab 3d 69 8b bc 3d 3a 2c 04 be
       0.17124847 0.08363747 0.09206278 -0.12907496
000010 3c 23 c4 3d 44 86 22 be da df 94 3d 05 28 ab bd
       0.09577033 -0.15871531 0.07269259 -0.083572425
000020 ad 3e 3b 3d dd bc 78 bd c6 fb 7e be 67 31 43 bc
       0.04571407 -0.06072699 -0.24900731 -0.011913634
000030 24 6e 9d bd 0e ad d7 ba f3 85 a3 3c 2b a0 5c 3d
       -0.07687023 -0.0016454773 0.019961333 0.053863686
000040 7e 52 4f 3e ee 3e 89 3d 2c f1 93 3c ae d8 22 bd
       0.20246312 0.06701456 0.018059336 -0.039757423
000050 19 48 08 bb b0 eb b5 bb 00 ec 3e bb c2 67 2b bd
       -0.0020794927 -0.005551778 -0.0029132366 -0.041846998
000060 e2 d3 bb 3c d5 2d b8 3c 5e 2d 6c 3d 40 f4 77 bd
       0.022928182 0.022482792 0.057660453 -0.06053567
000070 00 be 96 bd df de 19 bd b0 5e 36 be 7e 40 be bb
       -0.073604584 -0.037566062 -0.17809558 -0.005806028
000080 c5 c0 7d 3d 7d 89 76 bd 7f 0a e7 3d b7 4e 09 bd
       0.061951417 -0.060189713 0.11281299 -0.033522334
000090 71 20 09 3e ec 2f 41 3c 2d bf c8 bd 45 d2 16 be
       0.13391282 0.011791211 -0.09802089 -0.14728649
0000a0 ef 35 12 3d 22 e3 c1 bd b3 2d 50 bd ba fe 85 bd
       0.035695966 -0.0946715 -0.050824832 -0.06542726
0000b0 48 4c a4 bc 7d 73 dd 3d 5a ea 92 3d 26 a2 77 bd
       -0.020055905 0.10813043 0.07173605 -0.06045737
0000c0 36 2f d0 bc c9 ea 03 be 23 ed fd 3c 66 4a 2f 3f
       -0.025413137 -0.12882532 0.030996865 0.684729
0000d0 4f 02 73 3c 7c a7 2e 3d c5 27 a0 3d 6c e0 8c bc
       0.014832093 0.042640194 0.078200854 -0.017196856
0000e0 cd 30 8b 3d b0 5a b4 bd 7c 37 5e bd 17 29 93 bd
       0.067964174 -0.0880636 -0.054252133 -0.07185572
0000f0 c5 db 07 3d ee 07 62 3d 00 ee 07 be 42 29 33 3c
       0.033168573 0.055183344 -0.13274384 0.01093513
000100 3e a0 b4 3c bd 27 6c 3b c1 a4 00 bd b9 dd a8 3d
       0.022049066 0.0036034428 -0.03140712 0.08245415
000110 da d1 40 be 09 fb de 3c 40 b0 08 3e 25 28 1f 3d
       -0.18830052 0.027219312 0.13348484 0.038856644
000120 eb 85 c7 bc 5f 0c 95 3c c7 13 24 3d 17 8d 81 bb
       -0.02435585 0.018194376 0.040057924 -0.003953587
000130 f6 ec 77 3d 20 62 9d 3e ce 59 db bd 27 57 ab bd
       0.060528718 0.30738926 -0.10710488 -0.08366232
000140 42 3d 98 3c c3 28 95 bc 90 5e 5c 3c 6b a0 d6 bd
       0.018583898 -0.018207913 0.01345028 -0.10479816
000150 ad ed 75 bd d3 3e 47 3d b5 b0 9c 3d 24 96 88 bd
       -0.06004112 0.0486439 0.07650892 -0.06669262
000160 d4 e0 b2 3c dc b6 e8 bc d0 a3 ef bd f7 c2 5c 3e
       0.021835722 -0.028407507 -0.11701167 0.21558748
000170 7a 16 87 bd 04 cf 48 3d 5c 19 ba bd f8 8d 1a 3e
       -0.06596084 0.04902555 -0.09086868 0.1509322
000180 d0 db 23 be fa 70 2d 3d 8b 76 a0 3c 39 2b f6 bc
       -0.1600182 0.04234407 0.019587776 -0.030049907
000190 dd 22 15 3e 5e 49 11 3e f5 a6 70 ba 24 4b 56 3d
       0.1456408 0.14188144 -0.0009180152 0.052317753
0001a0 79 bb f2 3d 38 11 30 3c e2 9a be bb db 8f d8 bc
       0.11852164 0.010746293 -0.0058168033 -0.026435783
0001b0 d9 2f 8a 3d c4 0a 8e bc 58 ae a5 3d f1 de c7 be
       0.067474075 -0.017339118 0.08089894 -0.39037278
0001c0 87 e2 93 bd fd 69 87 3e bc b6 07 bc ab 32 8f 3d
       -0.07220941 0.2644805 -0.008283313 0.06992086
0001d0 56 e4 09 be 48 61 44 bd ae f1 71 3d 9c 19 b4 3d
       -0.1346601 -0.047944337 0.059068374 0.08793947
0001e0 07 d8 6d bd 8e da 87 3e 9a 15 36 3d d3 2d 34 be
       -0.058067348 0.26533931 0.044454195 -0.17595606
0001f0 16 38 8a bd d2 d8 fd 3c 54 5d 36 be 10 7b 58 3e
       -0.06748979 0.030987177 -0.1780904 0.21140695
000200 69 a2 ee 3c d2 50 bc 3d 49 0e 89 3d 97 75 83 3a
       0.029130178 0.09195103 0.06692178 0.0010029551
000210 74 e8 17 3d d3 02 8f 3c ce 1b 60 bc c4 77 0f bd
       0.03708692 0.017457401 -0.013678504 -0.035026327
000220 85 48 14 bd 4e 3b 8c 3c e1 eb 9d bd 72 3f 77 3d
       -0.036201973 0.017118122 -0.07711006 0.06036324
000230 b4 85 c9 3c 84 b8 4e bd cd f8 8d 3d cb dd 36 bd
       0.024599887 -0.050468937 0.069322206 -0.044645112
000240 e2 12 9c 3d ad 39 bb 3c bb 43 58 bd 89 6f 81 3c
       0.07620789 0.02285465 -0.052798968 0.015800254
000250 42 0f 93 bd 63 93 ec 3d 63 b8 45 3d 3b 16 d4 3d
       -0.071806446 0.11551549 0.048271548 0.103558026
000260 23 ea 08 3c ed f3 9e 3c 75 20 65 3d d1 2d 1a 3d
       0.008356604 0.019403422 0.055939157 0.03764135
000270 43 61 5f 3d 9d 5a 84 3b 43 25 81 bd b6 b4 32 3c
       0.054536115 0.0040391223 -0.06305935 0.010907343
000280 74 bd 9f bc 6b 31 86 3b 70 12 fa bb 31 2e e5 bb
       -0.019499518 0.0040952465 -0.0076315925 -0.006994032
000290 66 4c 78 3d 55 1c 18 3d 60 c6 55 bd 67 0e 66 bd
       0.060619734 0.037136395 -0.05219114 -0.05616608
0002a0 1d 29 8d 3d 23 6d bf bc e6 72 bc 3c 79 65 39 3c
       0.06892607 -0.02336747 0.023004007 0.011315697
0002b0 95 07 c3 3c b0 97 42 3d 7e 42 2c bd 2a 08 23 bd
       0.023807326 0.04750794 -0.0420556 -0.039802708
0002c0 e8 ed 2c bd 2c 3d e6 3a 86 2c 0d be 7f 58 38 bf
       -0.042219073 0.0017565838 -0.13786516 -0.72010034
0002d0 0c 4f da bc 88 8c 2c bc 57 b6 87 3c 58 b7 90 bc
       -0.02664902 -0.010531552 0.016566439 -0.01766555
0002e0 13 7f 5f bd 44 43 3e 3d 8b 70 2f bc c0 ae 79 3d
       -0.054564547 0.04645087 -0.010707985 0.06095767
0002f0 98 a3 61 3d 3a 0e 01 3d 06 d5 a6 bc 4e 83 a8 bd
       0.055087656 0.031507708 -0.02036525 -0.082281694
000300 c7 22 b3 bc 8f e1 0c 3d 4d 29 ed bc e2 f3 fa 3c
       -0.021867169 0.034394797 -0.028950358 0.03063387
000310 42 a1 13 bd 21 2a 0f 3d 28 20 63 3d 45 ce 99 3c
       -0.03604246 0.034952287 0.05545059 0.018775115
000320 38 2d 3b bd c7 a9 af bc b1 d2 a2 3d 82 87 02 bd
       -0.04569742 -0.02144326 0.079503424 -0.03186751
000330 94 c6 a1 3d 01 bf a8 bd 46 f3 06 bd b1 e8 96 3c
       0.07899204 -0.08239556 -0.032946847 0.018421503
000340 f8 03 8e 3d 9f 30 fa bc 24 6c 55 bd 76 ed ed 3c
       0.06934351 -0.030540762 -0.052105084 0.029043894
000350 dd e4 22 3d fe c0 3e 3d f1 2d 8c 3d 7a a6 6c bd
       0.039769042 0.04657077 0.068447 -0.057775952
000360 bb ac 15 bd cf f5 c8 3c e5 83 3f 3d 04 53 04 bd
       -0.03654168 0.024531273 0.046756644 -0.032305732
000370 42 61 42 3d 93 4b 41 3d 3e 6a a8 3c 8d dd d6 3c
       0.047456034 0.047191214 0.020558473 0.02622869
000380 a9 ae f8 bd 04 fd 44 bd c3 a3 78 bd 3a cc 4a bb
       -0.12142689 -0.048092857 -0.06070305 -0.0030944482
000390 6e 4f 69 bd 45 a7 e9 bd 04 be a0 3d 03 6d df 3d
       -0.056960516 -0.11408857 0.078487426 0.10909464
0003a0 90 b8 29 3d a1 2e 66 3d 43 3e 08 bd f1 27 c7 3a
       0.04143578 0.056196813 -0.033262502 0.0015194399
0003b0 56 2c b7 bc e3 58 7d 3d 55 32 50 3d 10 58 0a be
       -0.022360008 0.061852347 0.05082925 -0.13510156
0003c0 a8 d3 33 bd ee 05 5d bd 8d e8 72 3b 38 e5 75 3c
       -0.043903023 -0.053960733 0.003706488 0.015008263
0003d0 a4 dc 04 bd 41 16 2f bd cd 8d 64 3d 57 97 a4 3c
       -0.03243698 -0.042745832 0.055799294 0.020091696
0003e0 4f 11 f9 3c 69 1f a5 3d 03 4d 46 3d fd 68 c9 3d
       0.030403761 0.08062632 0.048413288 0.09834478
0003f0 70 4a d0 bc ee 0f d4 bd e3 75 a9 3c c0 79 bd bd
       -0.02542612 -0.10354601 0.020686096 -0.092517376

advantage.bias f4 [3]
000000 52 02 1f 3b 35 57 95 bd 64 9c ee bc
       0.0024262858 -0.07292024 -0.029127307
