Weights/acrobot_model_weights1.pth (torch, 75124 bytes, 7 tensors)

layer1.weight f4 [128, 6]
0	0xbef3fac6	-0.47652262
1	0x3f1e31ed	0.6179493
2	0xbf2ab84e	-0.66687477
3	0x3e0498e8	0.12948954
4	0xbe281fec	-0.16418427
5	0x3e8e9621	0.27848914
6	0x3d9358e9	0.07194693
7	0x3f1bf72c	0.6092403
8	0x3e46dc76	0.19420037
9	0xbf1103f7	-0.56646675
10	0xbd30be3f	-0.043150183
11	0x3e005917	0.12533985
12	0xbee1f637	-0.4413316
13	0xbf1303b7	-0.57427543
14	0xbe84e53b	-0.2595614
15	0xbe8271a6	-0.25477332
16	0x3e5e5447	0.21711837
17	0x3e7a4503	0.24440388
18	0xbea34e56	-0.31895703
19	0x3ec2e801	0.3806763
20	0xbea844b3	-0.32864913
21	0x3f287c2b	0.65814465
22	0xbdc3c266	-0.09558563
23	0x3eaf5794	0.34246504
24	0x3e6c80ec	0.23096055
25	0x3d9ae525	0.07563237
26	0x3f31080a	0.6915289
27	0xbe8040c8	-0.25049424
28	0xbe6f8bef	-0.23393224
29	0x3ceeabc7	0.029134644
30	0xbe85aaa9	-0.26106766
31	0x3f58d534	0.8470032
32	0xbed18301	-0.4092026
33	0xbe74fbf5	-0.23924239
34	0xbedaacc7	-0.42709944
35	0xbec04268	-0.37550664
36	0xbf0268e4	-0.509413
37	0x3e08f49c	0.13374561
38	0x3e290a38	0.16507804
39	0x3f2e36d8	0.68052435
40	0xbd25f58d	-0.04051738
41	0xbe5a82e7	-0.21338998
42	0x3e7f7fd6	0.2495111
43	0xbf089f6c	-0.5336826
44	0xbf1ef02d	-0.6208523
45	0xbf020cc8	-0.5080075
46	0x3e806390	0.2507596
47	0x3e838d5a	0.2569378
48	0x3d7c5f80	0.061614513
49	0xbd46f873	-0.048576783
50	0x3e997b85	0.2997705
51	0x3e9766cc	0.29570615
52	0x3d83c10b	0.064333044
53	0x3d8434d5	0.064553894
54	0xbd94bfe3	-0.07263162
55	0x3ceb604e	0.028732445
56	0x3e8a8705	0.27056137
57	0xbeafb838	-0.34320235
58	0xbf0d1140	-0.55104446
59	0xbeaf3fed	-0.3422846
60	0x3ee0ae03	0.4388276
61	0x3d62b3b2	0.055347152
62	0xbe45aad4	-0.19303447
63	0x3e0f0cd1	0.13969733
64	0x3e6d2de5	0.23162039
65	0xbd08b12d	-0.033372093
66	0xbe3f7a54	-0.18699008
67	0xbe86eaa6	-0.26350898
68	0x3f112f95	0.5671323
69	0x3f1516b9	0.582378
70	0xbf0c2fda	-0.54760516
71	0xbe1a6ebe	-0.15081307
72	0x3d81b437	0.063332014
73	0x3e26e37f	0.1629772
74	0x3e651437	0.22370993
75	0x3f39c03f	0.7255897
76	0x3c9da452	0.019243393
77	0xbedbff48	-0.42968202
78	0x3e00fd5b	0.12596647
79	0xbf9f6983	-1.2454075
80	0xbf1ca595	-0.6119016
81	0x3f555ac3	0.83341616
82	0x3d400ac1	0.046885256
83	0xbec84143	-0.3911229
84	0x3ecaa2da	0.3957737
85	0xbe22ad1c	-0.15886348
86	0xbe887393	-0.26650676
87	0xbeaf7f26	-0.34276694
88	0x3dd7c97a	0.105364755
89	0xbe3e7ac6	-0.18601522
90	0xbe3ecc8e	-0.18632719
91	0x3efb5513	0.49088344
92	0x3f2fb988	0.68642473
93	0x3e49181a	0.196381
94	0xbf28b978	-0.65908
95	0xbeab51fd	-0.3346099
96	0x3f6696a8	0.90073633
97	0xbe94f10f	-0.29090163
98	0xbf5c5c89	-0.860787
99	0xbf05d5a2	-0.522791
100	0x3ed554b2	0.4166618
101	0xbd0800b2	-0.033203788
102	0xbf1aa52a	-0.6040827
103	0xbe7b6d8b	-0.24553506
104	0xbf0af894	-0.5428555
105	0xbeafacec	-0.34311616
106	0xbf0aa4bd	-0.5415762
107	0xbed087ca	-0.407286
108	0x3b298ba4	0.0025870586
109	0x3e8c3d32	0.27390438
110	0xbe068edd	-0.13140436
111	0x3f18a310	0.59623814
112	0xbe4f2c13	-0.20231657
113	0x3e7d9ff4	0.24768049
114	0x3f642a72	0.89127266
115	0xbf516586	-0.8179554
116	0x3e96c46e	0.2944674
117	0x3e91d0b7	0.2847955
118	0x3e724b9a	0.23661652
119	0x3d95e0ce	0.07318269
120	0xbeb5155b	-0.35367855
121	0xbd9f0ced	-0.07766137
122	0xbd5038d6	-0.050835453
123	0x3e80873d	0.2510318
124	0xbf1ee6ec	-0.6207111
125	0xbe4079e6	-0.187965
126	0x3d190d1f	0.03736603
127	0x3ecbea90	0.39827394
128	0xbee094b1	-0.43863443
129	0xbebe77be	-0.3720073
130	0xbd4cdf64	-0.05001773
131	0x3e542c96	0.20720133
132	0xbeab8bf1	-0.33505204
133	0x3e4c10da	0.19928303
134	0x3eec88f4	0.46198237
135	0xbe932903	-0.28742227
136	0x3d202a38	0.039102763
137	0x3c81c6af	0.01584181
138	0x3e5903e3	0.21192889
139	0x3f7edbdb	0.9955422
140	0x3f01ee7d	0.5075453
141	0x3f3a5d95	0.72799045
142	0x3e830039	0.25586107
143	0xbcd3b5c8	-0.025843516
144	0xbea94f27	-0.330682
145	0xbf00e0c7	-0.50342983
146	0x3e7e246c	0.24818581
147	0xbe99f738	-0.30071425
148	0xbe6d3c70	-0.23167586
149	0xbe2cf770	-0.16891265
150	0xbf2ae732	-0.66759026
151	0xbf94d267	-1.162671
152	0xbef741fe	-0.48292536
153	0x3f4a158b	0.7893912
154	0x3e328f28	0.17437422
155	0xbebc4bb5	-0.3677651
156	0x3ea4b484	0.32168972
157	0xbf4836d7	-0.7820868
158	0x3e6864eb	0.22694747
159	0x3e83d9a0	0.25751972
160	0x3d1301a8	0.03589025
161	0xbe02fc86	-0.12791643
162	0xbe5a4eb2	-0.21319082
163	0xbe5cfb5c	-0.21580261
164	0xbf227213	-0.63455313
165	0xbd1ff026	-0.039047383
166	0xbe6ad90d	-0.22934361
167	0x3e4b0fcc	0.19830245
168	0xbf1b5e6f	-0.6069097
169	0xbe647d05	-0.22313316
170	0x3ed42593	0.41434917
171	0x3ec54c99	0.38535002
172	0x3f0b49d3	0.5440952
173	0x3e4585e0	0.1928935
174	0xbf167c5b	-0.587835
175	0x3f110322	0.56645405
176	0x3d08d032	0.033401676
177	0x3e288d67	0.1646019
178	0x3eae5597	0.34049675
179	0xbe93f9c1	-0.28901485
180	0x3f15c6d8	0.58506536
181	0x3b862721	0.00409402
182	0x3f1589c6	0.5841335
183	0x3e4f7098	0.20257795
184	0x3e7ae725	0.24502237
185	0x3e4fe90d	0.20303746
186	0xbeb07a64	-0.34468377
187	0x3c41f29f	0.0118376305
188	0x3d0d910a	0.03456215
189	0x3e47cba5	0.19511278
190	0x3f0f6c98	0.56025076
191	0x3eac67b0	0.33672857
192	0xbe819659	-0.2531002
193	0x3f17bd55	0.5927327
194	0xbf42e0d2	-0.761243
195	0xbf18df64	-0.5971587
196	0xbd833657	-0.06406849
197	0x3e8412b7	0.25795528
198	0x3c2911c8	0.010319181
199	0xbe1d8ccd	-0.15385742
200	0x3e1ebaea	0.1550099
201	0x3f0e8e01	0.5568543
202	0xbeb66ddc	-0.3563069
203	0xbeb71029	-0.35754517
204	0xbe497729	-0.19674362
205	0x3eb9c45a	0.36282617
206	0xbe97ea2f	-0.29670855
207	0x3ec61a1f	0.38691804
208	0xbd90ef73	-0.07076921
209	0xbdf21bcc	-0.11821708
210	0x3e3d65ec	0.18495911
211	0xbcc1656e	-0.023607936
212	0xbe731597	-0.23738705
213	0xbf0df8b9	-0.55457646
214	0xbe04f056	-0.12982306
215	0x3dfe3e0e	0.1241418
216	0xbe38f629	-0.18062653
217	0x3e25ed15	0.16203721
218	0x3f193799	0.5985046
219	0xbef2024e	-0.47267383
220	0xbdf90623	-0.121593736
221	0x3ed35515	0.4127585
222	0x3ee23e1b	0.44188008
223	0x3e3988d7	0.18118607
224	0xbd1b0ed3	-0.037855934
225	0x3dc9f199	0.09860534
226	0xbeb63634	-0.3558823
227	0xbd8e0099	-0.06933708
228	0xbeede1c6	-0.46461314
229	0x3da33afc	0.07970235
230	0x3e9ce4de	0.30643362
231	0x3ed4c35b	0.41555294
232	0x3d588aaf	0.052866634
233	0x3e7e1ee4	0.24816471
234	0x3ee6e522	0.4509669
235	0xbee41395	-0.4454619
236	0x3e23c8d0	0.15994573
237	0xbf51deab	-0.8198039
238	0xbe5d8db4	-0.21636087
239	0x3dfef5ce	0.12449227
240	0x3e0fa611	0.14028193
241	0x3f6c3c70	0.9227972
242	0xbf7e4179	-0.99318653
243	0x3e22077c	0.15823168
244	0x3c3da2d3	0.011574465
245	0xbde1b7d7	-0.11021393
246	0x3f2d61ea	0.6772753
247	0xbea9232d	-0.3303465
248	0xbdaaf5c3	-0.083476566
249	0xbf040281	-0.5156632
250	0x3cbe3da0	0.023222744
251	0xbd5ef37c	-0.054431424
252	0x3f45b62f	0.77231115
253	0x3d57f00f	0.052719172
254	0xbe4695f6	-0.19393143
255	0xbd4a968b	-0.049459975

layer1.bias f4 [128]
0	0xbf96331f	-1.1734351
1	0xbbabafee	-0.0052394783
2	0x3ec334b7	0.38126156
3	0xbed24ee8	-0.41075826
4	0x3edd9a93	0.43281993
5	0x3ec5efc0	0.38659477
6	0x3f038749	0.51378304
7	0xbec10cfe	-0.37705225
8	0x3f2aabe0	0.6666851
9	0xbe8178f0	-0.2528758
10	0x3f1d2d9a	0.6139771
11	0xbeedd0c6	-0.46448344
12	0xbf3b1457	-0.7307791
13	0x3da1084e	0.07862912
14	0x3e50f9f6	0.20407853
15	0xbf1b78f3	-0.6073143
16	0xbdd73ee7	-0.105100445
17	0x3d8e2302	0.06940271
18	0x3d746434	0.059665874
19	0xbea2c455	-0.31790414
20	0xbed4f743	-0.41594896
21	0x3e0486a6	0.1294199
22	0x3e885898	0.26630092
23	0x3e05dc1a	0.13072243
24	0x3f5edb54	0.8705342
25	0xbeae03d7	-0.33987305
26	0x3cc97380	0.024591208
27	0xbf04a255	-0.518102
28	0xbf36f47d	-0.7146681
29	0xbeca81ca	-0.39552146
30	0xbbd1e5fa	-0.006405589
31	0xbe9c88ea	-0.30573207
32	0xbe08e63c	-0.13369077
33	0xbe8686b0	-0.26274633
34	0x3ed6644b	0.41873392
35	0xbe7b61c7	-0.24549018
36	0xbe558e00	-0.2085495
37	0x3f3e1b47	0.7426037
38	0x3f05095d	0.5196741
39	0xbb11bfa3	-0.0022239469
40	0xbd243fb4	-0.040099815
41	0x3e7c0fae	0.24615356
42	0xbf0af237	-0.5427584
43	0xbe6b33f2	-0.22969034
44	0x3eaea1b3	0.34107742
45	0xbf1c0f5d	-0.6096094
46	0x3d2766a5	0.040869374
47	0x3ea1ecd2	0.31625992
48	0xbedd9319	-0.4327629
49	0x3ea3767e	0.3192634
50	0xbed59a5f	-0.41719338
51	0x3f023503	0.5086214
52	0x3f29f993	0.66396445
53	0xbe087e69	-0.13329472
54	0x3eacc516	0.33744115
55	0x3e4dddd2	0.20104149
56	0x3d0968bc	0.033547148
57	0xbe9ade89	-0.30247906
58	0xbf0d1944	-0.5511668
59	0xbf5556fa	-0.8333584
60	0x3d4bbe8b	0.049742263
61	0x3d9ebb2e	0.077505454
62	0x3e9d9531	0.30777887
63	0x3e088208	0.13330853
64	0x3eca3337	0.394922
65	0xbefcaa3b	-0.49348626
66	0xbeca9dd1	-0.3957353
67	0x3e8b4423	0.27200422
68	0xbe04946d	-0.12947245
69	0xbecc9912	-0.39960533
70	0xbecf24e2	-0.40457827
71	0xbdb6c27a	-0.08923812
72	0xbf1ac784	-0.60460687
73	0x3f088ac2	0.5333673
74	0x3dda2b39	0.10652775
75	0x3bd81e83	0.006595434
76	0x3f120d79	0.5705181
77	0xbe3d7250	-0.18500638
78	0x3ef24e4a	0.47325355
79	0x3f0a78ea	0.5409075
80	0xbda97714	-0.082746655
81	0x3ebb9892	0.3663984
82	0x3e83b538	0.25724196
83	0x3eaeda74	0.34151042
84	0xbe06822f	-0.13135599
85	0xbe7c8e5a	-0.24663678
86	0x3e95ab6b	0.29232344
87	0xbf466b02	-0.7750703
88	0x3dcc4394	0.09973827
89	0xbef70817	-0.4824836
90	0x3eb20f5c	0.34777343
91	0xbf13e1bd	-0.57766324
92	0x3f00138e	0.5002984
93	0x3f1381c3	0.57619876
94	0x3e4d876d	0.20071192
95	0xbe964a42	-0.2935353
96	0x3f1952b7	0.5989184
97	0xbe50b06b	-0.20379798
98	0x3ea457de	0.32098287
99	0xbe5bf210	-0.21479058
100	0xbe834b3b	-0.25643334
101	0x3dc28de3	0.09499719
102	0x3e74452e	0.23854515
103	0xbdec2f32	-0.11532439
104	0xbf041694	-0.5159695
105	0xbc5d0f8e	-0.013492478
106	0xbe13060a	-0.14357772
107	0xbec642c7	-0.38722822
108	0x3ebf7237	0.37391827
109	0x3ef63b38	0.48092055
110	0xbeedb843	-0.46429643
111	0x3d596366	0.05307331
112	0xbe1caa87	-0.15299426
113	0xbea43f31	-0.3207946
114	0xbe6775af	-0.22603486
115	0x3ea4cbeb	0.32186827
116	0x3ec5f77d	0.3866538
117	0xbca226b3	-0.019793844
118	0x3f0703bb	0.5274007
119	0xbf10ca5d	-0.5655878
120	0x3e90de4f	0.28294608
121	0x3efc67ae	0.4929785
122	0xbf1f86c6	-0.6231502
123	0x3e6a95b3	0.22908668
124	0x3eda63a0	0.42654133
125	0x3ea25cd8	0.3171146
126	0x3cbf7b81	0.023374321
127	0x3d907640	0.070538044

layer2.weight f4 [128, 128]
0	0xbdd3267c	-0.10310075
1	0x3d907e7e	0.070553765
2	0xbe46474b	-0.19363134
3	0x3e9b9795	0.30389085
4	0x3dd4b460	0.10385966
5	0x3e581197	0.2110046
6	0x3e2fd075	0.17169364
7	0xbd9aaca8	-0.07552463
8	0x3d35e981	0.04441214
9	0x3e5888fb	0.21146004
10	0xbdfb886e	-0.12281881
11	0x3d8b8d99	0.06814117
12	0xbf4eb683	-0.8074724
13	0xbe423dea	-0.18968931
14	0x3ea1b425	0.31582752
15	0x3e6999b9	0.22812547
16	0x3e819200	0.25306702
17	0x3e15e072	0.146364
18	0x3dcc4da2	0.09975745
19	0xbe8529d9	-0.2600849
20	0xbcdfac04	-0.027303703
21	0xbd8068ad	-0.06269965
22	0xbea3c961	-0.31989577
23	0xbcba6169	-0.022751527
24	0xbeb256e4	-0.34831917
25	0xbef2f6c0	-0.4745388
26	0xbf25c05a	-0.6474663
27	0xbc9b3bcc	-0.018949412
28	0xbf52ad2b	-0.82295483
29	0xbe26bf52	-0.1628392
30	0xbd47cabf	-0.048777338
31	0xbea6ff44	-0.32616627
32	0x3d9b3c67	0.0757988
33	0x3d504339	0.05084536
34	0x3e6b7a66	0.2299591
35	0xbdbdb22e	-0.09262501
36	0xbe8302ed	-0.2558817
37	0x3e1b1342	0.15144065
38	0x3e4d1cec	0.20030564
39	0x3e046ada	0.12931386
40	0x3e2ea9a9	0.17056908
41	0xbbf3d386	-0.007440987
42	0x3d3c3dc2	0.045957334
43	0xbe570e9a	-0.21001664
44	0x3e3d9674	0.18514425
45	0xbe21944f	-0.15779231
46	0xbe82b4b5	-0.25528494
47	0x3f0ae911	0.5426188
48	0xbc00608b	-0.007835518
49	0x3ef9bf44	0.48778737
50	0x3cae3dd8	0.021269724
51	0xbe2d352b	-0.16914813
52	0xbde4b6c5	-0.11167673
53	0xbea9330f	-0.33046767
54	0xbdae00fa	-0.0849628
55	0x3e50eac7	0.2040206
56	0xbeee5633	-0.4655014
57	0x3e08010f	0.13281654
58	0x3ed18c8a	0.40927535
59	0xbdc1b7da	-0.09458895
60	0x3e593525	0.2121168
61	0xbe013a32	-0.12619856
62	0xbe835ac0	-0.25655174
63	0x3ce95930	0.02848491
64	0x3ac66b65	0.0015138207
65	0x3e201b8c	0.15635508
66	0x3ec0ae14	0.3763281
67	0xbe34b483	-0.17646985
68	0xbce8d87f	-0.028423546
69	0xbe6a2274	-0.22864705
70	0xbe913759	-0.2836254
71	0x3e9d289d	0.30695048
72	0x3eb01035	0.34387365
73	0xbe076fff	-0.13226317
74	0x3e3089a2	0.17240003
75	0xbc250e5c	-0.010074224
76	0xbda70bcf	-0.08156549
77	0x3e1aafa2	0.15106061
78	0xbf70a39e	-0.9399966
79	0x3e33d6c9	0.17562403
80	0xbe328ac6	-0.1743575
81	0x3dc0ae10	0.094082
82	0xbd784e33	-0.06062145
83	0x3e039d7c	0.12853044
84	0x3e4889b5	0.19583781
85	0xbdec61e9	-0.115421124
86	0x3db6b404	0.08921054
87	0x3e3849ec	0.17996949
88	0xc04b9218	-3.1807919
89	0xbef05252	-0.46937805
90	0xbe7490a2	-0.23883298
91	0x3ca50e70	0.020148486
92	0xbec5cdc0	-0.38633537
93	0x3db8d336	0.0902466
94	0x3ea5e974	0.32404673
95	0x3d5f9582	0.05458594
96	0xbfc63b7c	-1.5486903
97	0xbee10bde	-0.43954366
98	0x3d35101f	0.044204827
99	0x3e2c03c6	0.16798314
100	0x3ee14c9c	0.4400376
101	0x3b825b82	0.0039781937
102	0x3e1e3e97	0.15453564
103	0x3d4ae6c7	0.049536493
104	0x3d753e37	0.059873786
105	0xbe5ae27f	-0.21375464
106	0x3ec6b2b8	0.38808227
107	0x3d0347a1	0.032050733
108	0x3be229a0	0.0069019347
109	0xbbbdfc6e	-0.005797914
110	0xbe83190d	-0.2560505
111	0x3c588b00	0.013216734
112	0x3f2b026d	0.66800576
113	0xbe468d1b	-0.19389765
114	0xbd353bdd	-0.044246543
115	0xbf47a6db	-0.77988976
116	0xbd52fd27	-0.051510956
117	0xbd03ceb7	-0.03217956
118	0xbdbb5989	-0.09147937
119	0x3e82fe06	0.2558443
120	0x3d50eb03	0.051005375
121	0xbd28a51f	-0.041173097
122	0xbef2da99	-0.47432402
123	0x3e60e3a4	0.21961838
124	0xbe00db96	-0.12583765
125	0x3d831d4d	0.06402073
126	0xbec4f799	-0.38470152
127	0x3dd0bad7	0.10191887
128	0x3e3b0f30	0.18267512
129	0xbea5b30b	-0.3236316
130	0x3eae0b43	0.33992967
131	0x3e1e9994	0.15488273
132	0xbbd18563	-0.0063940748
133	0xbcc0471d	-0.02347141
134	0xbda58fde	-0.08084081
135	0xbf09bbdc	-0.53802276
136	0xbed8a0cf	-0.42310187
137	0xbe03fdc8	-0.12889779
138	0xbe3a566a	-0.18197027
139	0x3f1ba90d	0.60804826
140	0xbc76a681	-0.015054346
141	0x3a4d7d37	0.0007838788
142	0xbd81170e	-0.063032255
143	0x3ec6df2d	0.38842145
144	0x3e06bf37	0.1315888
145	0x3e6db6f6	0.23214325
146	0x3da6271e	0.0811293
147	0xbe5b1944	-0.21396357
148	0x3ea1155a	0.31461602
149	0xbd8bdbcf	-0.068290345
150	0xbda62f9b	-0.08114549
151	0x3e534b37	0.20634161
152	0xbde777aa	-0.11302121
153	0x3dad6d5f	0.084681265
154	0xbe2ec76a	-0.17068258
155	0x3ec73112	0.38904625
156	0x3f1dc660	0.6163082
157	0x3e9b8246	0.30372828
158	0xbe6e38c3	-0.2326384
159	0x3d6ee84b	0.058327
160	0xbc916e23	-0.017752713
161	0x3e275a09	0.1634294
162	0xbddba1e7	-0.1072424
163	0x3e66c519	0.22536124
164	0x3df3ba7f	0.11900806
165	0xbb64f46d	-0.0034935728
166	0x3debbe2a	0.1151088
167	0xbd085b4d	-0.033290196
168	0xbe85896e	-0.26081413
169	0xbe6aced1	-0.22930457
170	0x3e86f7f5	0.2636105
171	0xbf32ba2a	-0.69815314
172	0xbe5da7d3	-0.21646051
173	0x3eaca50a	0.33719665
174	0x3cc7b127	0.024376465
175	0x3dd5fce0	0.10448623
176	0x3ebad47b	0.36490235
177	0xbe274a69	-0.16336979
178	0x3e0aa17b	0.13538162
179	0xbccdaf56	-0.02510802
180	0xbd4fb58c	-0.050710246
181	0x3e61d08c	0.2205221
182	0x3df53630	0.11973226
183	0x3e2ea9c4	0.17056948
184	0xbd8edbba	-0.06975503
185	0x3e114e07	0.14189921
186	0xbd5d0e79	-0.05396888
187	0x3ea7c883	0.32770166
188	0xbc2b4e35	-0.010455658
189	0xbe31b804	-0.17355353
190	0x3e55f3c0	0.20893764
191	0xbded9e46	-0.11602454
192	0x3e509b7f	0.20371817
193	0x3e7f5971	0.24936463
194	0x3e99829f	0.29982468
195	0x3e576cdb	0.21037619
196	0x3e9da960	0.30793285
197	0xbe350ba9	-0.17680229
198	0x3ddcb1a5	0.107760705
199	0x3b83d1c2	0.004022808
200	0x3e9cda50	0.3063531
201	0xbead4dd6	-0.33848447
202	0x3d46ddbe	0.048551314
203	0x3d1265a9	0.035741482
204	0xbe6ac014	-0.22924834
205	0x3b0b54cd	0.0021260262
206	0xbe8e2bfd	-0.27767935
207	0xbe83b7eb	-0.25726256
208	0xbe56cdf2	-0.20977
209	0xbe8cc20f	-0.27491805
210	0xbd8067f3	-0.06269827
211	0xbe421003	-0.1895142
212	0xbd932d21	-0.07186342
213	0x3eaa95f2	0.33317524
214	0x3d43ce57	0.047804203
215	0x3e98ad78	0.29819846
216	0xbd75a9b5	-0.0599763
217	0x3f7d7e19	0.99020535
218	0xbc7f8a3a	-0.015596921
219	0x3dc1b786	0.094588324
220	0xbe973a6c	-0.2953676
221	0xbe3a795d	-0.18210359
222	0x3daada39	0.08342404
223	0xbe9ef5f5	-0.31047025
224	0x3cd8c5a8	0.026461437
225	0x3e9a37dd	0.30120745
226	0xbeaf77a1	-0.34270957
227	0x3ea35781	0.31902698
228	0x3d4fd215	0.05073746
229	0x3d352f32	0.044234462
230	0xbeb629f3	-0.3557888
231	0x3cec33f1	0.028833361
232	0x3f1ee821	0.6207295
233	0x3cb3db57	0.021955175
234	0x3e9e3a0f	0.3090367
235	0xbd6d4896	-0.05793055
236	0x3e68460e	0.22682974
237	0xbd78ce74	-0.060743764
238	0x3cb98171	0.02264473
239	0x3e201bfc	0.15635675
240	0xbdf056a2	-0.11735274
241	0xbefaaedd	-0.48961535
242	0x3e28073a	0.16409007
243	0xbe0e4f10	-0.13897347
244	0xbe6418e2	-0.22275117
245	0x3e48a023	0.19592337
246	0x3ba7ed3b	0.0051247156
247	0x3e1cd30a	0.1531488
248	0xbd9b6eaa	-0.07589467
249	0xbe9e1d92	-0.30881935
250	0x3e088cd2	0.13334969
251	0x3c72486e	0.014787776
252	0xbe0a43d3	-0.13502435
253	0xbf411476	-0.75421846
254	0x3e181eed	0.14855547
255	0x3dec5fac	0.115416855

layer2.bias f4 [128]
0	0x3d975d5c	0.07390854
1	0xbee126a6	-0.439748
2	0xbe884e00	-0.2662201
3	0x3c7de992	0.015497582
4	0x3e84f56f	0.259685
5	0xbd143f79	-0.036193345
6	0x3d8436c7	0.064557604
7	0xbd27ddd9	-0.040983055
8	0x3e09636e	0.13416836
9	0x3dc285e2	0.09498192
10	0xbc8ea78e	-0.01741388
11	0xbe7c7a9d	-0.24656148
12	0x3e4b80a6	0.19873294
13	0xbcc80cb0	-0.024420112
14	0x3e6f9f9e	0.23400733
15	0x3e4ef377	0.20210062
16	0x3d3664ef	0.04452985
17	0x3da67493	0.081277035
18	0x3e27937d	0.16364856
19	0xbd20c3b2	-0.03924913
20	0xbd2f259b	-0.042760473
21	0xbe4a2484	-0.19740492
22	0x3df916dc	0.12162563
23	0x3e0e0e91	0.13872744
24	0x3e16e2e4	0.1473499
25	0xbd915039	-0.070953794
26	0x3e1594da	0.14607564
27	0x3ca11aa3	0.019666022
28	0x3df633e9	0.1202162
29	0x3e7514cf	0.23933719
30	0x3d56e067	0.0524601
31	0x3c4c5552	0.012471514
32	0xbdb4c30e	-0.08826266
33	0x3dd4ffd7	0.1040036
34	0x3bef4407	0.0073018107
35	0x3e47f904	0.19528586
36	0x3e14623f	0.14490603
37	0x3e8557bf	0.26043507
38	0x3e30ab69	0.17252888
39	0x3e041325	0.12897928
40	0x3dea4738	0.11439365
41	0x3e0763d3	0.13221674
42	0x3ded40c8	0.11584622
43	0xbdc447e2	-0.09584023
44	0x3dd45bd2	0.10369076
45	0x3e5cb768	0.21554339
46	0x3d9db1b6	0.07699911
47	0x3d9e65ce	0.077342615
48	0x3e0ab29b	0.13544695
49	0x3cbace6e	0.022803511
50	0xbd9c72b0	-0.076390624
51	0x3bec02fc	0.007202504
52	0x3e922055	0.28540292
53	0x3dbaef5a	0.09127684
54	0xbe0843c6	-0.13307104
55	0x3db62f66	0.08895759
56	0x3eb5cda4	0.35508454
57	0x3e45ca70	0.19315505
58	0x3e516617	0.204491
59	0x3e3abd1d	0.18236203
60	0x3e2fd013	0.17169218
61	0xbdb9456e	-0.09046446
62	0x3e104507	0.14088832
63	0x3aaa77e7	0.0013005704
64	0x3d948090	0.07251084
65	0x3e94c511	0.290566
66	0x3e24c89f	0.16092156
67	0xbc193f64	-0.009353492
68	0x3cd85b0f	0.026410608
69	0xbb71a894	-0.0036874162
70	0x3d4af120	0.04954636
71	0x3c841606	0.016123783
72	0x3e2fcaaa	0.17167154
73	0x3df37a29	0.118885346
74	0x3de17c53	0.11010041
75	0x3e703783	0.23458676
76	0xbdd0dbaa	-0.101981476
77	0x3d52e91b	0.051491838
78	0x3d4ad9a7	0.049523976
79	0x3e1f91cd	0.15582962
80	0x3e314db9	0.17314805
81	0x3d90ada7	0.070643716
82	0x3d7ae4e6	0.06125345
83	0x3e367e30	0.17821574
84	0x3e1cfa3f	0.15329836
85	0x3dbdb676	0.09263317
86	0x3e0d79cd	0.13815995
87	0x3cdb520f	0.026772527
88	0x3e8ece6f	0.2789187
89	0x3da87748	0.08225876
90	0xbe398f9a	-0.18121186
91	0xbdb2bc32	-0.08727302
92	0x3dfd61f7	0.12372201
93	0x3e1dadee	0.1539838
94	0x3dde8a66	0.10866241
95	0xbdcf157c	-0.1011152
96	0xbdfdf9f1	-0.12401188
97	0x3da0590b	0.078294836
98	0x3d8a9f3d	0.067686535
99	0xbd8ddd38	-0.0692696
100	0xbe79d38f	-0.2439711
101	0xbd1fa7ce	-0.03897839
102	0xbd86569e	-0.0655949
103	0x3d57d86c	0.05269663
104	0x3e2f4755	0.17117055
105	0x3d8332b4	0.06406155
106	0xbde77702	-0.11301996
107	0x3e07f011	0.13275172
108	0x3db5b182	0.088717476
109	0x3ef2c42d	0.47415295
110	0x3e81c712	0.2534719
111	0x3df3aed4	0.1189858
112	0x3e527452	0.20552185
113	0x3e3fae57	0.18718849
114	0xbe03b1b2	-0.12860754
115	0x3dfacaed	0.12245736
116	0x3e5980d5	0.21240552
117	0x3ac00faf	0.0014653112
118	0x3e6052a6	0.21906528
119	0x3e3b1fc0	0.1827383
120	0xbd8a371a	-0.06748791
121	0x3bb6f1e7	0.005583036
122	0xbd7b01e9	-0.06128112
123	0x3e3fc09b	0.18725817
124	0x3e76230b	0.24036805
125	0xbdf3369e	-0.11875652
126	0x3e5ec40c	0.21754473
127	0xbdf94b15	-0.12172524

value_function.weight f4 [1, 128]
0	0x3fad3aaf	1.3533534
1	0xbfc01549	-1.5006496
2	0xbfafcd05	-1.3734442
3	0x3f24d4bb	0.643871
4	0xbefbc2d1	-0.4917207
5	0x3f50febd	0.816387
6	0x3febdf55	1.842753
7	0x3fc60cbf	1.547264
8	0xbdedd6aa	-0.116132095
9	0xbe63f93e	-0.22263047
10	0x3f00c8db	0.5030648
11	0x3f852cdd	1.0404316
12	0xbe3fa09c	-0.18713611
13	0xbf7cc5ce	-0.98739326
14	0xbe0f461a	-0.13991585
15	0xbf2e4fe9	-0.68090683
16	0x3f8a5846	1.0808189
17	0x3fcd9cbc	1.6063457
18	0xbe81832b	-0.25295386
19	0x3f79b092	0.9753505
20	0xbd430168	-0.047608763
21	0x3f80a8df	1.0051535
22	0xbd43571c	-0.047690496
23	0xbf3f8f79	-0.74828297
24	0xbd3642dc	-0.044497356
25	0x3d67bbdc	0.05657564
26	0xbe21ad18	-0.15788686
27	0x3f496b85	0.78679687
28	0x3fbf280b	1.4934095
29	0xbf0cd8af	-0.5501813
30	0x403da693	2.963292
31	0xbf5b0b47	-0.8556408
32	0xbf281408	-0.65655565
33	0xbdc37016	-0.09542863
34	0x3fd5bd95	1.6698481
35	0x401ccd03	2.450013
36	0xbd308a29	-0.04310051
37	0xbf000c9f	-0.5001926
38	0xbddb14d2	-0.106973305
39	0x40981740	4.752838
40	0x3fd8bb38	1.6932135
41	0xbdad6e2c	-0.08468279
42	0xbdc36f73	-0.095427416
43	0x3cb1e0ff	0.021713732
44	0xbdf11ecf	-0.117734544
45	0x3fafe9f1	1.3743268
46	0xbe081633	-0.13289718
47	0x3ef3bff7	0.47607395
48	0xbe562216	-0.2091144
49	0x3ed47e41	0.41502574
50	0x3f636148	0.88820314
51	0x3d5dbf30	0.05413741
52	0xbf1e4f09	-0.6183935
53	0xbd85b740	-0.06529093
54	0xbf0bc307	-0.54594463
55	0xbd402bb6	-0.046916686
56	0xbf088648	-0.53329897
57	0x3f8dd3e7	1.1080292
58	0xbf072f4d	-0.5280655
59	0xbdf27ed3	-0.11840596
60	0xbde4bc8d	-0.11168776
61	0xbf166ada	-0.5875679
62	0xbd7443d4	-0.059635
63	0x3f7fe56e	0.99959457
64	0xbe3bb7c3	-0.18331818
65	0xbea26c93	-0.3172346
66	0xbef8f9dd	-0.4862813
67	0x3fa8f504	1.3199773
68	0x3f53c07c	0.8271558
69	0xbf4ce245	-0.8003276
70	0x3d4e1818	0.050315946
71	0x3d5beebc	0.05369447
72	0xbe625167	-0.22101365
73	0xbda0498d	-0.07826529
74	0x401e654b	2.4749324
75	0xbef462b0	-0.47731543
76	0x3c913758	0.017726585
77	0xbee873b8	-0.45400786
78	0xbdb81a09	-0.08989341
79	0x40028936	2.0396247
80	0x408fa740	4.4891663
81	0xbdaf6749	-0.08564622
82	0x3bfc605d	0.007701917
83	0xbe096e2d	-0.13420935
84	0xbdf62dcb	-0.12020453
85	0xbd805f68	-0.06268197
86	0xbe10bdce	-0.14134905
87	0xbde92df8	-0.11385721
88	0xbe802491	-0.25027898
89	0xbdbdb6bd	-0.0926337
90	0xbf78cc06	-0.97186315
91	0x3f494d57	0.78633636
92	0xbd964a38	-0.07338375
93	0xbdb19357	-0.08670681
94	0xbdef02ff	-0.11670493
95	0x3f3010bb	0.6877553
96	0x3f3368d8	0.70081854
97	0xbe33666d	-0.17519541
98	0xbe903442	-0.2816487
99	0x3f90d7e2	1.1315882
100	0xbfc178cd	-1.511499
101	0x3fc0da1a	1.5066559
102	0x3d9e1479	0.077187486
103	0xbd520f36	-0.051284038
104	0xbdbe60e6	-0.09295826
105	0xbe23eb6c	-0.16007775
106	0x3f729b28	0.94768
107	0xbe35840a	-0.1772615
108	0xbe1ad27c	-0.15119356
109	0xbf16facf	-0.58976454
110	0xbf1912a3	-0.5979406
111	0x3f65bd45	0.8974193
112	0x3f80ec5d	1.0072132
113	0x3ea1639d	0.3152131
114	0xbf92d43c	-1.1471019
115	0xbe6bfa62	-0.23044732
116	0x4061e84c	3.5298033
117	0x3d9b1334	0.07572022
118	0xbe8765b5	-0.26444784
119	0xbdf5b758	-0.11997861
120	0x3f94cccb	1.1624998
121	0x3ffee255	1.9912821
122	0x3f70c125	0.94044715
123	0x3faac42f	1.334112
124	0xbe0801b2	-0.13281897
125	0x3f10270c	0.5630958
126	0x401bc6f0	2.4340172
127	0x3fba5ff1	1.4560529

advantage.weight f4 [3, 128]
0	0x3def9e12	0.117000714
1	0x3e43a2c9	0.19105066
2	0x3c2f4f48	0.0107000545
3	0xbd9eb218	-0.077488124
4	0x3ddeb341	0.10874034
5	0xbd853435	-0.06504098
6	0x3e5db18a	0.21649757
7	0xbd2b80d2	-0.0418709
8	0x3d4393b0	0.047748268
9	0xbe2917b8	-0.16512954
10	0x3d793f14	0.06085117
11	0x3d04dde9	0.032438193
12	0xbdd7a139	-0.10528798
13	0xbc167ace	-0.009184552
14	0x3d331025	0.04371657
15	0x3d8771b4	0.06613484
16	0xbd8e045f	-0.069344275
17	0xbca2e55f	-0.019884763
18	0x3cc7f80d	0.024410272
19	0x3e5537f9	0.20822133
20	0xbbc480fd	-0.005996822
21	0x3d139e39	0.036039565
22	0x3c2def83	0.010616186
23	0x3d140939	0.036141608
24	0x3c8851b4	0.016640522
25	0x3d0537ee	0.03252404
26	0x3ce17a4c	0.027524136
27	0xbde380a4	-0.111085206
28	0xbe8da08a	-0.27661544
29	0xbd8bd66b	-0.06828006
30	0xbc979011	-0.018501313
31	0xbc4b9c17	-0.012427351
32	0xbd6f13ed	-0.058368612
33	0xbd810bb0	-0.06301057
34	0xbda8e62d	-0.082470275
35	0xbe670a2a	-0.22562471
36	0x3da97a7f	0.082753174
37	0xbd487dbb	-0.04894803
38	0xbe08d835	-0.13363726
39	0x3e3ed18f	0.18634628
40	0x3e1321f0	0.14368415
41	0xbc893056	-0.016746681
42	0xbd60c02b	-0.054870766
43	0xbd7c1eda	-0.06155286
44	0xbd3dbb9e	-0.046321504
45	0x3daca975	0.08430759
46	0x3daeec09	0.08541114
47	0x3da717de	0.08158849
48	0x3bcc8c5d	0.0062423185
49	0xbd39afa6	-0.045333527
50	0xbdc43394	-0.0958015
51	0x3d0f5513	0.034993242
52	0x3da98aef	0.082784526
53	0x3d926d9b	0.07149812
54	0x3cba4138	0.022736177
55	0xba77ade0	-0.00094482116
56	0xbd1d643a	-0.03842566
57	0xbed11f9f	-0.40844437
58	0x3be8ba29	0.00710227
59	0xbdc9ccb7	-0.098534994
60	0x3cd57b05	0.026059637
61	0x3daaa902	0.08333017
62	0xbdd14e3a	-0.10219999
63	0xbda65fe5	-0.08123759
64	0x3d0f1ddf	0.034940597
65	0x3d63e494	0.05563791
66	0xbd836776	-0.06416218
67	0xbe467e8b	-0.1938421
68	0x3d58c013	0.05291755
69	0xbda5caa8	-0.08095294
70	0x3cb6350e	0.022242095
71	0xbcdedef4	-0.027205922
72	0xbd19aa69	-0.03751603
73	0x3cfac103	0.030609613
74	0x3edbb1bc	0.42909038
75	0xbd7ede59	-0.062223766
76	0x3da3fe35	0.080074705
77	0xbe0becf8	-0.13664615
78	0xbd9ad2e6	-0.07559757
79	0xbe31630f	-0.17322944
80	0x3e16461f	0.14675187
81	0xbc706118	-0.014671586
82	0x3ce1379e	0.02749234
83	0xbdc75c3b	-0.097343884
84	0xbdc10229	-0.0942424
85	0x3c80b57f	0.015711544
86	0x3d5c214d	0.053742696
87	0xbda10679	-0.07862563
88	0x3e903d92	0.28171974
89	0xbc709681	-0.01468432
90	0xbef9bbab	-0.48775992
91	0x3e837f10	0.25682878
92	0xbd6cda2d	-0.057825256
93	0x3ccea1d5	0.025223652
94	0xb9f1fb84	-0.00046154496
95	0x3d45e90e	0.04831796
96	0x3d077315	0.033068735
97	0x3d4f6147	0.05062988
98	0xbcd412ed	-0.02588793
99	0xbe4e5117	-0.20148121
100	0xbd7f7103	-0.062363636
101	0xbcbdf577	-0.023188336
102	0x3bb7e8a2	0.005612449
103	0x3d84900f	0.064727895
104	0x3e1bfd99	0.15233459
105	0x3b9628a6	0.0045824824
106	0xbdf579ad	-0.119860984
107	0xbdd52d85	-0.10409073
108	0x3d9a12df	0.075231306
109	0xbdf940f3	-0.12170591
110	0x3d7a0f07	0.061049487
111	0xbe11f65f	-0.1425414
112	0xbd4d6dd2	-0.05015356
113	0x3e2c1528	0.16804945
114	0x3e7c77f5	0.24655135
115	0x3e358ac9	0.17728724
116	0x3ea93df8	0.3305509
117	0xbd086500	-0.033299446
118	0x3df00f50	0.11721671
119	0x3de733c3	0.1128917
120	0xbd8eb424	-0.06967953
121	0x3e82baa9	0.25533035
122	0xbe660d14	-0.22465926
123	0x3cd0a73d	0.02547037
124	0xbd87a9d8	-0.06624192
125	0x3d44ab4a	0.048014916
126	0xbf1af8b1	-0.6053572
127	0xbc667f3a	-0.014068419
128	0x3da01b74	0.07817736
129	0x3d2398ed	0.039940763
130	0xbd28d6a1	-0.04122031
131	0xbc71cad3	-0.01475783
132	0x3d528382	0.051394947
133	0x3c1a8a6d	0.009432417
134	0x3dd8a055	0.10577456
135	0x3cb695cd	0.022288227
136	0xbd923d29	-0.071405716
137	0x3d53979b	0.051658254
138	0x3d10c5c5	0.035344858
139	0x3c2f44b6	0.010697534
140	0x3c9fb80a	0.019496936
141	0xbc820510	-0.015871555
142	0x3d2bf79b	0.04198418
143	0x3a9ac5dd	0.0011808235
144	0xbd851582	-0.06498243
145	0xbd228486	-0.039677165
146	0xbd4f8866	-0.05066719
147	0xbd27a21b	-0.04092608
148	0xbd73badf	-0.059504386
149	0x3c0b5762	0.00850472
150	0x3cbf1909	0.023327367
151	0x3c681c77	0.014166943
152	0xbc9da215	-0.019242326
153	0x3cc43da6	0.023955178
154	0x3ceff268	0.029290393
155	0x3d513da7	0.051084187
156	0x3de73bb2	0.11290683
157	0xbc0574fa	-0.008145565
158	0xbdd5686d	-0.10420308
159	0x3d096798	0.03354606
160	0xbd3e47f2	-0.04645533
161	0x3c2d89b4	0.010591913
162	0x3d8e43df	0.06946539
163	0x3adff613	0.0017086886
164	0x3d375084	0.04475452
165	0xbd0d2582	-0.0344596
166	0xbd68c701	-0.05683041
167	0xbdb694be	-0.08915089
168	0x3d282c57	0.04105791
169	0xbd42b4fc	-0.04753588
170	0x3c4fd376	0.012684694
171	0x3bf2f4f8	0.0074144565
172	0x3ccc1f38	0.02491723
173	0xbc50a84d	-0.0127354385
174	0xbd1b7ed2	-0.037962742
175	0xbd2c1bea	-0.04201881
176	0xbdb6c3ed	-0.089240886
177	0xbb11cbe0	-0.0022246763
178	0xbd52fa2c	-0.051508114
179	0x3a55f77e	0.00081621844
180	0x3c40c915	0.011766692
181	0xbd222e06	-0.039594673
182	0x3d09290a	0.033486404
183	0xbd56fedd	-0.05248915
184	0x3cbeaf75	0.023277024
185	0xbdab06ee	-0.08350931
186	0xbc010698	-0.007875107
187	0x3d8eeb0e	0.06978427
188	0x3d435b81	0.047694687
189	0x3d2b52f2	0.04182715
190	0xbd7fa05e	-0.062408797
191	0xbcba19b8	-0.022717342
192	0xbd5ab07d	-0.05339097
193	0x3d3cd199	0.046098325
194	0xbbb8a854	-0.0056353007
195	0xbd2dd701	-0.04244137
196	0x3c6faef4	0.014629114
197	0xbb927522	-0.0044695297
198	0x3d9ff8e9	0.07811148
199	0x3b99026d	0.0046694786
200	0xbdaa2798	-0.08308333
201	0xbcfdee6b	-0.030997476
202	0x3e235521	0.15950443
203	0xbcfda0a5	-0.03096039
204	0x3d49ac97	0.04923686
205	0x3c557998	0.0130294785
206	0xbcf28cd5	-0.02960817
207	0xbdfc3cd4	-0.123162895
208	0xbe612336	-0.21986088
209	0xbcc171a6	-0.023613762
210	0xbd8734da	-0.066018775
211	0x3b986f4f	0.004651941
212	0x3cdbf1aa	0.026848633
213	0x3d157708	0.03649047
214	0x3d9c2d0a	0.07625778
215	0xbd8e5777	-0.06950276
216	0xbc4122f4	-0.011788119
217	0xbcef041a	-0.02917676
218	0x3e3f4e2a	0.18682161
219	0x3cd3bd68	0.025847152
220	0x3d5d2fed	0.054000784
221	0x3d4300e6	0.04760828
222	0x3c71e109	0.014763125
223	0xbd543101	-0.051804546
224	0xbca9421f	-0.020661412
225	0xbd9380c4	-0.072022945
226	0xbd451701	-0.04811764
227	0xbd85e18a	-0.06537159
228	0x3d6570b0	0.05601567
229	0xbc5e2bc7	-0.013560242
230	0x3d93d73a	0.072187856
231	0x3d8ecec3	0.069730304
232	0x3cfa452b	0.03055056
233	0x3c4c12a6	0.012455618
234	0xbd951422	-0.07279231
235	0x3b448867	0.0029988529
236	0x3c05e178	0.008171432
237	0x3d3b77ad	0.04576843
238	0x3d147ab0	0.036249816
239	0xbc2bfbf9	-0.010497087
240	0xbdccffa9	-0.10009701
241	0xbd30a247	-0.04312351
242	0x3ce69471	0.028146954
243	0x3be7e0f3	0.0070763766
244	0xbe2f12d8	-0.17097032
245	0xbd5f9ecc	-0.0545948
246	0x3d880f63	0.0664356
247	0x3c9e893b	0.019352546
248	0xbb817b0a	-0.003951435
249	0x3c3804df	0.01123163
250	0x3d6e6bcc	0.05820827
251	0xbd17ae91	-0.037031714
252	0xbd72d55f	-0.059285518
253	0x3c1fc22d	0.009750885
254	0xbe189465	-0.14900358
255	0xbcdad95b	-0.026714971

advantage.bias f4 [3]
0	0xbd67e7c8	-0.05661753
1	0xb745fcec	-1.1801003e-05
2	0xbd2ce888	-0.042213947
