Weights/acrobot_model_weights1.pth (torch, 75124 bytes, 7 tensors)

layer1.weight f4 [128, 6]
00000000: 3332 d7bd ccde 423f e1c6 21bf fc34 653d
00000010: a1e4 f23c 4e32 633e a965 603e b96a d63e
00000020: d11a 5a3e 7d7b 963e b546 9f3c 865c acbd
00000030: df52 9ebe f9d1 17bf 6f6f c8be ef74 863d
00000040: 7a5c 933e 27e3 773e c39b e4be 196a 003f
00000050: 8cf2 66bd 7d95 353f c0f9 5cbd 502e af3e
00000060: 7048 8e3e de00 0f3e dcc5 bf3e f760 b7be
00000070: 9b3e abbe 6912 7cbe 5461 e5be 0fa1 0e3f
00000080: c86e 0cbf 5f89 9cbd 41e6 c7be 4e88 b6be
00000090: 2dc4 c7be 87e2 883e 1990 13be 95ed 453f
000000a0: cb16 90bd f132 7bbe 316d 533e 309e 12bc
000000b0: 5c5a 34be 5918 37bf 3c82 5a3e 0dc7 b23e
000000c0: d379 f7bd e58e 213e 84fc e13e 6b2d 943e
000000d0: 0ee4 203e 9267 113e c2e9 25bd 761a f83d
000000e0: 9b05 253f bc7f 1fbe f721 29bf a9c7 aebe
000000f0: fdbd bf3e 0163 273e 57de 38be 90db cd3d
00000100: fbca 563e cc3e d8bc 20fc 2a3d ef93 413e
00000110: cbe9 953e bcb1 2a3f 2ef9 f3be 46d8 b4bd
00000120: 0690 0e3e 3c74 a43e 0e07 523f 99cc 4c3f
00000130: 4327 ad3b 680e bfbe 2c87 313e e0f2 93bf
00000140: e78d bebe 2002 713f 6239 473d 187d c1be
00000150: 4129 143f 3c81 11be afa9 693e 0713 59be
00000160: 81e8 9e3e ce56 19be c7f1 463f 5229 1a3e
00000170: 85e4 2c3e 126f 9f3e f146 a7be 32e6 46be
00000180: 117f 603c b0e1 f43d 1c43 30bf f1b5 58bf
00000190: 41c0 783e f748 5b3c 633f a8bd cf77 98bd
000001a0: 8715 80be d3ad 3cbe 4683 1cbf 4d24 e0be
000001b0: 6d85 cebc 6baa 853d 14d1 a33d 305c cc3e
000001c0: d08a 61be c69a 9d3e fb0d e73e 0a16 13bf
000001d0: ab4e 413e 0a10 493e fec2 563e 8b6a 033e
000001e0: 60ee bc3e ab0b f0be 6a4e ccbe 3966 333e
000001f0: 3a0b 16bf 6a27 37be a8ce e33d bf1e f7bd
00000200: 98f2 c43e 9be4 27bf 3da1 80bb b6ef 323e
00000210: ad23 1bbe 2d75 69be 96a6 2f3f 95ff 3c3e
00000220: 28cf dbbd 01f1 ebbd 4afe 1fbd fb1d 153f
00000230: 1a1e 133f 0b96 3c3f a71c 7d3e 2097 78bd
00000240: 7bfe 15bf 083d adbd cf46 063e e990 aabe
00000250: f722 4ebe 20ca 0ebe c860 4ebf deb5 85bf
00000260: cb14 883e 41f3 193f 3f53 8f3e 4201 a1be
00000270: a6e0 013f 0959 fdbe 359b a13e e5a8 ddbe
00000280: 33fb dc3d 36f1 883d 76aa dcbe 0a40 97be
00000290: b04f 1dbc 2978 a2be 0087 8bbe 813c fb3d
000002a0: 7cb2 57be a006 16bd 96cf e43e 27ef a1bd
000002b0: fc80 ea3e bced a33e 5b65 57bf aaf7 883e
000002c0: 062d 903e 5895 053e 75b4 eb3e dcf0 62be
000002d0: f480 2b3e c226 dabd dee9 453f 2b61 13bd
000002e0: b8b7 523e 39d8 813d 79dd 34be 495c 73be
000002f0: a65f 43be 23ae a0be 8bcc c73e 2461 b93e
00000300: 9462 2e3e 14fb 413f fff0 35bf 3097 0ebf
00000310: 1aee aabd 9c87 803e cd7b b0be 4853 953d
00000320: 8306 bb3e dfba 953e e8d6 bfbe 6fa3 e2be
00000330: 08f1 5abc 398b 163f 56e4 d93d 313a e83d
00000340: 5ec1 673d 3956 1039 0913 c43e 41a9 fbbd
00000350: 32c3 533e 374c bdbe fa81 c7bd 4194 513d
00000360: 1385 dbbe 139e 1dbe 0c78 383f 520d 2cbf
00000370: 5d44 a73c e9d4 c73e 7a5f 053f 93f6 0b3e
00000380: 121b 613d 44a9 583c d0c6 9dbe e03d febc
00000390: f455 c5be 29b3 ed3e 3f39 a7be a889 da3e
000003a0: fd03 3d3e f738 4c3e b790 e63e 6669 a5be
000003b0: 8f1a 7a3e 7824 6ebf 9126 6ebe 79cf 3d3e
000003c0: 00e8 2f3f 10b8 f23e dee0 12be 749a 113f
000003d0: b32e 243e 1ae7 afbe ebd1 063f 4b1d 9fbd
000003e0: e2bd 8c3e e0c9 293e fac2 9fbd d423 003d
000003f0: 4d6f 543f f486 cd3d e755 edbd 4a9d 23bf
-0.105076216 0.7612121 -0.6319409 0.055958733 0.029650034 0.22187158 0.2191378 0.41878298
0.21299292 0.2939109 0.019442895 -0.08416085 -0.309226 -0.5930477 -0.39147517 0.06565272
0.28781492 0.24207745 -0.44650087 0.5016189 -0.056383654 0.70931226 -0.053949118 0.3421502
0.2778964 0.13965175 0.37455642 -0.35816166 -0.33446202 -0.24616398 -0.44800818 0.55714506
-0.5485654 -0.07643389 -0.39042857 -0.35650867 -0.39016858 0.26735327 -0.14410438 0.77315646
-0.070355974 -0.24531151 0.20647122 -0.008948848 -0.17612594 -0.71521527 0.21338743 0.3491749
-0.12083783 0.15777166 0.44137967 0.289409 0.15711996 0.14199665 -0.040506132 0.12114422
0.6446168 -0.1557607 -0.6606745 -0.34136704 0.37449637 0.1634636 -0.18053566 0.10051644
0.20975868 -0.026397131 0.04174435 0.18904088 0.29279932 0.6667745 -0.47651047 -0.088303134
0.13922128 0.3211993 0.82042015 0.7999969 0.0052842214 -0.3731568 0.1733672 -1.1558495
-0.37217638 0.9414387 0.04863871 -0.3779075 0.5787545 -0.14209455 0.22818635 -0.21198665
0.3103676 -0.1497452 0.7771267 0.15054825 0.16884048 0.31139427 -0.32671311 -0.1942375
0.01370217 0.11957109 -0.688524 -0.8465262 0.24292089 0.013384095 -0.08215215 -0.07444727
-0.25016424 -0.18425684 -0.6113781 -0.43777695 -0.025210107 0.06526645 0.07998863 0.39914083
-0.22025609 0.30782145 0.45127854 -0.57455504 0.18877666 0.19635025 0.20972821 0.12833612
0.36900616 -0.46883902 -0.39903575 0.17519464 -0.5861088 -0.17886129 0.11123401 -0.12066411
0.38466334 -0.655832 -0.003925471 0.17474255 -0.15150328 -0.22798605 0.68613565 0.18456872
-0.10732871 -0.11520577 -0.03906087 0.5824887 0.57467806 0.7366645 0.24717961 -0.060691
-0.5859143 -0.084589064 0.13112949 -0.33313683 -0.20130526 -0.13944292 -0.80616426 -1.0446126
0.26578364 0.601368 0.279932 -0.31446272 0.5073341 -0.4948199 0.31563726 -0.4329292
0.107901 0.06686632 -0.430988 -0.29541045 -0.0096015185 -0.317323 -0.27251434 0.122673996
-0.2106418 -0.03662741 0.44689626 -0.07906943 0.45801532 0.32017314 -0.8413903 0.26751453
0.2815935 0.13045251 0.46036115 -0.22162193 0.1674841 -0.10651924 0.7730998 -0.03598134
0.20577896 0.06340069 -0.1766261 -0.23765673 -0.19079456 -0.31382856 0.3902324 0.36206925
0.17029792 0.7577374 -0.71070856 -0.55699444 -0.083461955 0.25103462 -0.34469453 0.07291275
0.36528406 0.29244134 -0.37468648 -0.44265315 -0.01336313 0.58806187 0.10639255 0.11339224
0.056580894 0.0001376503 0.38295773 -0.12288142 0.2067993 -0.3697221 -0.09741588 0.051166777
-0.42874965 -0.15392332 0.72058177 -0.67207825 0.02041834 0.39029625 0.5209881 0.1366828
0.054957457 0.01322395 -0.30815744 -0.031035364 -0.3854214 0.4642575 -0.32660863 0.42683148
0.18458553 0.19943605 0.45032284 -0.32306975 0.24424194 -0.93024397 -0.232569 0.18536176
0.6871338 0.47406054 -0.14343593 0.568763 0.1603344 -0.34356004 0.5266406 -0.07769259
0.2748862 0.16580915 -0.07800861 0.03128417 0.8298233 0.10035506 -0.1158865 -0.6391188

layer1.bias f4 [128]
00000000: 3b0a e6be 959c eb3d e729 503e 03ef 6ebf
00000010: 4e13 ab3d 108d c83e e2ef 093f 43bb f5be
00000020: abc9 1a3f 8c29 12bf 9953 263f 9017 c5be
00000030: aa2e d1be 8e9a 733e 676d 433e 63de 0f3e
00000040: 16b4 aa3e c710 83bd 053d 2fbe 6a04 efbd
00000050: 8221 963d 186f a53d 528b 203e 2287 553e
00000060: ac9e 6e3f cae5 9c3d ddbf 24bd 0302 babe
00000070: 007e c9be 5a4c fdbe 499d 46be 67a8 0cbf
00000080: cbc7 4bbd 86d1 41be c391 0d3f 2dd4 5dbe
00000090: d1f1 c2bd cf03 383f f5e4 143f c7a6 3fbe
000000a0: 1a99 cabd 34e3 9b3e 95c2 d9be 3b00 a6be
000000b0: cf4b ff3e 7dda 4ebf 850f a53e 72a0 bb3e
000000c0: 67a6 1ebe 6e6a ed3e cc92 54be 527c c93e
000000d0: 382c 333f d454 c9bd fe5e 5b3e fedb 5b3c
000000e0: 74a7 a13d 2524 91bd 2260 cf3d 41cc 8abe
000000f0: 6f1b e43d 2ba0 83bd 6dab 9e3e 18be ae3e
00000100: fa9f 7b3e 0904 c1be 7d0e e8be e6b0 6b3e
00000110: 1bf4 b2bb 1855 27bf 58ae a0be 7862 5b3d
00000120: e4ad 983d 9da6 213f 12fc 44be 1525 dcbd
00000130: e020 313e d6c8 88be 5539 243e 9e3d 203f
00000140: 8aac a03e f653 903e 4d32 b03e dce2 843e
00000150: 83e1 58bd 9666 02bd fb7f eb3e 373f 1fbf
00000160: 3269 7e3e f238 b7be 131d 43bd 5090 cdbe
00000170: 10aa 003f 5272 143f c763 423e 35e5 593c
00000180: 893a cd3e 5cce e5bd 41de 5abe dac6 b1bc
00000190: 697a 11be cc7d cb3d 8472 a53e a345 26bd
000001a0: 6bd6 b1be 437d 3e3e 4664 73bc 3e2f 5abf
000001b0: 073f 403e 8a77 093f eed7 e6be e980 8e3d
000001c0: 4b45 383d 1a25 b0be b00a cd3d 69cc 863e
000001d0: bed9 d33e 31b4 a23b 1d74 8c3e a26d dabd
000001e0: 3e49 ed3e 6715 043f e66d d3be f5e1 ba3e
000001f0: 7977 8d3e 3b17 963e 77ae abbe 5a96 953e
-0.4492968 0.11504475 0.20328484 -0.9333345 0.083532915 0.39170122 0.5388166 -0.47994432
0.6046397 -0.57094646 0.6497131 -0.3849454 -0.40855914 0.23789427 0.19084702 0.14049678
0.3334052 -0.063996844 -0.17113121 -0.11670764 0.0733061 0.0807783 0.15678146 0.2085233
0.93210864 0.07661016 -0.040222038 -0.3632966 -0.39353943 -0.49472314 -0.19395937 -0.5494446
-0.049751084 -0.18927583 0.5530054 -0.2166297 -0.09518779 0.7188081 0.5816186 -0.18715964
-0.09892483 0.3044678 -0.42531267 -0.3242205 0.49862525 -0.80802137 0.32238403 0.36645848
-0.15493165 0.46370262 -0.20759124 0.3935266 0.6998935 -0.09830633 0.21422955 0.013419149
0.07893267 -0.07086972 0.10125758 -0.27108958 0.11138045 -0.06427034 0.30990162 0.34129405
0.24572745 -0.3769839 -0.45323554 0.230167 -0.0054612285 -0.6536422 -0.31383014 0.053560704
0.07455042 0.63144857 -0.19236782 -0.1074926 0.17297697 -0.26715726 0.16037495 0.6259402
0.31381637 0.28189057 0.34413376 0.2595433 -0.05294944 -0.031836115 0.4599608 -0.62205833
0.24844816 -0.35785633 -0.04763515 -0.40149164 0.50259495 0.5798694 0.18983375 0.013299276
0.4008372 -0.112210006 -0.21373846 -0.021701265 -0.14206852 0.09936103 0.3231393 -0.040593755
-0.347339 0.18602471 -0.01485545 -0.85228336 0.18774043 0.5369803 -0.45086616 0.069581814
0.044987958 -0.34403306 0.10011804 0.26327828 0.41377062 0.004965328 0.27432337 -0.10665442
0.46344942 0.5159516 -0.41294783 0.36500517 0.27630213 0.29314598 -0.33531544 0.29216272

layer2.weight f4 [128, 128]
00000000: dd0f 1b3e 14f3 683c 0494 42bd 1953 473d
00000010: dbd4 acbd 09d9 643e 16c5 eabd d923 4a3e
00000020: da0f 293b 73da 34be a6a7 54be a34b 7ebd
00000030: fd9d ad3e e041 0cbe 4f9a 6b3e a378 c0be
00000040: 7663 333e 5f52 a13e c4d4 df3d e9c6 133d
00000050: 6c36 09bc 0079 b1bc 4c65 52be d7e5 e13e
00000060: 9cd6 94be 154d 093c 285b 61bd 8e06 0c3e
00000070: 472b 283c c8e8 5cbe 7225 613d 9f83 1d3c
00000080: 23bc 6e3e 34d1 e33d 2af4 f9bc df72 9f3c
00000090: 2a3d fa3c 5376 b73d 4684 b73d b406 003e
000000a0: f9b1 ba3e a2dd 50be be10 e33d d5a5 d1bc
000000b0: a83d a7bd 50a7 9abf a6f2 d3be dfdf e03c
000000c0: 3174 9fbe d742 853c 7424 9f3d 028e c7bd
000000d0: f4cb 33bd 10b3 1e3d 2b8b 69ba 520a 66be
000000e0: 2a06 35bf 8539 64bd 0bb7 2b3e 346f 0e3e
000000f0: 9fbb 0cbe dfd3 acbd 4a0a 903e b3a2 2a3d
00000100: 65ca 28be dce5 ad3d f475 ebbd 2f25 b8bc
00000110: ca41 92be 6bf7 973d e3dc 153f 3e25 273d
00000120: 3add fc3d 4593 df3d 2396 b83e f620 f1bc
00000130: c444 933d 88eb ddbe fe55 a8bf f218 56bd
00000140: dce4 a03d 6a1c 1e3e 9da7 32bf e157 183e
00000150: 9f61 41bd 7c81 333e 8f32 e33d 3ca7 13bf
00000160: 4a8a 09bf e2b4 d33e ee54 1bbc 91bc c1bf
00000170: 5e60 76be eee4 fb3d fea4 573e e041 423e
00000180: 9f11 45bf 7ffa 873d 7160 c03d fd4a 9f3d
00000190: 7ee3 1bbf c3ed 243d 382b da3c 5028 91bf
000001a0: e963 a03e 0c1b 6cbe db05 97be ccf9 cebd
000001b0: 6a24 dd3d a03b 90bd bc3d ba3d 9fe7 3f3d
000001c0: 8abd b2bd 3ad3 60bd 0a6d 013e 5d99 89bf
000001d0: e142 9dbd d892 c93d 7a8a a8bd 0d37 133e
000001e0: d316 f53d 8a17 933d 10b2 83bf 2d98 843c
000001f0: 6267 3dbe ace5 e0be 12c5 8e3d dee0 d63d
00000200: 0ee6 f73d db32 4a3d 3920 dd3d 50fe 833e
00000210: b8fa 223e b897 3d3e 0ef7 dc3d 507f 22bc
00000220: dc4b 49be 3adc 8ebd 9512 08bd 663a 9d3e
00000230: 82b4 9bbd b0b1 f2bd 1bd9 483d fdfd 92bc
00000240: cf2c 22be 08b4 a13e ce07 5a3d 4295 2dbf
00000250: 99c5 d93d 0939 763e cf50 f6bd 455f 173e
00000260: 6312 5dbe e5c9 543e 5d60 583e e661 8e3e
00000270: d8f4 c4bd 90b1 eb3e 2431 99bd 9bb0 aabd
00000280: 952b 4f3e 753d 8a3e 33f7 88bd c7c5 573e
00000290: 3864 2e3e 1cee afbd 9ffb 533d fa28 2dbe
000002a0: 5caf 043e 0bf0 a8be 7531 663e 0d1c f53d
000002b0: 7f6f 5dbd 4fa6 863e 0ec0 bfbd c5a1 da3c
000002c0: 5a8d d43e 59a1 f83c 5594 1b3e 080d 9dbd
000002d0: 5002 59be ef4b c93d 147a d43d 7bfd 7e3d
000002e0: 2de5 0cbe 6fdf edbd 4c81 ea3d fc2b 703e
000002f0: 015f 0e3e 17de 613e a47d da3e 8551 473e
00000300: 6243 993d fc94 063e 89fc a73e 4f45 d93d
00000310: 2230 923e b0d2 933e f38e 643d 8f05 cc3d
00000320: 5d67 c43c 1935 dabe c620 2a3e ce32 b83c
00000330: ff6b 233d 7583 b1be 5801 4abe eb63 9abc
00000340: c6c0 fe3d e08e ff3c bbe0 e9bd b607 90be
00000350: e8e6 0b3e b86c 7d3d 4d6b 5b3d 5b69 b33d
00000360: 616d 96be 2873 903e cc06 803c aba3 30bb
00000370: 222d 02be 10b0 7abe 8937 70be c19b 74be
00000380: 9008 0dbe 3603 b63d 7157 7dbe 35f4 943d
00000390: c4a2 8a3d a355 b83b 2634 07bf 9d10 44be
000003a0: 81f0 b83e ae90 25be fee9 d6bd 8579 243e
000003b0: 5580 943e dae1 8a3d 5280 2d3e bc1a d2bd
000003c0: 5cd8 69be aa84 d93e f131 88be 4f34 1dbe
000003d0: 4eb5 4bbe cf6a 433e e5fb ee3d 6b4a 0dbf
000003e0: 5a3d 7abe 58b8 a7be 5a70 d13d 72aa 9bbc
000003f0: e489 303c 7cd2 b6bb 0041 d0bb c3ee 58be
0.1514277 0.014218111 -0.04750444 0.048663232 -0.084390365 0.22348417 -0.114633724 0.19740237
0.0025796802 -0.17661457 -0.20767078 -0.06208385 0.33909598 -0.13697004 0.23008083 -0.3759204
0.1751841 0.31508157 0.10929254 0.036078367 -0.008374792 -0.021664143 -0.20546454 0.44120666
-0.29069984 0.008380194 -0.055018574 0.13674375 0.010264224 -0.21573174 0.05496735 0.0096139
0.23313956 0.11123887 -0.030511934 0.019463954 0.030546743 0.089581154 0.08960776 0.12502557
0.36463907 -0.20397046 0.11087178 -0.02559177 -0.08166057 -1.208231 -0.41396064 0.0274505
-0.31143335 0.016267223 0.07770625 -0.09743883 -0.043895677 0.038744986 -0.0008908982 -0.22464874
-0.7071253 -0.055718917 0.16769044 0.13909608 -0.13743447 -0.08438849 0.2813285 0.04165907
-0.16483457 0.08491108 -0.11497107 -0.022478668 -0.28565818 0.07420238 0.5854017 0.040807
0.12346883 0.10916761 0.36052045 -0.029434662 0.071908504 -0.4334376 -1.3151243 -0.052269883
0.078561515 0.15440527 -0.6978701 0.14877273 -0.04721224 0.17529863 0.11093628 -0.57677054
-0.5372664 0.4134894 -0.009480698 -1.5135671 -0.24060199 0.12299524 0.21059033 0.18970442
-0.7698001 0.06639575 0.09393395 0.07777975 -0.60894 0.04026581 0.026631936 -1.1340427
0.31326225 -0.23057193 -0.29496655 -0.10106239 0.10797961 -0.070426226 0.09093806 0.04685175
-0.08727558 -0.05488894 0.12639251 -1.0749928 -0.07678772 0.09842461 -0.08229537 0.14376469
0.11967244 0.07182224 -1.0288715 0.016185844 -0.18496469 -0.43925226 0.06971182 0.10492109
0.12104426 0.049364906 0.107971616 0.25779963 0.15915954 0.18514907 0.107893094 -0.009918049
-0.19657844 -0.06975599 -0.033220846 0.30708617 -0.076027885 -0.118502975 0.049035173 -0.017943377
-0.15837406 0.31582665 0.0532301 -0.67805874 0.10633392 0.24045195 -0.12027132 0.14782436
-0.21589045 0.20780142 0.2113051 0.27809066 -0.09617013 0.46033907 -0.07480076 -0.08334466
0.20231469 0.27000013 -0.066877745 0.2107154 0.17030418 -0.08590338 0.051753636 -0.16910163
0.1295752 -0.32995638 0.22479804 0.11968241 -0.05406141 0.26298758 -0.093628034 0.026688466
0.41514093 0.030350374 0.15193303 -0.07668501 -0.21192288 0.09828936 0.10374847 0.062253457
-0.13759299 -0.11614882 0.11450443 0.23454279 0.13903429 0.22057377 0.4267398 0.19464691
0.074835554 0.1314277 0.32809857 0.10608923 0.28552347 0.2887168 0.05580039 0.09961998
0.023975069 -0.42618635 0.16614065 0.022485163 0.039897915 -0.34670606 -0.19727075 -0.018846473
0.12439112 0.031196058 -0.11419817 -0.28130883 0.13662302 0.06187126 0.053569127 0.08760329
-0.29380324 0.28212857 0.015628241 -0.0026953022 -0.1271253 -0.24481225 -0.23458685 -0.2388754
-0.13772798 0.08887331 -0.24740387 0.07273141 0.06769326 0.005625443 -0.5281395 -0.19146962
0.3612099 -0.16168472 -0.10493849 0.16061981 0.2900416 0.06781359 0.16943482 -0.102590054
-0.22836441 0.42484027 -0.26600602 -0.15351985 -0.19893381 0.19083713 0.11669139 -0.5519168
-0.24437466 -0.3275783 0.102265075 -0.019002173 0.010775063 -0.005579291 -0.006355405 -0.2118483

layer2.bias f4 [128]
00000000: ad5f 5fbc 3600 a9be 1787 8d3d 7010 e13d
00000010: a073 953d 4133 95bc 9dd2 bfbc f95e 043d
00000020: 3dc5 a63d 7314 923d 5900 ad3c dc68 0c3d
00000030: d844 483e da60 843d 7706 5b3e 501b 433d
00000040: 6253 913d 5879 b7bd 1aac bc3d eda6 68bc
00000050: c99b b53b 96eb b2bd 5110 683e 3eda 0e3d
00000060: 3bc8 fc3d bad3 4a3d 5486 dc3d a8cd 68bd
00000070: ecb4 413c ca13 933e 57b9 203e 23df fc3d
00000080: 8653 2bbe c2e3 7e3d 5ae4 c33d df7b 2e3e
00000090: 2985 033e cc11 083e 6ec9 dd3d 867f bf3d
000000a0: ecfc d03d deb6 573e 3b47 733d e4bb 97bd
000000b0: 1791 413d 4c86 8fbd b534 a33c 121f f93c
000000c0: c2d6 9f3d 9443 c23d 42f1 e43b a7be eb3b
000000d0: a2ff 873e 16c8 5d3d 6641 1fbc 34f7 753d
000000e0: 68df 153e b880 203d 7456 d43d b520 f73d
000000f0: c978 ed3d 07de 8bbd 537d 4a3e 73a6 563d
00000100: d144 973d 3e31 4b3e 8ad1 83bb 1023 663d
00000110: 92ce 083e 292a c4bd c7f8 be3d 971d 8c3c
00000120: 4915 f13d a06e 8f3d f503 22bd 5673 803e
00000130: 188d 2ebd 4416 d9be 1086 0e3d 3cc2 753c
00000140: d175 8fbd c42d ac3c 266f 713d c90f 143e
00000150: dd56 003e 75d5 853d 468c 963d 93aa dcbc
00000160: cdb3 053e ee1f 003d 14b4 88be 2dd4 213d
00000170: 8a88 c43d 3706 c93d 283b 8f3d d6f6 c83d
00000180: fd1e dc3d 5323 c13c e751 b63c 52f1 f6bd
00000190: 2bbb 133c 719a 373d f04a 88bd 7d76 163d
000001a0: 8567 bd3d 2aa8 983d 3ff8 963d e6f6 473d
000001b0: de4d 72bd 126c 613e 3512 303e 7d16 0e3e
000001c0: 7c22 083e a66c 133e 14bd 4abd 3124 db3d
000001d0: a7cc 323e 669a 0d3c c830 8c3d 509b ff3d
000001e0: 1351 1c3e d225 bf3d 1440 9d3c e413 62bd
000001f0: 84c8 153e d299 b53d 96fe fd3c 85ba 86bd
-0.013633651 -0.33007973 0.06910532 0.10989463 0.07297444 -0.018212916 -0.023415858 0.032317135
0.08143089 0.07132807 0.02111833 0.03427969 0.19557512 0.064637855 0.21389185 0.04763347
0.07095982 -0.08958691 0.09212513 -0.014199954 0.0055422527 -0.08736341 0.22662474 0.0348761
0.123428784 0.049518324 0.107678086 -0.056836754 0.01182292 0.28726035 0.15695702 0.123472475
-0.1673108 0.062228926 0.09565039 0.1703944 0.12843765 0.13288039 0.10829435 0.09350495
0.10204491 0.21065852 0.059394103 -0.07408884 0.04725751 -0.07008037 0.019922594 0.030410323
0.07804634 0.09485546 0.006986768 0.0071943584 0.2656222 0.054145895 -0.009720182 0.060050204
0.14636004 0.039185256 0.10368052 0.12066785 0.115953036 -0.06829458 0.1977437 0.052404832
0.073861726 0.19843003 -0.0040227817 0.056185782 0.1336005 -0.09578354 0.09324794 0.017103953
0.11771638 0.07003522 -0.039554555 0.25087994 -0.042615026 -0.423998 0.03479582 0.014999922
-0.070048936 0.021017917 0.05894389 0.14459147 0.12533136 0.06534854 0.07350974 -0.026936805
0.1305687 0.03128045 -0.2669989 0.039508987 0.09596355 0.098156385 0.06993705 0.09812705
0.10748098 0.023576414 0.022255851 -0.12057747 0.009016792 0.04482502 -0.06654918 0.036734093
0.092482604 0.0745395 0.07371568 0.048819445 -0.05915629 0.22013882 0.17194445 0.13875766
0.13294405 0.14396915 -0.049496725 0.10700262 0.17460881 0.0086427685 0.06845242 0.124807954
0.15265302 0.093333855 0.019195594 -0.05519475 0.14627272 0.088672295 0.031005185 -0.065785445

value_function.weight f4 [1, 128]
00000000: 5737 253f 2392 86bf 992e 733f 7028 1c3f
00000010: 2134 4bbe 7f7c 1c3f 35d8 413f fa8b 843f
00000020: 92db 37be c06f 3cbe 3164 de3f a544 443f
00000030: ca15 7ebe 396d f73e 8e66 41be 348a c4bd
00000040: 3d02 5f3f fae2 ba3c 33af 8fbe c20f 3b3f
00000050: 6700 8fbf 4a6b c83c 89e8 72be 0b8e 8f3f
00000060: be6a ffbd ca65 1e40 3059 6ebe 4f83 303f
00000070: 4f6d e73f e070 2bbf 9d1a 703f dec6 20bf
00000080: ed9f 95bf 4dc0 0dbe 72cd 3e3f 9843 4740
00000090: b028 debd 5ef4 6fbe 7d24 07be 8317 273f
000000a0: 21c4 bd3f 0f80 7fbe e380 06be b0fb 593f
000000b0: deb4 27be 26b8 983f 2d51 21be 3609 573f
000000c0: 89e3 84be ecc7 9c3e f6f2 8d3f 9e6a 7f3d
000000d0: 7d20 9fbe 9c24 f2bd 938b 733f 02c4 d5bd
000000e0: ccba 53be c760 8b3d be4f 6cbe ad17 10be
000000f0: 2168 1fbe b783 33bf 68b0 22be 7ed5 293e
00000100: 3cba 8cbe 1d36 9dbe 88bb 89be 5f4e fc3e
00000110: c6eb 4b3f 1415 6ebf 450a e73f adcf 603d
00000120: 2523 89be 6aba 05be 54e4 b03f 0f8f 00bf
00000130: e088 1b3f 62be d3bf 5807 2dbe 985d 1a3f
00000140: 5091 42bf 0dde e9bd 6647 92bb c9f1 43be
00000150: c9d8 34be 43b1 1abe 4764 15be 0091 22be
00000160: 85e5 25be 0b2f f3bd a4ae 9bbf f23c d53e
00000170: 48a7 d0bd c06e 09be 6d48 33be 8169 ee3e
00000180: ef4f 153f 84fd 61be 5130 03be 438c d03f
00000190: 27b5 00bf 4053 1140 1124 913d 57b8 e9bd
000001a0: 6f08 dfbd 8074 8bbe 682c 1a3f 9564 32be
000001b0: 2e03 9ebd 33e0 28be 377a cdbe 0149 bf3f
000001c0: 0418 8c3f 23e2 b73e 2d03 893e 2d67 29be
000001d0: 1aa6 733f 91bd a63d 408f 2abe 38d8 03be
000001e0: d9b1 5c3f 4b62 1340 41cd de3e 0525 8f3f
000001f0: 34c9 e0bd e61b 953f 9951 193d 402c 473f
0.64537567 -1.0513347 0.9499298 0.609992 -0.19844104 0.61127466 0.7572053 1.0355217
-0.17954853 -0.18402004 1.7374326 0.76667243 -0.24813 0.48325518 -0.18886778 -0.09596673
0.8711279 0.022813309 -0.28063354 0.7307092 -1.1171998 0.024465222 -0.23721518 1.1215223
-0.12471531 2.4749627 -0.2327621 0.6895036 1.8080233 -0.6696911 0.9379061 -0.6280345
-1.168943 -0.13842888 0.74532235 3.1135006 -0.10847604 -0.23433062 -0.13197513 0.6527025
1.4825479 -0.24951194 -0.13135104 0.8514967 -0.16377589 1.1931198 -0.15753622 0.8399843
-0.25954846 0.30621278 1.1089771 0.062357537 -0.31079474 -0.11823389 0.9513485 -0.10437776
-0.20676726 0.06805568 -0.23077294 -0.14071532 -0.15567066 -0.70122856 -0.15887606 0.16585347
-0.27485836 -0.30705348 -0.26900887 0.49278542 0.79656637 -0.9300091 1.8050009 0.054885555
-0.26784626 -0.13059393 1.381968 -0.5021829 0.6075573 -1.6542475 -0.16897333 0.6029906
-0.7600298 -0.11419306 -0.0044640778 -0.19135202 -0.17660822 -0.15106682 -0.14589034 -0.15875626
-0.16200836 -0.11874207 -1.2162671 0.4164806 -0.10188156 -0.13421154 -0.17508097 0.46564868
0.58325094 -0.22069365 -0.128114 1.6292804 -0.50276417 2.2707062 0.07086957 -0.11412113
-0.108902805 -0.2723732 0.6022401 -0.17421181 -0.0771545 -0.16491775 -0.40132305 1.4944154
1.0944829 0.35914716 0.26760235 -0.16543265 0.95175326 0.08141626 -0.16656208 -0.1287545
0.86208874 2.3028743 0.4351597 1.1183172 -0.109758765 1.1649139 0.037431333 0.77801895

advantage.weight f4 [3, 128]
00000000: e893 8bbc af21 ca3d 17f9 c93c ae7b 42bd
00000010: 006c 443d 590e 213d 7b7a 47bc ccaf 373d
00000020: c85d 703d 1783 93bd 41d4 c1bc 9eba aa3d
00000030: 1610 80bd ce94 47be a9a8 ff3c afc7 773d
00000040: 520c aabc cc9a a83d 5047 e33b 4e7b ee3c
00000050: 19b2 ca3a 07ed 46bd 5e78 143e 8f8b d0bd
00000060: ce10 da3c 36e3 16be a763 773c 03cc 58bd
00000070: df9f a4bd 7d12 c2bd d61e 15be 6a00 0b3e
00000080: f92d 0c3d 8f2d 0cbd a4ab 71bd f5bd 2e3e
00000090: 35e8 a53d 8690 003e e3b6 c8bd 4ff9 1f3d
000000a0: 372f 6e3e e8e0 0fbe 170e c7bc ab24 06be
000000b0: 5465 85bc a1bd 98bd 2d9b a43d a501 ac3c
000000c0: af47 8e3d b909 d73b 47a2 f2bd 6ce2 083c
000000d0: 0371 6ebd 241a 813c d484 743d 7845 37bc
000000e0: ba51 b3bc 4546 8abd 9d1d 31bd a6d3 b1bd
000000f0: 92b3 443d cf21 153b 136a 46be 99a9 a7be
00000100: 362b c53c 0c21 f83d b9f6 10be ce74 9e3d
00000110: 7899 443e ce39 9a3d f544 6bbd 4a13 9ebc
00000120: 2cd5 eeba 9626 1d3d 75df ef3e fa9a e7bc
00000130: 68cd 223e 3626 8e3b 8e98 e3bd cd0f 013b
00000140: d1b6 043d ea38 24ba 66e3 883c 5fa4 1fbe
00000150: ddcb 3cbe 0198 d03c ac57 8e3d 6f3d 5ebd
00000160: c0ac 0b3e 74d2 113b 6829 fabc 5081 13be
00000170: 8c52 92bd ee88 f43c 9f73 0cbd c60e 3d3e
00000180: 18bd d13d e021 0d3d d471 81bd ef78 eabd
00000190: 47c2 933a 3c28 96be 00c1 0abc 9f84 9d3d
000001a0: da33 ea3d 5e86 763d 09c3 953d 4d98 96bd
000001b0: 849d 163d 2a95 df3a c09e bd3d 2016 1aba
000001c0: 0de0 bebc ff9e ff3d bc4b 283e 5a11 073e
000001d0: 7352 9dbd 788c 19bd dca1 923d 80f7 a73d
000001e0: 9358 8fbe c735 efbb 6ebd 403d 8cc5 2cbd
000001f0: bf2e 91bd 4726 a1bd 64be aabd e0c9 193b
00000200: 7adc 333d 38ea 4b3d b2ff 71bd 4e25 0dbd
00000210: 739c 953d 7bc3 25bd 5b16 333d 6350 593b
00000220: 64ad 7bbd d590 0b3c c127 403d 4138 4a3d
00000230: 068a bdbc 5ff8 18bd f97e 5b3d 1abf 67bd
00000240: 3b0c 763d 815b 573b 084c 25bd fe0d 86bd
00000250: 1d41 3abd 1916 4c3d b1f2 853d 5a78 b93c
00000260: d942 c9bc 86f2 08be 03a6 503d e869 5b3d
00000270: 509a 44b8 d2d4 30bd f0d9 d6bd 12a4 363c
00000280: c6cd 8abc 43c3 313c d6ab 163d 8022 c7bd
00000290: df98 573d 26f9 31bc 30f8 83bd 68dd eebc
000002a0: 597b 533d a268 b5bc f2f4 b23b 5846 2b3c
000002b0: e10f 473c 7dc1 273c ac84 90bd a75d e1bc
000002c0: 37fa 60bd ea6e abbc 2748 8dbc 59b2 b53c
000002d0: dae2 c2bb 4566 e4bc c556 f33c ff9c 7bbd
000002e0: dc20 2d3d 429a 063d d5cd 20bd e5a0 1a3d
000002f0: 25e8 273d 1244 383d b08c 5cbd 54f9 81bc
00000300: 9455 efbc e644 093d 4e8f 9b3c 2532 00bb
00000310: 2b13 7dbc e907 91bb 8d1f 663d 333c 893b
00000320: adbb cebd 1ff7 5dbd 85aa 703d e6dc 01bd
00000330: 3432 973d 3359 223d ff8c 21bd 98a4 993c
00000340: 54a4 883d e6a7 30bd 8fd3 72bd 21a5 2f3c
00000350: 938e fe3c 98f5 4b3d 73eb 6c3d c5f9 7abd
00000360: 650d 81bc f787 3fbd 40b5 653a 5c20 923d
00000370: aec5 3a3d 9230 6b3d 5a41 763d 578d 67bc
00000380: bdaa 00bd 29ce 73bd add3 35bd 4cab 63bd
00000390: 71d5 e53d c872 94bc d719 a63d 7bc6 903d
000003a0: 5872 d43c a6e3 473d 0b54 5ebc 8da1 6d3c
000003b0: 688b 27bd a31a 5d3d 9222 c73d d12a 1ebd
000003c0: 30ae 79bd 0e39 43bd e7ec 273d e898 a6bb
000003d0: 4ee3 a3bd dcc3 56bd 31d2 213d 9280 0f3d
000003e0: 587f 27bd e1d4 113d e139 11bd 5306 1b3c
000003f0: bcd6 e6bc 2b18 80bd 23a1 f63b b038 a5bc
-0.0170383 0.09869706 0.024654908 -0.04748123 0.04795456 0.039320324 -0.012175198 0.044845387
0.058683187 -0.07202738 -0.02366078 0.08336376 -0.06253068 -0.19490358 0.031208353 0.060493167
-0.020757828 0.0823265 0.0069359913 0.02911153 0.0015464454 -0.04856589 0.14499041 -0.10182869
0.026619341 -0.14735112 0.015099443 -0.052928936 -0.080383055 -0.094761826 -0.14562544 0.13574377
0.03422353 -0.034223136 -0.05900158 0.1706465 0.081009306 0.12555131 -0.09800508 0.03905612
0.23260199 -0.14050639 -0.02429871 -0.13099925 -0.016283669 -0.07458044 0.0803741 0.020996878
0.06947266 0.0065624383 -0.11847358 0.008354764 -0.058213245 0.015759535 0.059696987 -0.011185996
-0.021889556 -0.06751684 -0.043241132 -0.08682947 0.048022814 0.0022755747 -0.19376402 -0.3274658
0.024068456 0.12115678 -0.14156617 0.077371225 0.19199169 0.075305566 -0.05743881 -0.019296307
-0.0018221489 0.038366877 0.46850172 -0.02827214 0.15898669 0.004338051 -0.11113082 0.0019693256
0.03240091 -0.00062645844 0.016709995 -0.15590046 -0.18437143 0.025463106 0.06950316 -0.054257806
0.13640118 0.0022250684 -0.030537322 -0.14404798 -0.07144651 0.02985045 -0.034289952 0.18462667
0.10241145 0.034456134 -0.06320539 -0.114488475 0.0011273109 -0.2932757 -0.008468866 0.07691311
0.11435671 0.060186736 0.07312591 -0.07353268 0.036771312 0.0017058004 0.09258795 -0.00058779307
-0.023300195 0.12481498 0.1643514 0.13190213 -0.076817416 -0.037487477 0.071597785 0.08201504
-0.27997264 -0.007300112 0.047055654 -0.042180583 -0.07088994 -0.07868629 -0.083370954 0.0023466274
0.043911435 0.049783915 -0.05908174 -0.034459405 0.07305231 -0.040469628 0.04372249 0.0033159486
-0.061444655 0.008518417 0.046912912 0.049370054 -0.023137104 -0.03734624 0.053587887 -0.056578733
0.060070258 0.0032860937 -0.040355712 -0.065456375 -0.045472253 0.04982576 0.0654043 0.022640396
-0.024568008 -0.13373765 0.05093957 0.053567797 -4.6873756e-05 -0.04317171 -0.10490787 0.011147516
-0.016943824 0.010849777 0.03678497 -0.09723377 0.052636024 -0.010862624 -0.064438224 -0.02915831
0.051631305 -0.02214462 0.0054613287 0.010453783 0.012149782 0.010239002 -0.07056555 -0.027510477
-0.054926123 -0.020926911 -0.017246319 0.02217977 -0.005947453 -0.027880797 0.02970446 -0.06142902
0.042267665 0.032861955 -0.039258797 0.037751097 0.040992875 0.044986792 -0.053845108 -0.01586596
-0.029215612 0.033512972 0.018989231 -0.0019561138 -0.0154464645 -0.004425992 0.056182433 0.0041880845
-0.1009439 -0.05419075 0.05875637 -0.031704806 0.07382622 0.03963585 -0.039441105 0.018755242
0.06671968 -0.04312887 -0.05928379 0.010720522 0.031073844 0.049794763 0.05784173 -0.061273355
-0.015753457 -0.046760526 0.0008762665 0.07135078 0.04559868 0.057419367 0.060120918 -0.014132819
-0.03141283 -0.05952278 -0.044391323 -0.055583283 0.11222351 -0.018121138 0.08110397 0.07069107
0.02593343 0.048801087 -0.013569842 0.014503849 -0.040904433 0.05398048 0.09723391 -0.03861505
-0.060957134 -0.047661833 0.040997412 -0.005084146 -0.08002339 -0.05243288 0.039507095 0.035034724
-0.04089293 0.035603408 -0.03545559 0.009461957 -0.028178565 -0.0625461 0.007526533 -0.020168632

advantage.bias f4 [3]
00000000: 7504 7dbd 992d 90bc 82cb d1bc
-0.06177183 -0.017599868 -0.025609735
