Weights/acrobot_model_weights2.pth (torch, 75124 bytes, 7 tensors)

layer1.weight f4 [128, 6]
-0.36386824 0.6169089 -0.50912046 -0.39358696 0.13566244 0.16000469 0.34768692 0.4918532
0.22502474 0.29820576 0.14017768 0.06505401 -0.74313974 -0.4006224 -0.3219534 -0.19812363
0.3771994 0.22300963 -0.34315228 0.27325648 0.27037108 0.71332455 -0.114970796 0.429142
0.053841583 0.21932405 0.7335916 -0.38879535 -0.24621177 0.04927767 -0.5076955 0.7855533
-0.41564283 0.1618371 -0.33481055 -0.328996 -0.5481411 0.58069766 0.16718516 0.8539955
-0.0856241 -0.22961229 -0.0023013202 -0.79538286 0.17530519 -0.5281572 0.37366647 0.26866448
-0.037589163 0.11802011 0.27501127 0.42223832 0.21771258 0.1550764 0.24510388 -0.22899391
0.30681294 -0.5843516 -0.3739111 -0.26595438 0.5335081 0.0882878 -0.17761868 0.13467015
0.2137401 -0.03179182 -0.09675404 0.26557153 0.26435444 0.44166383 -0.46115127 -0.08870295
0.040895768 0.55298084 0.5062923 0.8928109 0.06810759 -0.27781892 0.15653387 -1.1460232
-0.7338653 0.6523121 0.064598136 -0.36138615 0.36652714 -0.28374726 0.1709222 -0.34519747
0.10401396 -0.17184576 -0.39663744 0.12044054 0.73003733 0.269591 -0.634986 -0.3036058
0.42689058 -0.71276164 -0.23292968 -0.5611304 0.52742624 0.08111306 0.21517535 -0.28899422
0.015895315 0.11738488 -0.7530108 -0.33989906 -0.020372372 0.18351805 0.0065573007 0.115623325
-0.13781832 0.42182913 0.35226735 -0.69855845 -0.2794389 0.43506235 -0.14899467 -0.03141446
0.393955 -0.0018572154 -0.33768538 0.15839969 -0.5178442 -0.107481085 -0.1709198 0.094722755
-0.10616837 -0.3255333 0.11778376 -0.005280749 -0.43947113 -0.27571455 0.79752797 -0.18174498
0.07936025 0.010588644 0.12580734 0.52947104 0.53507215 0.7079316 0.27024725 -0.12587298
-0.25677496 -0.44119254 0.19069445 -0.42346162 -0.2986697 -0.19714305 -0.9360334 -1.0655487
-0.35534957 0.7772949 0.19196515 -0.33976874 0.55187476 -0.4373257 0.27533743 -0.24580368
-0.13911335 -0.057570342 -0.51866317 -0.28514174 -0.11300708 -0.2705921 -0.30851656 0.05592047
-0.17023905 -0.19778606 0.32634243 -0.19107838 0.5490543 0.13452826 -0.74239016 0.25849923
-0.07508506 0.115004 0.4163183 -0.3132278 0.5054161 -0.15178332 0.46407637 0.16153917
0.19440371 0.19916993 -0.06608696 0.0055257273 0.10876959 0.4862836 0.5215022 0.3376966
-0.10868271 0.89323133 -0.72097164 -0.65402544 -0.068789765 0.30854794 -0.1665375 0.27942547
0.18422915 0.22314247 -0.47901252 -0.3576461 -0.109103374 0.48281914 -0.08833205 0.34572572
0.031624846 0.050079204 0.17706273 -0.06275403 0.10264668 -0.21322589 -0.07596324 0.16055821
-0.6780422 -0.64278173 -0.6668178 -0.7339232 0.01022131 0.2889104 0.3644857 0.06253798
-0.13020374 0.18210152 -0.33380404 -0.08143703 -0.40984422 -0.022525081 0.029692467 0.46623066
0.10038068 0.21506687 0.51717395 -0.0022586794 0.40537667 -0.8463754 -0.2010908 0.16063079
0.5744514 0.55787194 0.034261096 0.36157092 0.10426376 -0.35235843 0.5607125 -0.5443869
-0.03535244 -0.4527653 -0.10089961 -0.04343754 0.44452587 -0.24462023 -0.1649907 -0.42161608
00000000: f04c babe beed 1d3f b855 02bf 3b84 c9be
00000010: 18eb 0a3e 45d8 233e 0504 b23e 2fd4 fb3e
00000020: e36c 663e 6dae 983e bd8a 0f3e 093b 853d
00000030: 683e 3ebf 611e cdbe 13d7 a4be ece0 4abe
00000040: 4820 c13e a35c 643e a8b1 afbe 46e8 8b3e
00000050: 146e 8a3e 709c 363f cf75 ebbd 80b8 db3e
00000060: fe88 5c3d 7c96 603e a9cc 3b3f 2f10 c7be
00000070: f01e 7cbe 62d7 493d 55f8 01bf 051a 493f
00000080: 23cf d4be a0b8 253e 4a6c abbe 2a72 a8be
00000090: fa52 0cbf 9aa8 143f 9632 2b3e 739f 5a3f
000000a0: b05b afbd 7c1f 6bbe bfd1 16bb 369e 4bbf
000000b0: 3483 333e 4f35 07bf 3651 bf3e 648e 893e
000000c0: 18f7 19bd 87b4 f13d 47ce 8c3e 9f2f d83e
000000d0: 0cf0 5e3e 59cc 1e3e 83fc 7a3e 617d 6abe
000000e0: 9616 9d3e 1198 15bf 4771 bfbe 2c2b 88be
000000f0: fd93 083f 3cd0 b43d ace1 35be f9e6 093e
00000100: afde 5a3e 2438 02bd fb26 c6bd fef8 873e
00000110: 7759 873e c321 e23e 051c ecbe e4a9 b5bd
00000120: 5282 273d 2790 0d3f 5f9c 013f 418f 643f
00000130: fe7b 8b3d 483e 8ebe 6a4a 203e e3b0 92bf
00000140: 99de 3bbf edfd 263f 074c 843d 9b07 b9be
00000150: 72a9 bb3e 5247 91be 3b06 2f3e b9bd b0be
00000160: 4505 d53d 56f8 2fbe 1014 cbbe 88a9 f63d
00000170: bae3 3a3f d507 8a3e 718e 22bf 3872 9bbe
00000180: 6791 da3e 8c77 36bf 1e85 6ebe 3ea6 0fbf
00000190: 6805 073f 9b1e a63d ed56 5c3e 0df7 93be
000001a0: e436 823c 7c67 f03d 51c5 40bf 4007 aebe
000001b0: f6e3 a6bc 28ec 3b3e a0de d63b eccb ec3d
000001c0: 3f20 0dbe fdf9 d73e 635c b43e bad4 32bf
000001d0: 9e12 8fbe 7ec0 de3e 0f92 18be 73ac 00bd
000001e0: 78b4 c93e cf6d f3ba 19e5 acbe 8733 223e
000001f0: 7091 04bf 0b1f dcbd 9a05 2fbe 01fe c13d
00000200: cd6e d9bd 4dac a6be 9d38 f13d 220a adbb
00000210: 5c02 e1be 752a 8dbe cb2a 4c3f 5b1b 3abe
00000220: a087 a23d fe7b 2d3c a4d3 003e 6a8b 073f
00000230: 7dfa 083f 013b 353f d95d 8a3e d9e4 00be
00000240: 0278 83be fde3 e1be 6845 433e f6cf d8be
00000250: 3ceb 98be dedf 49be e39f 6fbf e663 88bf
00000260: 61f0 b5be ccfc 463f 8392 443e 2bf6 adbe
00000270: aa47 0d3f 27e9 dfbe 07f9 8c3e f6b3 7bbe
00000280: bb73 0ebe e1ce 6bbd 1cc7 04bf 19fe 91be
00000290: 4270 e7bd 0c8b 8abe e2f5 9dbe dd0c 653d
000002a0: 2553 2ebe 6e88 4abe 5b16 a73e 0daa 43be
000002b0: d38e 0c3f c7c1 093e 480d 3ebf 035a 843e
000002c0: 32c6 99bd 3887 eb3d ac27 d53e 655f a0be
000002d0: f362 013f 166d 1bbe 6b9b ed3e 866a 253e
000002e0: c411 473e 34f3 4b3e 9a58 87bd 2911 b53b
000002f0: 97c2 de3d 2afa f83e 2b81 053f 92e6 ac3e
00000300: 0a95 debd cfaa 643f 9991 38bf 366e 27bf
00000310: a6e1 8cbd fff9 9d3e ce88 2abe db10 8f3e
00000320: 91a6 3c3e 767f 643e 2141 f5be 641d b7be
00000330: 9771 dfbd 1234 f73e 6fe7 b4bd f602 b13e
00000340: 0e89 013d da1f 4d3d ef4f 353e 2f85 80bd
00000350: 6c38 d23d e357 5abe 9d92 9bbd 5f69 243e
00000360: 2c94 2dbf 588d 24bf 92b4 2abf 64e2 3bbf
00000370: 4877 273c 10ec 933e df9d ba3e ea13 803d
00000380: 2154 05be d278 3a3e 5de8 aabe 75c8 a6bd
00000390: 1ad7 d1be 8586 b8bc 9e3d f33c c9b5 ee3e
000003a0: 6394 cd3d 7d3a 5c3e 8365 043f 5a06 14bb
000003b0: 888d cf3e 0fac 58bf bfea 4dbe 667c 243e
000003c0: 3f0f 133f b2d0 0e3f 5d55 0c3d d31f b93e
000003d0: 3d88 d53d 5368 b4be db8a 0f3f f15c 0bbf
000003e0: b8cd 10bd dad0 e7be 74a4 cebd 90eb 31bd
000003f0: e598 e33e ba7d 7abe 52f3 28be 10de d7be

layer1.bias f4 [128]
-0.11291464 0.2203551 -0.038126905 -0.9282926 0.39469606 0.30553743 0.34652856 -0.2727669
0.47829497 -0.13237089 0.5736585 -0.58889395 -0.5589146 -0.10520046 0.07724842 -0.7197634
-0.18523191 -0.13586785 -0.2723452 -0.23516771 -0.007318734 0.44437486 0.038608324 0.2553385
0.7993871 -0.3553672 0.05059063 -0.50066715 -0.6897856 -0.74584377 0.09060367 0.053864993
-0.11242359 -0.1690147 0.5370062 -0.26942977 -0.2808515 0.72000945 0.53327763 -0.06007812
0.11857453 0.11393214 -0.22479783 -0.2002535 0.28601885 -0.46380192 0.11152598 0.23659678
-0.23555167 0.32027817 -0.27147815 0.34726322 0.6959673 -0.17884359 0.27036312 -0.0027114875
0.08798957 0.09504269 -0.009409645 -0.23892988 0.22864607 -0.41406262 0.27055696 0.44977573
0.18558152 -0.29295897 -0.3790409 0.4155437 -0.30048493 -0.50316495 -0.17879404 0.21703202
-0.24887949 0.43385285 -0.3562338 0.23104106 0.3153806 -0.17455055 0.069086485 0.5714563
-0.13735145 0.32412922 0.32746065 0.61545247 0.027196096 -0.08805592 0.4703715 -0.27087468
0.134917 -0.30044326 0.4461857 -0.5363593 0.46427125 0.44834426 0.22582583 0.32603812
0.4771926 -0.24416529 0.053052176 -0.19808811 -0.23504697 0.16105096 0.19914787 -0.35268262
-0.26411128 0.18173803 0.023005372 -0.018866535 0.29679534 0.6264585 -0.33040255 -0.4686341
-0.34287313 -0.43645275 0.06644683 0.62756425 0.4847829 -0.17699729 0.14975174 -0.46757248
0.31887168 0.6040375 -0.51517487 0.6613453 0.2934193 0.31335294 -0.23871414 0.65630895
00000000: ca3f e7bd c4a4 613e f52a 1cbd 95a4 6dbf
00000010: 9a15 ca3e 676f 9c3e 316c b13e 1aa8 8bbe
00000020: 14e3 f43e 3c8c 07be 49db 123f c1c1 16bf
00000030: 0715 0fbf 5773 d7bd 6b34 9e3d 6a42 38bf
00000040: 6fad 3dbe f120 0bbe d470 8bbe cecf 70be
00000050: fed1 efbb 1a85 e33e c323 1e3d babb 823e
00000060: a2a4 4c3f b1f2 b5be 1f38 4f3d b92b 00bf
00000070: ca95 30bf 9eef 3ebf 6b8e b93d 8aa1 5c3d
00000080: 573e e6bd 3112 2dbe 3d79 093f b3f2 89be
00000090: c5cb 8fbe 8a52 383f e284 083f 7a14 76bd
000000a0: 34d7 f23d 4155 e93d 6731 66be 410f 4dbe
000000b0: 1071 923e 7277 edbe bc67 e43d 6d46 723e
000000c0: 7534 71be 80fb a33e 2fff 8abe 7ccc b13e
000000d0: ea2a 323f c622 37be 096d 8a3e 36b3 31bb
000000e0: e033 b43d bea5 c23d e92a 1abc 09aa 74be
000000f0: 3222 6a3e 0400 d4be 7186 8a3e 0149 e63e
00000100: 1509 3e3e b8fe 95be a611 c2be 25c2 d43e
00000110: 29d9 99be 6bcf 00bf c915 37be a43d 5e3e
00000120: 44da 7ebe f621 de3e 4764 b6be 0796 6c3e
00000130: 9179 a13e 61bd 32be 377d 8d3d f64a 123f
00000140: dca5 0cbe 44f4 a53e eca8 a73e 4b8e 1d3f
00000150: 59ca de3c aa56 b4bd 89d4 f03e 16b0 8abe
00000160: af27 0a3e b3d3 99be 7472 e43e d84e 09bf
00000170: f6b4 ed3e 618d e53e e33e 673e 78ee a63e
00000180: 9752 f43e 7706 7abe 3d4d 593d 9cd7 4abe
00000190: 27b0 70be 8bea 243e 6bed 4b3e d192 b4be
000001a0: 9839 87be 8919 3a3e c375 bc3c fe8d 9abc
000001b0: 8ff5 973e 965f 203f 862a a9be cff0 efbe
000001c0: 118d afbe bc76 dfbe 4715 883d 0da8 203f
000001d0: 7735 f83e c73e 35be 8558 193e a965 efbe
000001e0: 2643 a33e 34a2 1a3f 80e2 03bf ed4d 293f
000001f0: 0e3b 963e cc6f a03e 7b71 74be dd03 283f

layer2.weight f4 [128, 128]
0.32699606 0.15663294 0.0538701 -0.20058072 0.10983136 0.14328158 0.16921474 -0.059696507
0.066773325 -0.18641554 0.036072854 -0.9173392 0.027937451 0.24511832 0.09789967 0.42363295
0.2735821 0.48499104 -0.1214576 0.02587503 0.050836593 -0.107157506 -0.06283736 0.2484719
0.024341296 -0.9259675 -0.91406703 0.32116082 -0.007928158 -0.80368423 0.063247606 -0.10989526
0.21739355 -0.4294926 0.22001962 -0.06482105 -0.43478042 0.063698106 0.051520757 -0.74957883
0.12054498 -0.8986433 0.124470554 0.048385683 0.049937442 -2.1062036 -0.12344055 0.22631085
-1.1265587 -0.15215115 -0.99292725 -0.036742385 0.033063687 0.203161 0.0090788705 0.5639136
-0.07268505 -0.08212074 -0.19564267 -0.23580557 0.10703413 -0.19244245 0.20981768 0.036624406
0.11984164 0.093048505 0.07971956 0.10473507 -0.37258515 -0.31320718 0.18982707 -0.059490632
0.057558786 0.007929058 -0.24516234 -0.0049096406 0.17537355 -1.0194113 0.2202839 -0.24425672
-0.14478289 0.19762325 -0.090154365 0.052702356 -0.0013158928 -0.0624077 0.06607919 -0.2548409
-0.04707654 0.8602007 0.11869986 -1.4127557 -0.08838045 0.06919915 0.28190538 0.124088585
-0.000565928 -0.16230582 0.03259173 0.004835381 -0.82888746 -0.22762357 0.13162826 0.06399523
0.36251128 0.033727385 0.19698764 -0.19026381 -0.042820543 0.09667589 -0.32191545 0.6027919
-0.17075329 -0.283791 0.11464423 -0.04985456 -0.2468326 -0.030711405 0.047341965 0.13995436
-0.14134207 -0.004459013 -0.4646265 -0.13565242 0.03645501 -0.106611766 0.14912549 0.17862459
-0.19253805 -0.23861945 0.19062681 0.07962704 0.09977446 0.048449513 0.14794917 -0.51900923
-0.10135286 0.022074124 -0.16447866 0.2589785 0.01682429 0.0009548143 -0.02295639 0.26395068
0.08851996 0.53316134 -0.023076128 0.3805982 0.123894334 0.16808382 -0.33641413 0.16923903
0.02411918 0.16573353 0.11303337 0.38885334 0.51770574 0.26552513 -0.18718421 -0.11732153
-0.11107311 0.082865626 -0.056628946 0.17414348 0.054449033 -0.16179425 -0.01927316 -0.08297222
0.019356085 0.09660279 0.16583072 -0.005738391 -0.18783753 0.10710454 -0.31540003 0.210308
0.15940207 0.015236792 0.19011483 -0.06564548 -0.24108061 0.17718516 0.04025443 0.13991101
-0.09843217 -0.25401995 -0.18004715 0.12751201 0.28601113 0.08063765 0.24596992 0.37828714
-0.12841877 0.042768233 0.23745055 0.43552813 0.205604 -0.09358479 0.058257535 0.040738195
0.0042865733 -0.21716861 0.10167825 -0.1831101 -0.12363057 -0.0035547744 0.027542768 0.040606383
-0.0307669 -0.162964 -0.118302226 -0.1776404 0.32279158 0.25459495 -0.048887845 -0.17626424
-0.1172242 0.39246833 -0.06089677 0.05590738 -0.12073736 -0.27795246 0.1003383 0.015971845
-0.06052659 -0.17916575 -0.29668158 0.27523792 -0.0407531 -0.097451285 -0.27936062 -0.004900103
0.24161963 -0.059950203 0.04861457 0.067742586 0.2630435 0.05322663 -0.3391987 -0.1894984
-0.07536363 0.13965878 0.30055767 -0.16265255 -0.18924761 0.14714564 -0.0032943499 -0.13987002
-0.14735128 -0.11704312 -0.16731761 -0.2837318 -0.050456233 -0.32192406 -0.15344298 -0.08284764
00000000: 076c a73e 6364 203e e5a6 5c3d 0865 4dbe
00000010: 44ef e03d 68b8 123e a146 2d3e 5384 74bd
00000020: 74c0 883d b7e3 3ebe 21c1 133d bed6 6abf
00000030: 15dd e43c 4c00 7b3e 9f7f c83d 6be6 d83e
00000040: f412 8c3e bf50 f83e c3be f8bd dff7 d33c
00000050: 083a 503d 6575 dbbd e0b0 80bd 6b6f 7e3e
00000060: 6667 c73c 350c 6dbf 4c00 6abf 316f a43e
00000070: 1be5 01bc 40be 4dbf f687 813d c410 e1bd
00000080: 6a9c 5e3e 74e6 dbbe d34c 613e e6c0 84bd
00000090: 8a9b debe 2774 823d 6e07 533d 66e4 3fbf
000000a0: 49e0 f63d 7d0d 66bf 6bea fe3d 1130 463d
000000b0: 348b 4c3d 0acc 06c0 66ce fcbd 08be 673e
000000c0: 1333 90bf 83cd 1bbe 7b30 7ebf 2f7f 16bd
000000d0: ca6d 073d 7009 503e 8bbf 143c a45c 103f
000000e0: e6db 94bd eb2e a8bd 8d56 48be 0477 71be
000000f0: b634 db3d a20f 45be 72da 563e 7903 163d
00000100: 896f f53d 3790 be3d 0244 a33d 577f d63d
00000110: 7bc3 bebe b15c a0be 0762 423e 73ac 73bd
00000120: c3c2 6b3d e1e8 013c d60b 7bbe 0de1 a0bb
00000130: 2095 333e 127c 82bf 1a92 613e 6f1e 7abe
00000140: f741 14be c05d 4a3e daa2 b8bd 6dde 573d
00000150: 097a acba 379f 7fbd 8754 873d 827a 82be
00000160: 54d3 40bd 1d36 5c3f ea18 f33d 2ed5 b4bf
00000170: cf00 b5bd 49b8 8d3d e755 903e 2822 fe3d
00000180: c95a 14ba 7f33 26be e87e 053d 1e72 9e3b
00000190: f831 54bf 2716 69be 8fc9 063e ee0f 833d
000001a0: 149b b93e ba25 0a3d 21b7 493e 84d4 42be
000001b0: 9864 2fbd 02fe c53d 1ad2 a4be 9250 1a3f
000001c0: f3d9 2ebe 0e4d 91be 98ca ea3d 4c34 4cbd
000001d0: afc1 7cbe 7c96 fbbc a6e9 413d 3250 0f3e
000001e0: fabb 10be ea1c 92bb 86e3 edbe 78e8 0abe
000001f0: d951 153d 4557 dabd 5ab4 183e 5de9 363e
00000200: b228 45be a858 74be ad33 433e 8013 a33d
00000210: 8d56 cc3d ff72 463d fd7f 173e cadd 04bf
00000220: 1792 cfbd cbd4 b43c 186d 28be d498 843e
00000230: 18d3 893c 814c 7a3a 0a0f bcbc 8b24 873e
00000240: f449 b53d 437d 083f 260a bdbc c4dd c23e
00000250: 50bc fd3d 2a1e 2c3e 793e acbe ff4c 2d3e
00000260: 9695 c53c 0db6 293e 0a7e e73d c917 c73e
00000270: 5d88 043f e9f2 873e 38ad 3fbe 4546 f0bd
00000280: 4c7a e3bd 74b5 a93d c1f3 67bd ab52 323e
00000290: f305 5f3d 64ad 25be bfe2 9dbc 57ed a9bd
000002a0: a790 9e3c afd7 c53d 87cf 293e 1d09 bcbb
000002b0: 7b58 40be a059 db3d 1d7c a1be fb5a 573e
000002c0: 4c3a 233e bda3 793c 76ad 423e 2371 86bd
000002d0: d6dd 76be 0770 353e d4e1 243d d544 0f3e
000002e0: ce96 c9bd e70e 82be 485e 38be 8292 023e
000002f0: 0d70 923e 5a25 a53d 8adf 7b3e daae c13e
00000300: 3680 03be be2d 2f3d 3d26 733e 8bfd de3e
00000310: db89 523e 62a9 bfbd 749f 6e3d 18dd 263d
00000320: 6276 8c3b 7361 5ebe b03c d03d 3781 3bbe
00000330: 0632 fdbd 38f7 68bb 5fa1 e13c e152 263d
00000340: de0a fcbc 09e0 26be 7048 f2bd 5de7 35be
00000350: f044 a53e 455a 823e 9f3e 48bd 9d7e 34be
00000360: 3e13 f0bd 9cf1 c83e e46e 79bd 23ff 643d
00000370: 2645 f7bd c94f 8ebe 2b7e cd3d 63d7 823c
00000380: bbea 77bd 3a77 37be a6e6 97be fceb 8c3e
00000390: b9ec 26bd 8a94 c7bd 5b08 8fbe 0b91 a0bb
000003a0: 236b 773e 588e 75bd 1220 473d a0bc 8a3d
000003b0: a3ad 863e 2b04 5a3d 74ab adbe de0b 42be
000003c0: 3f58 9abd b602 0f3e b2e2 993e 648e 26be
000003d0: 20ca 41be 59ad 163e 05e6 57bb 163a 0fbe
000003e0: 41e3 16be 4eb4 efbd 4f55 2bbe 4b45 91be
000003f0: 32ab 4ebd 3bd3 a4be 2820 1dbe 06ac a9bd

layer2.bias f4 [128]
-0.016458312 -0.21798639 0.021210639 -0.093793534 0.14421098 -0.24027866 0.12035925 0.035663705
0.09976542 0.0361553 0.059031114 0.12458676 0.2185294 -0.063752025 0.166954 -0.20905213
0.036966186 -0.03021849 0.12354664 -0.10783123 -0.042760473 -0.49822244 0.22920278 0.14667384
0.2196933 -0.056497455 0.09132246 0.009791492 0.08459341 0.24742343 0.0022354631 -0.31435457
0.046210535 0.025832986 0.10218988 -0.016491612 0.11739285 0.022192843 0.22945951 0.07920988
0.0048861452 0.25560758 0.024338068 -0.094469495 0.14283748 0.04018739 0.04741561 0.06515314
0.08474093 -0.049039565 -0.0001403166 0.0012518744 0.33829218 0.20446657 -0.022979142 0.1549772
0.13864006 0.03900046 0.13644145 0.1556479 0.10184803 0.07412207 0.19285446 0.122191474
0.102723695 0.23958692 0.19593547 0.09590534 0.074308 -0.08923986 0.053965837 0.009066801
0.08376799 0.1765003 0.014132753 0.22310811 -0.093849935 0.13940357 0.05735208 0.13614051
0.10045958 0.019622784 0.06976247 0.17568614 0.19208542 0.09681486 0.07034452 -0.030287093
0.20841685 0.12469939 -0.12143888 0.00040201086 0.15797356 0.17169356 0.047402084 -0.07212307
0.0046422584 0.105911605 0.02983751 -0.012028958 -0.11078606 0.012220852 -0.069066204 0.02588253
0.21852832 0.04769739 0.13096659 -0.021363499 0.064742364 0.30590624 0.028893784 0.23383416
0.12746702 0.053460468 -0.019277003 0.053693116 0.07216867 -0.0002271589 0.13944495 0.22651406
-0.032585885 0.14889656 -0.042779453 -0.08037993 0.33407053 -0.052107252 0.08347021 -0.020053387
00000000: 95d3 86bc d337 5fbe efc1 ad3c d316 c0bd
00000010: 0bac 133e 9c0b 76be e97e f63d 1b14 123d
00000020: d051 cc3d 9417 143d 9cca 713d 5827 ff3d
00000030: 2cc6 5f3e 6c90 82bd fdf5 2a3e c311 56be
00000040: db69 173d c48c f7bc 0506 fd3d 9fd6 dcbd
00000050: 9b25 2fbd 0317 ffbe 22b4 6a3e ab31 163e
00000060: 48f7 603e e069 67bd 4507 bb3d 7e6c 203c
00000070: 4f3f ad3d 915c 7d3e d980 123b 15f3 a0be
00000080: 4247 3d3d b39f d33c ee48 d13d 6b19 87bc
00000090: aa6b f03d c4cd b53c 6ff7 6a3e ca38 a23d
000000a0: f51b a03b ffde 823e a160 c73c 3979 c1bd
000000b0: fd43 123e 889b 243d df36 423d 026f 853d
000000c0: a78c ad3d b6dd 48bd f321 13b9 ef15 a43a
000000d0: a234 ad3e af5f 513e c13e bcbc 58b2 1e3e
000000e0: a9f7 0d3e f2be 1f3d 4fb7 0b3e 2a62 1f3e
000000f0: b395 d03d 50cd 973d a47b 453e 863f fa3d
00000100: cd60 d23d 4656 753e 4fa3 483e 056a c43d
00000110: cb2e 983d 63c3 b6bd 480b 5d3d eb8c 143c
00000120: 8d8e ab3d 7fbc 343e 108d 673c 7476 643e
00000130: 6534 c0bd cfbf 0e3e 04ea 6a3d 6b68 0b3e
00000140: c1bd cd3d f6bf a03c a0df 8e3d 11e7 333e
00000150: 0ab2 443e df46 c63d ca10 903d a31c f8bc
00000160: 3a6b 553e 6562 ff3d f3b4 f8bd fcc4 d239
00000170: d2c3 213e 70d0 2f3e b028 423d 43b5 93bd
00000180: 161e 983b 2fe8 d83d cb6d f43c 1b15 45bc
00000190: cde3 e2bd f839 483c 9572 8dbd 9907 d43c
000001a0: e3c5 5f3e 575e 433d 1b1c 063e 8102 afbc
000001b0: a597 843d be9f 9c3e a8b2 ec3c 3972 6f3e
000001c0: b786 023e 5df9 5a3d ceea 9dbc 50ed 5b3d
000001d0: 2bcd 933d 8131 6eb9 a8ca 0e3e 4df3 673e
000001e0: c778 05bd 5778 183e 8239 2fbd 3c9e a4bd
000001f0: 4b0b ab3e 6a6e 55bd 6ef2 aa3d 0047 a4bc

value_function.weight f4 [1, 128]
0.928793 -1.2489878 0.77230084 1.362881 -0.2592896 -1.4108549 1.0698591 0.4994945
-0.1636708 -0.16401847 1.137761 1.0479885 -0.2902554 -0.5757485 -0.14154357 -0.8697709
1.8449999 1.1653388 -0.27351126 2.3891776 -0.047608763 -2.0170763 -0.24790609 1.2735245
-0.18622388 2.3025107 -0.18935291 0.51332057 3.7106526 -0.52650815 1.3254594 -1.2462615
-0.32251546 -0.12177457 1.4279684 0.048063044 -0.07131237 -0.1665591 -0.2156777 0.86667407
2.1933663 -0.29750752 -0.077458195 0.037076753 -0.22874863 0.62347555 -0.13316223 0.5526147
-0.18126942 0.71135443 0.5940729 0.0031283665 -0.44243914 -0.26184398 0.64948124 -0.1728299
-0.20265797 0.058433082 -0.25364715 -0.18450283 -0.11775311 -0.33756807 -0.21949854 0.062108196
-0.26001346 -0.3471411 -0.42130598 0.25038046 0.88475305 -0.6235036 1.2607641 0.04705542
-0.18541186 -0.20740905 1.0607721 -0.44668648 1.4611757 -0.21542636 -0.22039175 1.9104509
0.741695 -0.09201681 0.008815045 -0.19423561 -0.2041655 -0.15797348 -0.12164782 -0.13308911
-0.27605367 -0.22383487 -1.1459477 0.8197481 -0.18981612 -0.17424981 -0.13800769 1.358579
0.6436185 -0.2742521 -0.103809215 -1.0669501 1.56981 1.0975947 0.10888212 -0.0741853
-0.18409315 -0.26760373 1.1799452 -0.10650008 -0.22538665 -0.34553456 -0.20295426 -0.2810723
1.4681349 0.4324007 1.3129698 -0.071636975 1.3778142 0.07333684 -0.1891826 -0.20257087
1.782837 1.4243358 0.66984993 0.8937025 -0.39115474 0.5166328 0.5505701 0.91351044
00000000: 61c5 6d3f d5de 9fbf 82b5 453f e272 ae3f
00000010: 9bc1 84be e596 b4bf 25f1 883f bebd ff3e
00000020: 5199 27be 75f4 27be 27a2 913f 7d24 863f
00000030: 5b9c 94be 4164 13bf ccf0 10be 4ea9 5ebf
00000040: f528 ec3f d229 953f ab09 8cbe 49e8 1840
00000050: 6801 43bd c717 01c0 18db 7dbe da02 a33f
00000060: 79b1 3ebe 565c 1340 bbe5 41be fa68 033f
00000070: 557b 6d40 3dc9 06bf a7a8 a93f 7f85 9fbf
00000080: bf20 a5be f264 f9bd abc7 b63f c1dd 443d
00000090: 380c 92bd 788e 2abe 9dda 5cbe 5ade 5d3f
000000a0: 1d60 0c40 e852 98be 67a2 9ebd cbdd 173d
000000b0: 153d 6abe 189c 1f3f ae5b 08be 2878 0d3f
000000c0: b19e 39be 531b 363f 2915 183f 4805 4d3b
000000d0: 6287 e2be 6a10 86be 6744 263f 52fa 30be
000000e0: 9285 4fbe 8757 6f3d 0ade 81be 4fee 3cbe
000000f0: 8b28 f1bd b9d5 acbe 3ac4 60be 2a65 7e3d
00000100: 7c20 85be 7abc b1be 6bb5 d7be de31 803e
00000110: 2d7f 623f ef9d 1fbf b860 a13f 2fbd 403d
00000120: 9bdc 3dbe 0a63 54be 61c7 873f 17b4 e4be
00000130: ce07 bb3f ba98 5cbe 60ae 61be a889 f43f
00000140: b9df 3d3f 4f73 bcbd fa6c 103c b3e5 46be
00000150: c310 51be cdc3 21be 7e22 f9bd 8348 08be
00000160: e856 8dbe f834 65be 6aae 92bf 03db 513f
00000170: 285f 42be 8b6e 32be e351 0dbe ebe5 ad3f
00000180: 2fc4 243f c56a 8cbe ed99 d4bd d291 88bf
00000190: 89ef c83f fc7d 8c3f 97fd de3d 76ee 97bd
000001a0: ea82 3cbe 5b03 89be 7208 973f b71c dabd
000001b0: c2cb 66be e8e9 b0be 3ed3 4fbe b5e8 8fbe
000001c0: d8eb bb3f a063 dd3e 650f a83f 68b6 92bd
000001d0: 375c b03f a031 963d 15b9 41be bd6e 4fbe
000001e0: 0134 e43f a350 b63f 497b 2b3f b0c9 643f
000001f0: 6f45 c8be 0c42 043f 29f2 0c3f d2db 693f

advantage.weight f4 [3, 128]
0.037841607 0.15353525 0.15274233 -0.31366205 0.037888967 -0.14895885 0.04780606 0.017752822
0.059482504 -0.06710413 -0.011072659 0.10998259 -0.034643445 -0.02950464 0.032382708 0.11147089
-0.1262217 0.010935382 0.02345425 -0.21089777 -0.005996822 0.07998512 0.042411473 0.077761866
0.033101022 -0.06730492 0.03220623 0.06772785 -0.0751505 0.012995477 -0.16122572 0.038023125
0.011392018 -0.051453818 -0.072610304 -0.026377661 0.07405846 0.029378397 -0.05428848 -0.03960087
-0.013239581 0.02688516 -0.054633256 -0.07115076 -0.014849531 -0.24175689 0.074342884 -0.051050607
-0.02556325 0.12504141 -0.04630597 -0.01860559 -0.057488725 0.036689162 0.16295698 -0.007075508
-0.033462767 -0.07968328 -0.048831895 -0.072518244 0.04194776 0.008747985 -0.11212948 -0.28947753
0.06296683 -0.03816376 -0.013752776 -0.2658219 -0.0049224338 0.20216571 0.10724263 -0.022755304
-0.06551862 0.040266834 -0.14926787 0.0017283688 0.07409375 -0.15116315 -0.07812821 -0.03147436
-0.01732457 -0.0178942 0.015578113 -0.06805604 -0.054376192 0.047556687 0.07350559 -0.05924624
0.07114748 0.011184678 0.06724125 -0.068702206 -0.10688432 0.035051644 -0.017431758 0.16362211
-0.029439997 0.061303385 -0.04768958 -0.1467183 0.29740748 0.1874906 0.025154337 0.062207453
0.14834309 0.021164797 -0.011124566 -0.07892642 0.028823415 0.06993168 0.040093716 -0.046781056
-0.12048429 -0.070308104 -0.10649845 0.03817112 0.26728898 -0.04834228 0.06539521 0.11239152
-0.023068042 0.050486255 0.07572338 -0.0460358 -0.039648492 0.0011195245 0.06231601 0.09796035
0.07110717 0.0478252 -0.008826319 0.060103226 0.06162584 0.00219725 0.020017449 0.062211346
-0.064458594 0.011319953 0.059099525 0.037913274 0.0031950178 -0.06511775 0.058272295 -0.044777457
0.031439025 0.032520205 -0.060639326 0.1431152 -0.059504386 -0.03649723 0.06605072 -0.042438917
-0.020697631 0.1583042 0.051803112 0.054824382 0.18208632 -0.025086345 0.02379521 0.041722514
-0.05550931 0.013321247 0.07415982 -0.01598236 0.061277736 -0.029725756 -0.06066078 0.04913355
0.13628516 -0.04329449 0.033851374 0.0057823323 0.0196937 0.083484985 -0.062804125 -0.04848474
-0.075377926 -0.046901014 0.011908467 0.020774443 0.021025656 -0.032767143 0.007665885 -0.046331365
0.07842977 0.04436054 -0.02500246 0.06211209 0.051009495 0.07795188 -0.049703 -0.0810076
-0.07627796 0.0037091724 -0.034114134 -0.011879279 0.0046565337 0.027496291 0.04135312 0.0041953875
-0.035967648 -0.05053733 0.054978248 -0.05097808 0.03440544 0.033180922 -0.03454878 -0.0057426724
0.07777068 -0.008345858 -0.05468982 0.011349053 0.019625854 0.05100019 0.054968454 -0.061523978
-0.01639024 -0.0023836954 -0.045920487 0.09280646 0.09938421 0.06721366 0.05464896 -0.017988572
-0.034509618 -0.047611162 -0.044467725 -0.04181794 0.101457074 -0.046063095 0.02809469 0.088492334
0.053349715 0.059966303 -0.006374018 0.032683406 -0.04699453 0.013932634 0.07994757 0.03948093
-0.05478763 -0.00516501 0.07325638 0.031277087 0.102973714 -0.048758056 0.060463 0.040522836
0.01101306 0.05825602 -0.033387635 0.02632007 -0.060304854 -0.04071617 -0.058159214 0.044587392
00000000: cdff 1a3d 5838 1d3e 7c68 1c3e 5098 a0be
00000010: 7631 1b3d ab88 18be 4ad0 433d 5e6e 913c
00000020: eda3 733d e46d 89bd 196a 35bc 8d3e e13d
00000030: 49e6 0dbd b7b3 f1bc bba3 043d da4a e43d
00000040: 4340 01be 512a 333c 2123 c03c 96f5 57be
00000050: fd80 c4bb 3dcf a33d a7b7 2d3d 9d41 9f3d
00000060: f094 073d 29d7 89bd aeea 033d e6b4 8a3d
00000070: 81e8 99bd fbea 543c 5b18 25be 23be 1b3d
00000080: 96a5 3a3c 3dc1 52bd b6b4 94bd f715 d8bc
00000090: f6ab 973d f7aa f03c 995d 5ebd 8634 22bd
000000a0: d4ea 58bc 443e dc3c 1fc7 5fbd 7db7 91bd
000000b0: 734b 73bc 1e8f 77be 1541 983d 711a 51bd
000000c0: 056a d1bc db0a 003e 54ab 3dbd c06a 98bc
000000d0: 4c79 6bbd 6047 163d 32de 263e aad9 e7bb
000000e0: 4110 09bd fd30 a3bd f403 48bd 7284 94bd
000000f0: 6ad1 2b3d b553 0f3c 24a4 e5bd 6636 94be
00000100: c1f4 803d 9a51 1cbd 5353 61bc cf19 88be
00000110: 5e4c a1bb 8704 4f3e 06a2 db3d 5569 babc
00000120: a02e 86bd d6ee 243d add9 18be 6f8a e23a
00000130: 77be 973d 83ca 1abe af01 a0bd 42eb 00bd
00000140: 42ec 8dbc db96 92bc 573b 7f3c f760 8bbd
00000150: 92b9 5ebd cdca 423d 198a 963d 2fac 72bd
00000160: c5b5 913d f13f 373c c8b5 893d beb3 8cbd
00000170: 2be6 dabd 5092 0f3d 0ccd 8ebc 8e8c 273e
00000180: 262c f1bc 4219 7b3d 2656 43bd 523d 16be
00000190: cb45 983e 89fd 3f3e 7810 ce3c 3ecd 7e3d
000001a0: 40e7 173e cc61 ad3c d043 36bc 2da4 a1bd
000001b0: 151f ec3c 5738 8f3d 4f39 243d 7e9d 3fbd
000001c0: 78c0 f6bd b2fd 8fbd dc1b dabd 5259 1c3d
000001d0: 1ada 883e 8e02 46bd eded 853d 862d e63d
000001e0: 31f9 bcbc adca 4e3d dc14 9b3d 0990 3cbd
000001f0: 7566 22bd 02bd 923a 133f 7f3d 709f c83d
00000200: a3a0 913d 5be4 433d 449c 10bc cd2e 763d
00000210: 606b 7c3d bdff 0f3b a2fb a33c 53d1 7e3d
00000220: de02 84bd 5377 393c 5812 723d f34a 1b3d
00000230: 8163 513b 745c 85bd eeae 6e3d 9168 37bd
00000240: 35c6 003d e833 053d f160 78bd ca8c 123e
00000250: dfba 73bd 1f7e 15bd 9a45 873d 6ed4 2dbd
00000260: 148e a9bc 7f1a 223e 802f 543d 888f 603d
00000270: d674 3a3e e181 cdbc 2cee c23c 3ae5 2a3d
00000280: bb5d 63bd 5c41 5a3c 1be1 973d 70ed 82bc
00000290: 5dfe 7a3d 6e83 f3bc 7077 78bd 4340 493d
000002a0: 568e 0b3e 9055 31bd bda7 0a3d b879 bd3b
000002b0: af54 a13c 2dfa aa3d 739f 80bd ef97 46bd
000002c0: be5f 9abd 471b 40bd bb1b 433c 2a2f aa3c
000002d0: ff3d ac3c d736 06bd 1b32 fb3b f5c5 3dbd
000002e0: ca9f a03d 66b3 353d f6d1 ccbc 3f69 7e3d
000002f0: 55ef 503d 3ca5 9f3d 5f95 4bbd 50e7 a5bd
00000300: 9e37 9cbd 9615 733b 43bb 0bbd 4fa1 42bc
00000310: d695 983b e73f e13c e461 293d 7679 893b
00000320: d052 13bd 3b00 4fbd df30 613d 64ce 50bd
00000330: b8ec 0c3d b8e8 073d 0683 0dbd 072d bcbb
00000340: 3c46 9f3d 11bd 08bc 6f02 60bd 61f1 393c
00000350: 66c6 a03c 93e5 503d 9a26 613d 9100 7cbd
00000360: d344 86bc c637 1cbb 1f17 3cbd 5011 be3d
00000370: f389 cb3d 51a7 893d 96d7 5f3d c55c 93bc
00000380: f559 0dbd ec03 43bd ca23 36bd 4a49 2bbd
00000390: bac8 cf3d a8ac 3cbd d626 e63c 783b b53d
000003a0: 3b85 5a3d 3a9f 753d 23dd d0bb 09df 053d
000003b0: 567d 40bd b445 643c 8dbb a33d c1b6 213d
000003c0: fe68 60bd 3f3f a9bb 7107 963d 671c 003d
000003d0: e2e3 d23d 87b6 47bd 0da8 773d 46fb 253d
000003e0: 1f70 343c dd9d 6e3d 79c1 08bd 309d d73c
000003f0: 3902 77bd 00c6 26bd 5b38 6ebd 45a1 363d

advantage.bias f4 [3]
-0.015411121 -0.073912926 -0.017377764
00000000: ed7e 7cbc a95f 97bd d05b 8ebc
