Weights/cartpole_model_weights3.pth (torch, 19304 bytes, 5 tensors)

layer1.weight f4 [512, 4]
0	0x3d97ad86	0.07406144
1	0xbe20be0a	-0.15697494
2	0xc0bf30bd	-5.9746995
3	0xbf6b1702	-0.9183198
4	0xbcc80735	-0.0244175
5	0x3c86a268	0.016434863
6	0x409064c5	4.512301
7	0x3f132fff	0.5749511
8	0xbd0cfedf	-0.03442275
9	0x3d1d3d52	0.038388558
10	0xc0635e90	-3.5526466
11	0xbe9d518d	-0.3072628
12	0xbf6aae14	-0.9167187
13	0xbf2cd65a	-0.67514575
14	0xbdae1bbd	-0.085013844
15	0x3d5a9655	0.053366024
16	0x3f325fa8	0.6967721
17	0x3ec2b876	0.38031358
18	0x3e0b908e	0.13629362
19	0xbeb0b0ae	-0.34509796
20	0x3ea95d99	0.33079222
21	0x3f900c7d	1.1253811
22	0x402b35f2	2.6751676
23	0x3f3b4262	0.7314817
24	0x3f1f20e4	0.6215956
25	0x3f32e056	0.6987356
26	0xc00af00c	-2.1709013
27	0xbf5dc79d	-0.8663271
28	0xbe2a9423	-0.16658072
29	0x3e8760b9	0.2644098
30	0x3f184c96	0.5949186
31	0x3f385875	0.72009975
32	0xbf852507	-1.0401925
33	0xbf447430	-0.7673979
34	0xbef74112	-0.48291832
35	0xbee357d9	-0.4440296
36	0xbeb8ad9c	-0.36069953
37	0x3ec8577d	0.39129248
38	0x3f04d973	0.518943
39	0x3e6ff206	0.23432168
40	0x3ca35357	0.0199372
41	0xbde00327	-0.10938101
42	0xc06674ad	-3.6008713
43	0xbf027c17	-0.50970596
44	0xbe62bfb3	-0.2214344
45	0xbd44391e	-0.047906034
46	0x3fae3766	1.3610656
47	0x3f1c5f97	0.6108336
48	0xbdba6ce8	-0.091028035
49	0x3e875411	0.26431325
50	0x3fb2dcc8	1.3973627
51	0x3f4d8b4c	0.80290675
52	0x3e81f2e4	0.25380623
53	0xbc201627	-0.0097709065
54	0xbe7a59d1	-0.24448325
55	0xbf16d296	-0.5891508
56	0xbe87b319	-0.26503828
57	0xbf654d73	-0.89571303
58	0xbf3443be	-0.70415866
59	0x3a970379	0.0011521421
60	0x3caf19e2	0.021374647
61	0x3e22203f	0.15832613
62	0xbe56d2a3	-0.20978789
63	0x3e01e41d	0.12684675
64	0x3d5bc0da	0.053650714
65	0xbe99361b	-0.29924092
66	0xbfa97fa1	-1.3242074
67	0xbef81526	-0.48453635
68	0x3e724f16	0.23662981
69	0x3ed3f1f7	0.41395542
70	0xbe019da5	-0.12657793
71	0x3db51ad0	0.08843005
72	0x3d2753ae	0.040851288
73	0x3dbd015f	0.09228777
74	0x4095dcfb	4.683225
75	0x3f303ccd	0.68842775
76	0x3c189c02	0.009314539
77	0xbd82376f	-0.06358229
78	0xc06808de	-3.6255412
79	0xbf04b5b3	-0.5183975
80	0xbee400c5	-0.44531837
81	0xbed86757	-0.42266342
82	0xc03c29fe	-2.940063
83	0xbf3fbf7f	-0.74901575
84	0xbc898b85	-0.01679016
85	0xbc4b8ace	-0.01242323
86	0xc05d2b20	-3.4557571
87	0xbeb85794	-0.36004317
88	0x3e587c4c	0.21141165
89	0x3d1eb70c	0.038748786
90	0x3f8cfa38	1.1013861
91	0x3f14c522	0.581133
92	0x3fa3702a	1.2768605
93	0x3ea548d4	0.32282126
94	0xbe9783c1	-0.29592708
95	0xbde4b2f5	-0.11166946
96	0xbc173ad3	-0.009230333
97	0x3c1eb7ee	0.009687407
98	0xc08618b4	-4.1905155
99	0xbefce631	-0.49394372
100	0x3e631398	0.22175443
101	0x3e919df3	0.28440818
102	0xbcf5d673	-0.030009484
103	0xbba8f199	-0.005155754
104	0xbf94eec2	-1.1635363
105	0xbf276834	-0.65393376
106	0xbf003a94	-0.50089383
107	0xbe9954bf	-0.2994747
108	0xbca83ed1	-0.020537766
109	0x3d32bf64	0.043639556
110	0x406c89da	3.6959138
111	0x3ee7cb7d	0.45272437
112	0xbeb78f61	-0.35851577
113	0x3e947d14	0.29001677
114	0x3fe1bdcf	1.763605
115	0xbd2007ff	-0.039070126
116	0xbd140112	-0.036133833
117	0x3e3a2084	0.18176466
118	0x3fabcda7	1.3422135
119	0x3ed5cb51	0.4175668
120	0x3b1e0b08	0.0024115462
121	0x3e9c54a2	0.3053332
122	0x3f89a770	1.0754223
123	0x3f3536ec	0.7078693
124	0xbeb3e5a5	-0.35136142
125	0xbf12ba9f	-0.5731601
126	0xc04909e3	-3.1412284
127	0xbf61105e	-0.879156
128	0xbf1f6596	-0.6226438
129	0xbf6cb06e	-0.9245671
130	0x3f800b86	1.0003517
131	0xbed971c5	-0.42469612
132	0xbf280308	-0.65629625
133	0xbf668bad	-0.9005688
134	0xbf58bba9	-0.84661347
135	0xbf3405f6	-0.70321596
136	0xbcce2a0e	-0.025166538
137	0x3d3b8b48	0.045787126
138	0x407ecc1a	3.9812074
139	0x3ef36449	0.4753745
140	0x3f50ab43	0.81511325
141	0x3edd80e6	0.43262404
142	0x3f0fbc95	0.5614713
143	0x3d99b96b	0.07506069
144	0xbf2ac701	-0.66709906
145	0xbf4dc956	-0.8038534
146	0x3f158094	0.5839932
147	0xbedbe1c5	-0.42945686
148	0xbf1c63c4	-0.6108973
149	0xbf7e417f	-0.9931869
150	0xc05556f1	-3.3334315
151	0xbf1e9229	-0.6194177
152	0xbf540daf	-0.8283338
153	0xbe44f06b	-0.19232337
154	0x3f6e07f5	0.9298089
155	0xbf151fe4	-0.58251786
156	0x3e8b18d5	0.27167383
157	0xbec5aecd	-0.38609925
158	0xbd0476ee	-0.032339983
159	0xbe65b14b	-0.22430913
160	0xbd3609c0	-0.044442892
161	0x3d0dee3d	0.03465103
162	0xc0962d11	-4.6930013
163	0xbf1572f6	-0.5837854
164	0xbc3c2325	-0.0114829885
165	0x3ccb2235	0.024796585
166	0x4062a4d5	3.5413105
167	0x3eccf44d	0.40030137
168	0xbf3b9567	-0.73274845
169	0xbe96e958	-0.29474902
170	0xc00752a2	-2.1144185
171	0xbf414444	-0.7549479
172	0x3f8fac97	1.1224545
173	0x3f833757	1.0251263
174	0x3f8cc2a7	1.0996903
175	0x3f259d32	0.64692986
176	0xbdba31ae	-0.09091507
177	0xbe6ff9b7	-0.23435102
178	0x3f00fc7a	0.5038525
179	0xbed028fd	-0.40656272
180	0x3ba5a333	0.0050548553
181	0xbcc7dc3a	-0.024397004
182	0x408316bb	4.0965247
183	0x3ec7a07a	0.3898962
184	0x3f5e8e0f	0.86935514
185	0x3f1390ad	0.5764263
186	0x3f1edb61	0.62053496
187	0xbcf6b1fa	-0.030114163
188	0xbf583361	-0.844534
189	0x3d812e80	0.06307697
190	0x40507898	3.2573605
191	0x3f1dd9c8	0.6166043
192	0xbf6fa58f	-0.93612
193	0xbf0b4dc2	-0.54415524
194	0xbe151fc6	-0.14562902
195	0xbe1a643e	-0.15077302
196	0xbe415a18	-0.18882024
197	0x3b097206	0.0020972504
198	0xbf9bc3d2	-1.2169135
199	0xbed5a1e5	-0.41725078
200	0xbcfa0ab4	-0.030522682
201	0x3d794e00	0.060865402
202	0xc0912576	-4.535823
203	0xbef33b42	-0.47506148
204	0xbea0bdd6	-0.31394833
205	0x3eb2351d	0.34806147
206	0xbd0fc033	-0.035095405
207	0x3ed12331	0.4084716
208	0x3ec8c542	0.39212996
209	0x3f10408f	0.5634851
210	0x3fbd8b37	1.480811
211	0x3edcc07e	0.4311561
212	0xbd47728b	-0.04869322
213	0x3de42264	0.11139372
214	0x3f9b167e	1.2116239
215	0x3f01d247	0.5071148
216	0xbf4cb0e9	-0.79957443
217	0xbf925a99	-1.1433898
218	0xc032aa9b	-2.791663
219	0xbeb8ab26	-0.36068076
220	0x3f02dd10	0.51118565
221	0x3f59901d	0.84985524
222	0x3eb15ee7	0.34642717
223	0x3e27ba10	0.16379571
224	0xbeda4a69	-0.42634895
225	0x3e1bf804	0.15231329
226	0xbe9eea12	-0.31037956
227	0xbe0cd0d2	-0.13751534
228	0xbeb82f75	-0.35973707
229	0x3e03c3c8	0.12867653
230	0x3fbc8b0b	1.4729933
231	0x3f33d4ef	0.70246786
232	0xbea1cf9b	-0.31603703
233	0x3e2ede64	0.17077023
234	0x3f9aea35	1.2102724
235	0xbe1f8d96	-0.15581354
236	0x3ef99535	0.48746648
237	0xbf2ba663	-0.6705076
238	0xbfc29987	-1.5203103
239	0xbe9d06af	-0.30669162
240	0x3e12ca7d	0.14335056
241	0x3ec6129d	0.38686076
242	0xbd0a39c6	-0.033746503
243	0x3dd08570	0.10181701
244	0x3e740da3	0.23833327
245	0xbef2351e	-0.4730615
246	0x3ecf85b7	0.40531704
247	0xbee70c16	-0.45126408
248	0x3c1fb60e	0.009747995
249	0xbd8a113f	-0.06741571
250	0xbe8cdfc4	-0.2751447
251	0x3d0f8152	0.03503544
252	0xbc43643b	-0.011925752
253	0x3aa4d998	0.0012577055
254	0xc0850a2b	-4.157491
255	0xbeffb2ca	-0.49941093

layer1.bias f4 [512]
0	0xbf678071	-0.9043036
1	0xbf38c689	-0.7217794
2	0xbf31a8e5	-0.6939834
3	0x3f0c897a	0.5489727
4	0x3f015261	0.50516325
5	0x3f28982e	0.6585721
6	0xbef7778b	-0.48333392
7	0x3f4fb097	0.8112883
8	0x3f129886	0.5726398
9	0x3f7d5905	0.9896396
10	0xbf4926ed	-0.7857502
11	0x3f8ac583	1.0841526
12	0x3f80d149	1.0063869
13	0x3f625866	0.88416135
14	0x3dd05da9	0.10174114
15	0x3f5fe1eb	0.874541
16	0x3f0971c0	0.53689194
17	0x3fa889d4	1.3167062
18	0xbf460c9e	-0.77363
19	0xbf33c0a0	-0.702158
20	0xbf3b821d	-0.7324541
21	0xbf349f96	-0.7055601
22	0x3f5ab4d7	0.8543219
23	0x3f2721dc	0.6528604
24	0xbf3767df	-0.7164287
25	0x3f89660c	1.0734267
26	0x3f2a36b0	0.66489697
27	0xbf449418	-0.76788473
28	0x3f5a6f96	0.85326517
29	0xbf13eebd	-0.5778616
30	0x3f504aa7	0.8136391
31	0xbf4e2b43	-0.8053476
32	0xbf8ec3e3	-1.115353
33	0xbf93377f	-1.1501311
34	0xbf5542e5	-0.833052
35	0x3f7aabc7	0.9791836
36	0xbfa4ca8d	-1.2874314
37	0x3efb4d56	0.4908244
38	0x3d8b1607	0.06791311
39	0x3f817440	1.0113602
40	0xbf42b47a	-0.76056635
41	0xbf3aa3a9	-0.72905976
42	0x3ce8e323	0.02842862
43	0xbf990057	-1.1953229
44	0x3f95626f	1.1670665
45	0xbf4ec95d	-0.80776006
46	0x3e664bb6	0.22489819
47	0xbf45ddfd	-0.7729185
48	0x3edfb7ce	0.4369492
49	0x3f377dcf	0.71676344
50	0xbf3a755f	-0.72835344
51	0x3f8f288a	1.1184247
52	0x3f1ee8ff	0.62074274
53	0x3f3f2630	0.74667645
54	0xbdca7f63	-0.09887578
55	0xbd217fb4	-0.039428428
56	0x3f845cc7	1.0340813
57	0x3f8109cb	1.0081114
58	0x3f5f4991	0.8722163
59	0x3eb51450	0.3536706
60	0x3f874b53	1.0569862
61	0x3f7c8eec	0.9865558
62	0x3f3682b0	0.71293163
63	0xbf2a9756	-0.6663717
64	0x3e828be9	0.25497368
65	0x3f8268bb	1.0188211
66	0x3f1b5147	0.60670894
67	0xbd1360ed	-0.035981108
68	0x3e5ae99f	0.21378182
69	0xbf344970	-0.70424557
70	0x3f80d7c3	1.0065845
71	0x3e51a358	0.20472467
72	0x3d315839	0.043297026
73	0x3f6ad939	0.91737705
74	0x3dc03646	0.09385352
75	0x3f271d1f	0.6527881
76	0xbf60f22b	-0.8786952
77	0x3f5b7405	0.85723907
78	0x3f937f50	1.1523228
79	0x3f61991c	0.8812425
80	0x3f7dfc80	0.9921341
81	0xbe6ede4e	-0.2332699
82	0xbf4f8acc	-0.8107116
83	0x3e3e493a	0.18582621
84	0xbd3f7146	-0.046738885
85	0x3f6bafc4	0.9206507
86	0xbf4bc648	-0.7959943
87	0x3f61d47f	0.8821487
88	0x3f848d7a	1.0355675
89	0xbea6ee91	-0.32603887
90	0x3f9a8223	1.2070965
91	0x3f90336f	1.1265696
92	0xbf1d24bc	-0.6138418
93	0x3f177568	0.5916352
94	0xbf207b37	-0.6268801
95	0xbf5b24cb	-0.85603017
96	0x3f179118	0.5920577
97	0x3e8139f9	0.25239542
98	0x3f483445	0.78204757
99	0x3ddcb85b	0.107773505
100	0xbf347047	-0.7048382
101	0x3e952c21	0.2913523
102	0x3f806269	1.0030032
103	0x3f889d73	1.067305
104	0x3f8c3812	1.0954611
105	0x3f378f5b	0.7170312
106	0x3f59118c	0.847924
107	0xbf708e06	-0.9396671
108	0x3f6ee144	0.9331248
109	0xbf442dc8	-0.76632357
110	0xbcf2b48a	-0.029627103
111	0xbf0877be	-0.5330771
112	0x3f8fd3e7	1.1236542
113	0x3f3dc966	0.74135435
114	0xbf480132	-0.78126824
115	0x3eecd5d4	0.46256888
116	0xbf40d7a5	-0.7532905
117	0xbf63d1ea	-0.8899218
118	0x3f71a6d8	0.9439521
119	0x3f180d37	0.59395164
120	0xbfa9cbbb	-1.3265299
121	0x3f63b06a	0.8894106
122	0xbf3c3595	-0.7351926
123	0xbf37cc14	-0.71795774
124	0x3f0d5e2c	0.5522182
125	0x3f4b17ed	0.7933338
126	0x3f367efa	0.712875
127	0x3f772782	0.9654466
128	0x3f7544f9	0.9580837
129	0xbf23556f	-0.63802236
130	0xbf304225	-0.6885093
131	0xbf8f9740	-1.1218033
132	0xbf81ce92	-1.0141165
133	0x3e33f2c9	0.17573084
134	0x3f80d276	1.0064228
135	0xbf3d57dd	-0.73962194
136	0xbec999a7	-0.3937504
137	0x3f77632a	0.9663569
138	0x3f359034	0.7092316
139	0x3f41aee0	0.75657463
140	0x3f072163	0.5278532
141	0x3f17372f	0.5906858
142	0x3f071059	0.5275932
143	0x3cbe2281	0.023209812
144	0xbeac17a6	-0.33611792
145	0xbf9f6025	-1.2451216
146	0x3f605804	0.876343
147	0x3ec486bb	0.3838404
148	0x3f22f4da	0.63654864
149	0xbf6663f7	-0.89996284
150	0xbfa6c4a0	-1.3028755
151	0x3e6aeaa9	0.22941078
152	0x3f4c1573	0.7972023
153	0xbede2612	-0.4338842
154	0x3f6a29ef	0.91470236
155	0xbf3c8f84	-0.7365649
156	0x3e92a91a	0.2864464
157	0x3f2e4418	0.6807265
158	0x3f32be05	0.69821197
159	0x3ef7603f	0.48315617
160	0xbf22584c	-0.6341598
161	0xbf42adda	-0.76046526
162	0x3e7167cf	0.23574756
163	0xbf7ee5ce	-0.99569404
164	0x3f885731	1.0651609
165	0xbf3b4a82	-0.73160565
166	0x3f892d37	1.0716923
167	0x3f4ec13a	0.8076359
168	0x3f7f775e	0.99791515
169	0x3e5194a0	0.20466852
170	0xbf32bcf0	-0.69819546
171	0xbf3e85d4	-0.74422956
172	0x3f871cdf	1.0555686
173	0xbef4c947	-0.47809812
174	0x3e38c48c	0.18043727
175	0xbf2290d0	-0.63502216
176	0xbf4b461b	-0.7940385
177	0xbf39dbba	-0.726009
178	0x3f869df7	1.0516957
179	0xbf596aec	-0.84928775
180	0x3f974180	1.1816864
181	0x3e6bd638	0.23030937
182	0xbf534bf9	-0.825378
183	0xbf63de83	-0.890114
184	0x3f48998a	0.7835928
185	0x3d92d208	0.071689665
186	0xbe94e57f	-0.29081342
187	0x3f6bd13a	0.9211613
188	0x3f96ad6a	1.1771672
189	0x3f5c7f89	0.86132103
190	0x3f95987a	1.1687157
191	0x3f0f7552	0.5603839
192	0x3e867c21	0.26266578
193	0xbf19b138	-0.6003604
194	0xbf44c470	-0.7686224
195	0xbfacba71	-1.3494397
196	0x3e9e967b	0.30974182
197	0x3f6d56ce	0.9271058
198	0xbe858580	-0.26078415
199	0x3e9f6716	0.31133336
200	0x3f432e99	0.7624298
201	0xbf5cfb1b	-0.86320657
202	0x3f383d4c	0.7196853
203	0x3f8927bc	1.0715251
204	0x3f8b0252	1.0860083
205	0x3f861732	1.0475829
206	0x3ee3f278	0.44520926
207	0x3f215444	0.63019204
208	0x3f792a83	0.9733049
209	0xbeff43cf	-0.4985642
210	0x3f1dfd27	0.61714405
211	0x3f928477	1.1446675
212	0x3f3980c4	0.72462106
213	0xbf39f9f4	-0.72647023
214	0x3f81aaa2	1.0130198
215	0x3ebfff67	0.37499544
216	0x3f68175e	0.90660655
217	0xbf0f51d6	-0.55984247
218	0x3e9ed0fe	0.31018823
219	0x3ea40aeb	0.3203958
220	0xbe97e555	-0.29667154
221	0xbdb39d3f	-0.08770227
222	0x3f8a87d5	1.0822703
223	0x3f6b932b	0.92021435
224	0x3f5bdb8b	0.8588187
225	0x3ee57f65	0.44823757
226	0xbf632f47	-0.88744015
227	0x3f7dea49	0.99185616
228	0xbef7d35c	-0.48403442
229	0xbda9b146	-0.08285765
230	0x3f1c0fcc	0.60961604
231	0x3f53a10e	0.82667625
232	0x3ea12816	0.31475896
233	0xbed094ae	-0.40738434
234	0xbf37c621	-0.71786696
235	0x3ed0d977	0.40790913
236	0x3efc8cff	0.4932632
237	0xbf158ac5	-0.5841487
238	0xbe98c1e6	-0.29835433
239	0x3f3bb9c8	0.73330355
240	0x3e5ec3c3	0.21754365
241	0x3dac2f29	0.084074326
242	0x3f55a6df	0.8345775
243	0x3e8f2389	0.279568
244	0x3f8914ef	1.0709513
245	0x3ecf555c	0.40494812
246	0x3f5237b1	0.8211623
247	0xbf41810f	-0.7558755
248	0x3f45ea51	0.77310663
249	0x3f52e4ad	0.8238018
250	0x3f68042d	0.9063137
251	0xbf4f1d31	-0.8090392
252	0xbf996db1	-1.19866
253	0xbf427a71	-0.7596808
254	0xbf2ee114	-0.6831219
255	0x3f87ff41	1.0624772

value_function.weight f4 [1, 512]
0	0xbfafe7e3	-1.3742641
1	0xc04dab1e	-3.2135692
2	0xc0986d3e	-4.763335
3	0x3ee37f02	0.44432837
4	0x3ee4b7d1	0.4467149
5	0xbfff3144	-1.993691
6	0xbf8d4e92	-1.1039603
7	0x3f206367	0.62651676
8	0x3f03cb86	0.5148243
9	0x3f0a3821	0.53991896
10	0xc073fea9	-3.8124182
11	0x3f3a5be9	0.72796494
12	0x3f4afa5f	0.79288286
13	0x3f3d4086	0.7392658
14	0x3f1799be	0.59218967
15	0x3f17d379	0.59307057
16	0x3f6159b2	0.8802749
17	0x3f37d5f0	0.7181082
18	0xc063594a	-3.5523248
19	0xc0828a2c	-4.0793667
20	0xbf998f2a	-1.1996815
21	0xc0926053	-4.5742583
22	0x3f1beec7	0.6091122
23	0x3f25a750	0.64708424
24	0xc05b218b	-3.4239223
25	0x3f2449c0	0.64175034
26	0x3f1635f1	0.5867606
27	0xc07b2d65	-3.9246457
28	0x3f358398	0.7090392
29	0x400ed0b2	2.2314878
30	0x3f59def4	0.85105824
31	0xbfe22443	-1.7667316
32	0xbfa89dda	-1.3173172
33	0xbfe26c03	-1.7689213
34	0xc07a4493	-3.9104354
35	0x3f2f43cd	0.6846283
36	0xbfafb672	-1.3727553
37	0xbfa9bfa0	-1.3261604
38	0x3d4ac7b5	0.04950686
39	0x3f0fa9e1	0.5611859
40	0xc0338189	-2.8047812
41	0xc0805f7b	-4.0116553
42	0xbf82f92f	-1.0232295
43	0xbfff2db8	-1.9935827
44	0x3f0b440f	0.54400724
45	0xc08b9683	-4.362123
46	0x3f2e21ee	0.6802052
47	0xc02188e5	-2.5239804
48	0x3eceb895	0.403752
49	0x3f230e34	0.6369355
50	0xc05a6bb6	-3.4128242
51	0x3f116609	0.5679632
52	0xbf897efd	-1.0741879
53	0x3f4b714f	0.7946977
54	0xbfa4ba8e	-1.2869432
55	0x3f657e1a	0.8964554
56	0x3f032a63	0.5123655
57	0x3f34608d	0.70459825
58	0x3f301fc3	0.68798465
59	0x3f7fb10b	0.9987952
60	0x3f261d5d	0.64888555
61	0x3f0ffe70	0.56247616
62	0x3f1581bd	0.5840109
63	0xc03cb1e7	-2.9483583
64	0x3f1bc79f	0.6085147
65	0x3f598368	0.84966135
66	0x3f33934f	0.7014665
67	0xbfa5c03b	-1.2949289
68	0xbfc6b4e7	-1.5523957
69	0xc06e8e3d	-3.7274315
70	0x3f0c1e22	0.5473348
71	0x3f0dfaa8	0.55460596
72	0xbf20c859	-0.62805706
73	0x3f0c0c0e	0.54705894
74	0x4025918f	2.5870092
75	0x3f124d7f	0.571495
76	0xbfa9c537	-1.326331
77	0x3f132690	0.57480717
78	0x3f653a1e	0.89541805
79	0x3f00ecb3	0.50361174
80	0x3f09df1e	0.53856075
81	0xbf6674a5	-0.90021735
82	0xc084cda1	-4.150101
83	0x3f808525	1.0040632
84	0xc0113899	-2.2690794
85	0x3f4e87eb	0.80676144
86	0xc05480ca	-3.3203607
87	0x3f0eb103	0.5573885
88	0x3f194ae7	0.59879917
89	0x3e23df43	0.16003136
90	0x3f15a8f2	0.58460915
91	0x3f324758	0.6964011
92	0xbf969aa6	-1.1765945
93	0x3efe6223	0.49684247
94	0xc032e603	-2.7952888
95	0xc0067a64	-2.1012201
96	0xbff41874	-1.9069963
97	0x3f5fc7b2	0.87414086
98	0x3eeb56c9	0.4596465
99	0x3f979f9c	1.1845584
100	0xc0525ffb	-3.2871082
101	0x3ed264b1	0.41092446
102	0x3f12f404	0.5740359
103	0x3f0e825e	0.55667675
104	0x3f4ed66f	0.8079595
105	0x3f0ab017	0.5417494
106	0x3f0cb0f6	0.5495752
107	0xbff3bab5	-1.9041353
108	0x3f0ef45d	0.5584162
109	0xc066ad3b	-3.6043231
110	0xbea26264	-0.3171569
111	0xbfd53530	-1.6656857
112	0x3f222936	0.6334413
113	0x3f486d0a	0.7829138
114	0xc00e8f07	-2.2274797
115	0x3f177702	0.59165967
116	0xc0207473	-2.5071075
117	0xbfa3982d	-1.2780815
118	0x3f37086f	0.71497244
119	0x3f1f8706	0.62315404
120	0xbf9851e3	-1.189999
121	0x3f0c8549	0.54890877
122	0xc077ebf7	-3.8737772
123	0xc0954d6a	-4.6657
124	0x3eaadeb0	0.33373022
125	0x3f20ee17	0.62863296
126	0xbfc38f22	-1.5278056
127	0x3f11bfec	0.56933475
128	0x3f0f754a	0.56038344
129	0xbff56015	-1.9169947
130	0xc07f215a	-3.9864106
131	0xbfb06c00	-1.3782959
132	0xbfa72678	-1.3058615
133	0x3ebb7e8c	0.36619985
134	0x3f33fa06	0.7030338
135	0xc086f9c3	-4.2179885
136	0xbff08f90	-1.8793812
137	0x3eb5654f	0.35428855
138	0x3f678759	0.904409
139	0x3f1fad39	0.6237369
140	0x3f0ae63b	0.54257554
141	0x3f8824ab	1.063619
142	0xbffe5b21	-1.987156
143	0xbeb9e6ec	-0.36308992
144	0xbf2c50d5	-0.6731084
145	0xbf930743	-1.1486591
146	0x3f24f34a	0.6443373
147	0x3f683c61	0.9071713
148	0x3f8eb2fe	1.1148374
149	0xc0753796	-3.8315177
150	0xbf769ee7	-0.96336216
151	0xbfc5f768	-1.5466127
152	0x3f2228ee	0.63343704
153	0xbff53360	-1.9156303
154	0x3f07c910	0.5304117
155	0xbf45aac8	-0.77213717
156	0xbf6c9793	-0.92418784
157	0x3f228e9b	0.6349885
158	0xbf97495c	-1.1819263
159	0x3ebd5d88	0.3698542
160	0xbfaa2674	-1.3292985
161	0xc02a09d1	-2.6568491
162	0x3f1d27e7	0.6138901
163	0x402da722	2.713326
164	0x3f0f13ba	0.55889475
165	0xc060f1f2	-3.5147672
166	0x3f0d8163	0.55275553
167	0x3ef52fb9	0.47887972
168	0x3f58da21	0.8470784
169	0x3f9cb5e2	1.2243006
170	0xc087e13a	-4.2462435
171	0xbfc0fef7	-1.5077809
172	0x3f199240	0.59988785
173	0xbf9b9292	-1.2154105
174	0xbfd4c870	-1.6623669
175	0xc03d8233	-2.9610717
176	0xbf7e4bea	-0.99334586
177	0xc07feeb8	-3.9989452
178	0x3f04a1e2	0.51809514
179	0xc07ca193	-3.9473617
180	0x3f0e9ee3	0.5571119
181	0xbf8b33a7	-1.0875138
182	0xc0065f47	-2.0995653
183	0xbf9fc337	-1.248145
184	0x3f21b221	0.6316243
185	0x3fa6016e	1.2969186
186	0xbf46289f	-0.7740573
187	0x3f000fb9	0.5002399
188	0x3f0dcebb	0.5539357
189	0x3f075376	0.52861726
190	0x3f107cef	0.56440634
191	0x3f19e5e4	0.6011641
192	0x3efca3c5	0.49343696
193	0xbfd8e380	-1.6944427
194	0xc0314882	-2.7700505
195	0xbfdbe66d	-1.7179695
196	0xbfc0b702	-1.505585
197	0x3f195c31	0.599063
198	0xbfc9443b	-1.5723947
199	0x3efcac80	0.49350357
200	0x3f5058a9	0.81385285
201	0xbf4342d6	-0.7627386
202	0x3f30c239	0.6904636
203	0x3f2c8e5d	0.6740473
204	0x3f16bf60	0.58885765
205	0x3f1234c9	0.57111794
206	0xbebbf77a	-0.36712247
207	0x3f3c2ab2	0.7350265
208	0x3f355b9d	0.70842916
209	0xc01b35ab	-2.4251506
210	0xc0089b2d	-2.1344712
211	0x3f6c8910	0.9239664
212	0xbfca5cc6	-1.5809562
213	0xc059681a	-3.3969789
214	0x3efd0d90	0.4942441
215	0x3f7ab091	0.9792567
216	0x3f1736b7	0.59067863
217	0x3fa87f1e	1.3163793
218	0x3f05c353	0.52251166
219	0x3f71ab30	0.94401836
220	0xbebce930	-0.36896658
221	0xbed4be64	-0.41551507
222	0x3f0cf660	0.5506344
223	0x3f16b94e	0.588765
224	0x3f08d1f7	0.5344538
225	0x3f3d4d42	0.7394601
226	0xbfe7a35e	-1.8096731
227	0x3f47c9fd	0.78042585
228	0xc030d743	-2.7631385
229	0xbf2d8a3f	-0.6778907
230	0x3edbd64b	0.4293693
231	0x3f13e407	0.5776982
232	0x3f5b1a07	0.8558659
233	0xc003d896	-2.0600944
234	0xbfed3bae	-1.8533838
235	0x3f58a42b	0.846255
236	0xbfa8cb31	-1.3187009
237	0x3fc4efb6	1.5385654
238	0xbf1f45f1	-0.622161
239	0x3ef3eed7	0.47643158
240	0xbf81946f	-1.0123423
241	0xbf6a8db0	-0.9162245
242	0x3f1cdda4	0.61275697
243	0x3f81967f	1.0124053
244	0x3f0d8e64	0.55295396
245	0x3f23fb79	0.6405559
246	0x3f1d1a16	0.6136793
247	0xc0701f31	-3.7519038
248	0x3f205602	0.6263124
249	0x3f152d90	0.5827265
250	0x3f2a9595	0.66634494
251	0xc0840033	-4.1250243
252	0xbfc39b8a	-1.5281842
253	0xc05d19b4	-3.4546938
254	0xc07879c1	-3.8824313
255	0x3f275132	0.6535827

advantage.weight f4 [2, 512]
0	0x403ad9ea	2.9195504
1	0xbfbde90b	-1.4836744
2	0xc04be080	-3.1855774
3	0x3daa5c5e	0.08318399
4	0x3daf1bec	0.085502476
5	0x3e791053	0.24322633
6	0x3e39e6ef	0.181545
7	0x3d430c29	0.04761902
8	0x3df6ade7	0.12044888
9	0x3d09d6a3	0.03365196
10	0xc0256179	-2.5840743
11	0x3d428442	0.047489412
12	0xbdcf51f3	-0.101230524
13	0xbc0cf291	-0.008602754
14	0x3b512ef0	0.0031918846
15	0x3d196010	0.037445128
16	0x3e8ed3c7	0.27895948
17	0xbe03a1d1	-0.12854697
18	0xbf368dd2	-0.7131015
19	0xbe6da8c1	-0.23208906
20	0xbd13f419	-0.03612146
21	0xc0589979	-3.3843672
22	0xbe03dd60	-0.12877417
23	0xbe1d8fde	-0.15386912
24	0x3f24094b	0.6407668
25	0xbdff9d9e	-0.12481235
26	0x3e2de438	0.1698159
27	0x4002e0bc	2.0449667
28	0xbe30760a	-0.17232528
29	0x3e1efc28	0.15525877
30	0x3ce86197	0.028366847
31	0xbe822ac5	-0.25423256
32	0xbdd1c102	-0.102418914
33	0xbee2e8ca	-0.4431823
34	0x402546a4	2.5824366
35	0xbe269a4a	-0.16269794
36	0x3d31d8d2	0.043419667
37	0x3e2348a7	0.15945683
38	0x3f09e2ab	0.5386149
39	0xbb7708f6	-0.003769455
40	0x3fbd25ee	1.47772
41	0x401f9771	2.4936182
42	0xbf659d93	-0.89693564
43	0x3f327e01	0.69723517
44	0xbcd206eb	-0.025638064
45	0x40225264	2.5362787
46	0xbebf8ed3	-0.37413654
47	0xbe319856	-0.17343268
48	0x3d7f1264	0.062273398
49	0xbca1e4bf	-0.019762395
50	0x3f91e7ff	1.1398925
51	0x3dd39879	0.10331816
52	0x3de690d0	0.112580895
53	0x3da0daa5	0.07854203
54	0x3e8c9ee3	0.2746497
55	0x3d5a8dde	0.05335795
56	0x3dc3415b	0.0953395
57	0xbe3e710a	-0.18597808
58	0xbdcfa8ed	-0.10139642
59	0xbc369b3b	-0.011145408
60	0xbe1da1e8	-0.15393794
61	0xbcf804eb	-0.030275783
62	0x3dca9d8e	0.098933324
63	0x3fc4e0d0	1.5381107
64	0x3e1d52ea	0.1536366
65	0xbe4d7565	-0.20064314
66	0x3df40573	0.11915102
67	0x3e9195bb	0.28434548
68	0xbe297962	-0.1655021
69	0x4043cedb	3.0595005
70	0xbcd18738	-0.025577173
71	0xbebe2435	-0.37137
72	0xbd7438c6	-0.059624456
73	0xbc31d1b1	-0.010853217
74	0xbf08d398	-0.53447866
75	0x3c0aacd0	0.008464053
76	0xc02ea1de	-2.7286296
77	0x3d88daf8	0.0668239
78	0x3cc65ed6	0.024215143
79	0xbd520233	-0.05127163
80	0x3cf59751	0.02997938
81	0xbf2a3a47	-0.66495174
82	0xbf9a7884	-1.2068028
83	0x3e333bd7	0.17503296
84	0x3e731ed3	0.23742227
85	0xbe4fe9af	-0.20303987
86	0xbfe5bef9	-1.7948905
87	0x3dc082a2	0.09399916
88	0x3c9a53fd	0.018838877
89	0x3de7b0d7	0.113130264
90	0x3da583ca	0.080817774
91	0xbdebe191	-0.11517633
92	0x3fb3a173	1.4033645
93	0x3e2a2fa6	0.16619739
94	0x3e347451	0.17622496
95	0xc0009f7e	-2.0097346
96	0xbdb399b1	-0.08769549
97	0xbef6a444	-0.481722
98	0x3c9f3ac8	0.019437209
99	0x3dfa1b20	0.12212205
100	0xbf3f1b07	-0.74650615
101	0xbe97fd42	-0.29685408
102	0x3cd75d1d	0.026289517
103	0x3d85cb29	0.0653289
104	0xbd5b7498	-0.05357799
105	0xbe25aeaa	-0.1617991
106	0xbd40250f	-0.04691034
107	0xbe13e724	-0.14443642
108	0x3d9b108f	0.07571518
109	0xc036d4c4	-2.8567362
110	0xbd5d86be	-0.05408358
111	0xbe9a2a6b	-0.30110487
112	0xbd6be2e7	-0.057589438
113	0x3e3487dd	0.17629953
114	0x401f4a33	2.4889038
115	0x3d100472	0.03516049
116	0xc064fa43	-3.5777748
117	0xc01b0cc5	-2.4226544
118	0x3c5d618f	0.013512029
119	0x3e0d1d92	0.13780811
120	0x3e0a6339	0.13514413
121	0x3c34b029	0.011028328
122	0x404bcee5	3.1845028
123	0x402e046a	2.7190194
124	0xbeaf510d	-0.34241524
125	0xbcaff70e	-0.02148011
126	0xbd8431f0	-0.06454837
127	0x3d0bc3e7	0.034122374
128	0xbb59f142	-0.0033255373
129	0xbf862998	-1.0481443
130	0xc0570f95	-3.360326
131	0xbe6728e2	-0.2257419
132	0xc0270f78	-2.6103191
133	0x3bf23309	0.007391338
134	0x3d7460f6	0.05966278
135	0xc05dfeaf	-3.4686697
136	0xbf02a720	-0.5103626
137	0x3ea32183	0.31861505
138	0x3dc5f38c	0.096655935
139	0xbdabd69e	-0.08390544
140	0x3cc6b3ce	0.02425566
141	0xbdbaae61	-0.091152914
142	0x3f184fdb	0.5949685
143	0xbe1d5c39	-0.15367211
144	0x3e4b1b10	0.19834542
145	0x3ede9d5f	0.4347944
146	0x3c2df629	0.010617771
147	0x3dbc69e1	0.09199882
148	0xbd8be789	-0.06831271
149	0x3fb4ac6e	1.4115121
150	0xbd0d2664	-0.03446044
151	0xbf5d1c27	-0.8637108
152	0x3e5f4a2b	0.21805637
153	0xbf37e96a	-0.71840537
154	0xbc244091	-0.010025159
155	0x3fef56c8	1.8698359
156	0x3ed4a6b2	0.41533428
157	0x3bdfcd31	0.0068298806
158	0x3da12acc	0.07869491
159	0x3dab2b16	0.08357827
160	0xbf4b4574	-0.7940285
161	0x3fee55af	1.8619899
162	0xbc98e5ef	-0.018664328
163	0x3d63dfb7	0.055633273
164	0x3dc6378d	0.09678564
165	0xc056fc5c	-3.3591528
166	0x3d4d1fd6	0.05007919
167	0x3e6d08e4	0.23147923
168	0xbe8b0f73	-0.27160224
169	0xbe764081	-0.24048044
170	0x402949a0	2.6451187
171	0x3fd55b2a	1.6668446
172	0xbd2c13c1	-0.042011026
173	0x3ec6c27e	0.3882026
174	0x3e937907	0.28803274
175	0xbf9f2aff	-1.2434996
176	0xc00fc026	-2.2461028
177	0xc050314b	-3.2530086
178	0x3ca3caee	0.019994225
179	0x3f96f216	1.1792629
180	0xbcdb147c	-0.026743166
181	0x3e674d8e	0.22588179
182	0xc008dce6	-2.1384826
183	0xc02dc7f5	-2.7153294
184	0xbd6c5be4	-0.05770482
185	0xbd901eed	-0.070371486
186	0xbf614f12	-0.88011277
187	0x3d9ed9f8	0.07756418
188	0x3cd8c825	0.026462624
189	0x3e1a96a1	0.15096523
190	0x3d765b72	0.060145803
191	0xbcbb3f42	-0.022857312
192	0x3db00ceb	0.08596214
193	0xbfeba35f	-1.8409232
194	0xc011acf1	-2.2761805
195	0xbdfe057d	-0.124033906
196	0x3df93ada	0.12169428
197	0x3b81efbf	0.0039653475
198	0x3e0398fa	0.12851325
199	0xbd1882bc	-0.037234053
200	0xbdc74192	-0.097293034
201	0xbf8178d3	-1.0114998
202	0x3d51e55a	0.051244117
203	0xbe3813dc	-0.17976326
204	0x3d7049b1	0.058664028
205	0xbce0fd99	-0.027464675
206	0x3f19f988	0.6014638
207	0xbde85628	-0.11344558
208	0x3dc15ca7	0.094415
209	0xbf9c1aae	-1.2195642
210	0x3ea97c65	0.33102718
211	0xbd8c1b01	-0.06841088
212	0xbd8769bb	-0.06611963
213	0xc00da417	-2.2131402
214	0xbd40fba2	-0.047114976
215	0x3c87ed60	0.016592681
216	0xbc0a698b	-0.008448015
217	0x3f0e9d86	0.5570911
218	0x3e02129c	0.12702411
219	0xbd3487ca	-0.04407481
220	0xbe042b22	-0.12907079
221	0x3ea62a2d	0.32454053
222	0x3ddc56da	0.10758753
223	0x3cd946b5	0.026522974
224	0x3b60af15	0.0034284045
225	0xbe970ea8	-0.2950337
226	0x4040af20	3.0106888
227	0xbcfa3027	-0.030540539
228	0x3f50f3ea	0.81622183
229	0xbdb8d693	-0.09025302
230	0xbc7ea5f8	-0.0155425
231	0xbcf0860e	-0.029360797
232	0x3e62e3b4	0.22157174
233	0xbf750cf8	-0.95722914
234	0x4016e5bb	2.3577716
235	0x3e721dc4	0.23644167
236	0x3e7f086e	0.2490556
237	0x3de44b54	0.1114718
238	0x3f05589c	0.5208833
239	0x3c48ef3c	0.012264069
240	0x3e66095e	0.22464511
241	0x3ee63acc	0.44966733
242	0xbd1e5635	-0.038656432
243	0xbd625a52	-0.055261917
244	0x3ddfd398	0.1092903
245	0x3dbe66c8	0.09296948
246	0xbcef16c2	-0.029185656
247	0x3f37ed80	0.7184677
248	0xbdbaad50	-0.09115088
249	0x3d1ef758	0.038810104
250	0x3da20a15	0.07912079
251	0xc053459a	-3.3011231
252	0x3d8455b3	0.06461658
253	0x40345b07	2.8180559
254	0x4005416b	2.0821178
255	0xbd2016e7	-0.03908434

advantage.bias f4 [2]
0	0x3d5ea4f8	0.054356545
1	0xbd9ee1ec	-0.07757935
