Weights/cartpole_model_weights3.pth (torch, 73600 bytes, 7 tensors)

layer1.weight f4 [128, 4]
00000000: 7dab 883c f2e6 713c 13a5 3fc0 4bfd 92bd
00000010: 2863 c33b ce5a cd3c d242 3140 c428 bc3e
00000020: f26e a9bc 2d6c 963d c64d 0d3e 0ce0 0bbd
00000030: a176 2fbf 1d65 b1be 306a a9be d432 0abe
00000040: 8697 3b3b 160c 9eba cbb7 2dc0 53d2 cfbd
00000050: 14cd 8c3e 9daf 813f 79fd 1d40 a43a 503f
00000060: b7e1 cbbc 2171 1ebe 2a9f 533f ee82 c1be
00000070: 14a7 67be 4944 cebd 6988 393f e8bd a63e
00000080: 926d cabe 5c8c 2d3d 8426 01c0 d798 8cbe
00000090: 0e43 8abe e17e ec3e 3ae2 323f 4641 b83c
000000a0: 45ba 1a3e ae5b 49be 4ce9 8f3f c022 41bf
000000b0: 503e 08bf 4427 8abd 872c b93f dab2 5b3e
000000c0: 743c 78bd 5821 5bbc 7dc2 1340 58a3 613e
000000d0: a837 123f 42d9 ba3e f29a 0b3d 8030 3b3e
000000e0: ef82 403e 80c2 73be 3b79 55bf 7348 06be
000000f0: e082 633e f5d7 e73e 8ee0 5abe b6fe 873e
00000100: 90ca 043f 9d06 f8bd 0b97 d9bd e4cf 823e
00000110: f6a6 063f 2c91 093f 49c6 ffbf 576e 653e
00000120: 2361 823b 0083 773c 4600 0f40 74db bd3e
00000130: b37e 123e 09b4 b7be bcbe 073e df3d b7be
00000140: 3590 93bc 90b4 abbd 4784 8bbf e729 d1bf
00000150: 17a5 cf3e 88a4 73bc 6fa8 58bf 7185 48be
00000160: 4b54 fa3c 6fd4 223b 9408 1740 b8d5 a13e
00000170: 0959 183f e87c de3d ec1f 93bf 0aeb 3f3e
00000180: 66fe 0d3c 2c19 5bbc 51a0 45c0 192b a6be
00000190: 5613 393f 7712 f33e 9239 3ebf b7d6 363e
000001a0: 323c c9be a709 13be 2ab0 e2bf 5f1c b7be
000001b0: bbd1 8fbb 42e9 153e 7448 6dbb bd9b e83e
000001c0: fbc9 1ebe bc20 233f 2af5 433f a1c0 83bf
000001d0: 2dcb f0b8 8b73 17ba f9cc ea3f 6d48 4f3e
000001e0: 8fac 203c 8eda 663c 58ba 5940 aaa7 103e
000001f0: 2ef9 13bf 456d 05bf f0c5 e2bf 61c9 23bf
00000200: 2aba 273d 93c8 c5be e67a 0bbf 954e 483e
00000210: 9f0e 1ebe 4648 163d e115 2f3f 7232 cabd
00000220: f2e0 f33b ba95 c03b 891b 2240 2064 933e
00000230: 1ef1 563f cfb3 cf3e 394d 9c3f 6d4a 023e
00000240: fc31 11bf 1ebc bcbe 6384 463f 49eb 07be
00000250: 60d0 853b 0648 81bc 7364 29c0 32bc bcbe
00000260: 4fab f73e de1e bf3e 506d d9be 065f cc3d
00000270: 3c54 253f f4b3 ddbe a224 bbbf 1544 343e
00000280: 111a 43bb 3423 1ebd f5a5 10c0 ddfa babe
00000290: 3a06 07bf c09e d2bd 0005 efbe f1a6 56be
000002a0: e35b 16bf d37f 0dbd b5f8 f23f 2e79 04bf
000002b0: 7a5e e53e cf3a 563c 530f 3ebf 8e9c 3a3f
000002c0: 2b1b da3b f38b 97bb e774 3cc0 e202 bdbe
000002d0: 32ad 8a3c b202 1d3c 6fac 1840 8a84 523e
000002e0: b1f1 213d c0db 2f3e 612a 5abe 066a 22be
000002f0: ccb8 20bf 35b0 7d3e 89a1 f53f 2fd8 04be
00000300: bce0 c9ba 34a5 15bc 8e89 22c0 2f32 a1be
00000310: 8415 c03b 551e f93b e237 17c0 aac7 7a3c
00000320: b666 973e 688f 043f 52b2 aebf a9fc 2abd
00000330: 91df 4dbe a263 5c3e 9b79 8c3f 6c12 de3e
00000340: 0b7b f63e 4a51 04bb 0720 1dbf 5ef6 14be
00000350: fd17 c53d 112f 07bd 08bc 843e fd1e db3c
00000360: 27da 4bbe e387 0cbf 45ff 00c0 1159 21bf
00000370: 8569 09be 7bf8 493f 647e 2d3e dd67 eebd
00000380: 30ea 14be c02b 7a3e ebd4 a9bf 60ff 2fbe
00000390: dc72 6cbc c77c 233d e501 313f 65c5 a93e
000003a0: ee2d 423c 68c6 663d 75b0 e83f e6e6 1bbf
000003b0: 8d22 a23d 009c bbbe 19d8 4cbf f906 293e
000003c0: c4c6 b63e 8081 333e 6c0c efbf 18ea fa3c
000003d0: d0a0 21be 9db0 15bf 8e66 9dbf f7d6 0fbf
000003e0: 5952 f83d c138 aebd f4fb 8dbf ec3d da3e
000003f0: 95cb 6e3e 2dc6 23be 96df 07bf be91 9dbd
0.016683334 0.014764534 -2.9944503 -0.07177218 0.005962748 0.025067713 2.7697034 0.36749852
-0.020682786 0.07344852 0.137992 -0.034149215 -0.6854039 -0.34647456 -0.33088827 -0.13495952
0.002862425 -0.0012058045 -2.7143428 -0.10147538 0.27500212 1.0131718 2.4685957 0.8133948
-0.024887903 -0.15472843 0.8266474 -0.37795204 -0.22622329 -0.10071618 0.7247377 0.32566762
-0.3953672 0.042370185 -2.0179758 -0.27460358 -0.27004284 0.4619055 0.69876444 0.022492062
0.15110119 -0.1966388 1.1243072 -0.7544365 -0.5322008 -0.067457706 1.4466714 0.21454945
-0.060604528 -0.013374649 2.3087456 0.22034967 0.57116175 0.3649388 0.034083314 0.1828022
0.18799947 -0.23804665 -0.8338811 -0.13113575 0.22217894 0.4528195 -0.21374723 0.26561517
0.51871586 -0.121106364 -0.10624512 0.25549233 0.5259851 0.5373714 -1.9982387 0.22405373
0.0039788648 0.015106916 2.2343917 0.37081492 0.14306144 -0.35879543 0.13256353 -0.3578939
-0.0180131 -0.08384049 -1.0899743 -1.6340913 0.4055564 -0.01487077 -0.8463201 -0.19582154
0.030557772 0.0024845859 2.3598986 0.31608367 0.59510857 0.10863668 -1.1494117 0.18742004
0.00866661 -0.013372701 -3.08791 -0.32454756 0.7229513 0.47475025 -0.74306595 0.17855345
-0.39303738 -0.14359151 -1.7710011 -0.35763833 -0.0043890155 0.14639762 -0.0036206516 0.4543132
-0.15506737 0.63721824 0.76545966 -1.0293161 -0.00011481936 -0.000577741 1.8343803 0.20242472
0.009806766 0.014090193 3.4019985 0.14126459 -0.57802093 -0.5211986 -1.7716656 -0.63979155
0.040949024 -0.38629588 -0.54484403 0.19561227 -0.15435265 0.03669002 0.6839276 -0.09872903
0.007442587 0.005877224 2.5329306 0.28787327 0.83961666 0.4056687 1.2211066 0.12723704
-0.56716895 -0.36862272 0.77545756 -0.13273348 0.004083678 -0.015781414 -2.646756 -0.36862332
0.48372886 0.37328237 -0.4246621 0.09979062 0.64581656 -0.43301356 -1.4620554 0.17604096
-0.0029770175 -0.03860779 -2.2601292 -0.36519518 -0.52743876 -0.102841854 -0.46683502 -0.2096212
-0.5873396 -0.03454573 1.8982149 -0.51747406 0.44798642 0.0130755445 -0.7424213 0.72895133
0.0066560707 -0.0046248375 -2.9446352 -0.36916262 0.01692829 0.009583162 2.3855245 0.20558372
0.039537136 0.17173672 -0.21305229 -0.15860757 -0.6278198 0.24774249 1.9189922 -0.12973092
-0.0015402059 -0.009133626 -2.5396457 -0.314836 0.00586194 0.007602493 -2.3627858 0.015306393
0.2957055 0.5178132 -1.3648169 -0.04174486 -0.20104815 0.21522382 1.0974611 0.4337343
0.4814075 -0.0020190054 -0.61376995 -0.14547107 0.09623716 -0.03300387 0.25924706 0.026748175
-0.19907437 -0.54894847 -2.0155804 -0.6302653 -0.13419159 0.78894776 0.16942745 -0.11640904
-0.1454246 0.24430752 -1.3268102 -0.17187262 -0.0144316815 0.03991392 0.69143516 0.33158413
0.011851771 0.05634156 1.817885 -0.608992 0.07916746 -0.36642456 -0.8001724 0.16506566
0.3569852 0.17529869 -1.8675666 0.030629203 -0.15784001 -0.58472615 -1.2296922 -0.56187385
0.121250816 -0.08506919 -1.1092515 0.42625368 0.23319848 -0.15993567 -0.5307554 -0.07693814

layer1.bias f4 [128]
00000000: 0052 06bf 8345 0dbf f684 9d3e feab ef3d
00000010: fcf7 f1be 19ce e3bd 64e2 0c3f 9073 69bc
00000020: c464 273f 603c 123e ef96 943e 9691 cdbe
00000030: 6831 ddbe 7b2a a33d 4d39 163f bd98 0abf
00000040: 79fd 123d 637e 26bf 99c7 4b3f 4b19 243f
00000050: 5312 a3bf e4d2 d5be 7ba8 fbbe 9fdc a4be
00000060: a8a7 12bf 38c8 65be 691e 77be 81b7 2e3e
00000070: 06a4 8cbe d939 053f 4e78 17bf e019 b8be
00000080: 5ff8 563e fb5c 193f 34dc fbbe aa54 8bbd
00000090: 45a7 8bbb f41d 543f 73b9 5dbf 4893 2fbf
000000a0: 85aa 443f e584 3cbe 7c34 6d3e ab1a 0b3e
000000b0: 6445 14bf 8ee6 dbbe e05d ff3e d53f 53be
000000c0: 6e5d f5be 3cf1 d6be 30d8 a7be 2638 123f
000000d0: fb61 8ebe 887c 1e3f b926 083d 197e e2bd
000000e0: 345d 253f 3a05 0c3f a7ec 913e 1c52 953e
000000f0: 9abf 02bf 1260 38bf b18c 5c3e 28ba 183f
00000100: 31a0 a0be 5efa 90be 9981 cf3e bcdb 2f3f
00000110: 5587 4f3d 485a 90bd 8892 52bf 33e8 32bc
00000120: 26b2 833e 3e7a 09bf 0f66 6e3e 9ba9 c33e
00000130: 7d6c 1c3f 54c9 0e3f 15f6 3ebe 32f6 44bf
00000140: d853 e7be 6b95 3a3f 1bed 383f 0294 3e3e
00000150: 2126 5cbe 0639 333f 18f7 2d3f 50be fe3e
00000160: ad16 e0be 38b0 ccbb 1be4 16bf 39f8 e03e
00000170: 3857 bf3e a791 89be 0667 603e fb5c b53e
00000180: 98c5 26bf 17fc 103e 536d 8a3e 245e 67be
00000190: 97d5 153f e70f 99be dbec df3e 49cd 253f
000001a0: a3d0 193f 7df6 b73d 0ed2 f03e f8f2 893e
000001b0: 805a eebe 9605 263f 7eb1 243e 93f2 0bbf
000001c0: 4853 56bd ceae 2e3e 35c3 183f b665 a23e
000001d0: fd4f 45bf 2e0a f03d 41fa 143f effb a43e
000001e0: 1927 a23e 8a2f 6d3e ae65 b13e 1103 1c3e
000001f0: 8668 f6bd e67d cdbe 5d91 b6be 9b9c cc3e
-0.5246887 -0.5518419 0.30765504 0.11702727 -0.4725951 -0.111232944 0.55032945 -0.014248744
0.6538813 0.14280844 0.29021403 -0.40150136 -0.43201756 0.07967087 0.58681184 -0.5413931
0.03588626 -0.650366 0.79601437 0.64101094 -1.2739967 -0.4176246 -0.49151978 -0.3219957
-0.57287073 -0.22439659 -0.24132694 0.17062189 -0.2746889 0.52041394 -0.59167945 -0.3595724
0.20993184 0.599075 -0.4919144 -0.06803258 -0.0042618834 0.82858205 -0.866111 -0.6858411
0.7682269 -0.1841007 0.23164552 0.13584392 -0.5791838 -0.42949337 0.49876308 -0.20629819
-0.47922844 -0.41980922 -0.32782125 0.57116926 -0.27809128 0.6190877 0.033240054 -0.110592075
0.6459534 0.54695475 0.28500864 0.29164207 -0.5107361 -0.7202159 0.21538045 0.5965905
-0.31372216 -0.28316015 0.40528563 0.68694663 0.050666172 -0.0704847 -0.8225484 -0.010919618
0.25721854 -0.5370215 0.2328112 0.38215336 0.6110304 0.5577595 -0.1864856 -0.76938164
-0.45181155 0.72884244 0.72236794 0.18611148 -0.2149892 0.70008886 0.6795516 0.49754572
-0.437673 -0.006246593 -0.5894181 0.4393938 0.3737123 -0.26868936 0.219143 0.354225
-0.65145254 0.14158665 0.27036533 -0.22594506 0.5852904 -0.29894945 0.43735394 0.64766365
0.6008398 0.08982561 0.4703526 0.26943183 -0.4655342 0.64852273 0.16083333 -0.54667014
-0.052325517 0.1705887 0.5967286 0.31718224 -0.7707518 0.117206916 0.5819436 0.3222346
0.31670454 0.23162666 0.34647888 0.15235545 -0.12031655 -0.40135115 -0.35657778 0.3996323

layer2.weight f4 [128, 128]
00000000: c043 82be 2e88 38be 53c3 d3bc 4604 7b3d
00000010: 44c8 93be c796 153f c632 78bd 6176 ea3d
00000020: 857b 1bbe cf90 b33d 516e 603d 8dc1 2d3e
00000030: cb55 273f 7aa9 c33c 0b04 43be d3bf 72be
00000040: 6c64 9c3d 8a16 713e 491b 193e fe9a 7bbd
00000050: 9ad9 f03e dc86 3c3e e565 033f 5c8f b33d
00000060: c27d 35be 92d0 ff3d b02c 2b3e bf05 a03c
00000070: 03f7 5c3e 37af a63e 9a17 4c3e 1fac 433e
00000080: 6a4c 8ebd eb56 20bd 07d4 ddbe 6247 843e
00000090: 1980 843c ecee 033e 1abf 663e 9480 40be
000000a0: 1d54 5d3e 251b 82bd c384 a63c 15d3 b93c
000000b0: 3c37 c83b 6ee9 1fbf c7c3 8fbc 2cdb 46be
000000c0: e22d 14bf 03c7 c1bf 908a d83d f586 203d
000000d0: a492 7cbe 2a43 c33c 37f5 513e 9ae4 ff3d
000000e0: 49e2 8c3d a463 11bd 1a9d 9d3d 3831 64bd
000000f0: 6067 853e 65d6 18bf 9f75 5abe 8034 25bd
00000100: 5827 3b3e 92bb 05be 1060 93bd cbe6 d23d
00000110: 8a85 54bc c7c3 113e 29c2 9a3e 087d 563d
00000120: a0a1 fdbd 020b f9be 2105 b03e 61d9 eabd
00000130: 724c 16bc 710d 26bd d96e 343e 570b 87bf
00000140: 4ecf 923d e23a 43be 4280 8f3d 9c42 683e
00000150: 0815 0b3c 8b09 5c3e d205 9a3d c1bc a4bd
00000160: 64de 5b3d d23c 18bf d1fc 133e 9cf6 283e
00000170: 0821 b33d 512b 28be 3712 a23d f6b7 023e
00000180: 820a 73bf 1641 1f3d 44ca b3bc 2211 9e3e
00000190: b59b 0dbe 10c4 543e 7d72 ab3d a6d1 a3bd
000001a0: a012 f03d 9b34 8d3d b069 96bc f742 8b3c
000001b0: 201d a1bd 462b 3abd 91dd 403d 1225 ccbe
000001c0: edf9 ae3d 499a 393e 0d95 d73d 030e 95bb
000001d0: 6700 a23d ba46 3e3d f295 4e3d 1795 2cbd
000001e0: 6e13 e8bd 111c e83d ccf3 b9bd 82a6 ddbe
000001f0: 2184 163e 6078 993e 0c5b ba3d b725 7b3c
00000200: 4585 533f d203 abbf 361d 7bbd b05f 73bd
00000210: d54d 4f3f 24a8 313e c88b 0abe da70 883e
00000220: 7ce5 a83d 3cd0 11be 5a9f 94bb 3e43 17bb
00000230: 77ba 39bf 4c2a 1ebd ab1d 2b3d e574 333f
00000240: aea4 c83e 1fce 773e 0d1c 17bf 2ebf 36be
00000250: 693d 0dbe a9ac 9abe 7477 9bbf 5666 653e
00000260: 3cc7 6e3f d697 303e 2047 0e3f e838 873e
00000270: 25c0 59bd 88a0 5ebf 6568 06c0 9186 3abe
00000280: 5766 943e 288a 2dbe 7c64 b0bf dd48 52be
00000290: 84f8 c1be 3ac1 2dbe ca28 813e 4342 393b
000002a0: a49f 48be 0b75 8f3c cf3e d2be 029f 103f
000002b0: 9d0e ee3e 38e8 d4bf c0df babd 0cd4 f63d
000002c0: 5e91 3d3f b5e9 0340 42fb 8d3e 3a6f 46be
000002d0: cbad a83e b418 77bd 77d0 fb3d 5a9e 043e
000002e0: 231b 37be 55ac 1dbe 9175 eb3c b179 373e
000002f0: 9ed6 853e 7235 4d3f eb33 7a3f 29d5 973b
00000300: 3091 f53e a30a 0bbd c3ff b73c c5fe 81bd
00000310: 0c03 a53e e6b8 053f 160a 853f e2fd bc3d
00000320: 65db fb3e 1435 633f ed4a 11be 1847 703d
00000330: 8d0e b4bd 081d 593d ec67 4c3f 297f ac3f
00000340: 8e48 853b e7af 4a3e 5e37 d83b 5aca b83e
00000350: 92c9 443e d68c 0dbf 1d87 b1bd 4e5e 36bd
00000360: 65bd b93a 481a 103f c284 d23e d5c5 03bd
00000370: c2af f63d 7a2b 763f 2d05 83bd 91bf 1d3f
00000380: d1e5 403e 1145 a93e 8478 ee3e 6848 babe
00000390: d0a8 f13d 1841 1b3f 9946 36be f8e4 a13c
000003a0: d404 a7be f1d4 ac3e 6fe8 38bd fb6c 00be
000003b0: d66b ee3e aaf2 18be 521b 7dbe e354 933e
000003c0: a144 9a3e 53c9 d73c 5e19 5cbe a106 be3e
000003d0: 9ef9 0a3e a159 c23e 4cd4 88be 20a8 b9be
000003e0: 0c97 de3e 4ebe 93bd c75c 21bd 72ca 40bd
000003f0: 049b e43d 541d c23e dcb4 37bd df38 0b3e
-0.25442314 -0.18020698 -0.025849974 0.061283372 -0.28863728 0.5843319 -0.060595296 0.1144836
-0.15183838 0.087678544 0.054792706 0.16968365 0.65365285 0.023884524 -0.19044511 -0.23705988
0.076363415 0.23543754 0.14951815 -0.06142711 0.47041017 0.1841082 0.51327354 0.08767578
-0.17723754 0.124909535 0.16716266 0.01953399 0.21578602 0.32555553 0.19930878 0.19108628
-0.069481686 -0.03914539 -0.43325827 0.2583571 0.016174363 0.1288411 0.22533837 -0.18799049
0.21614118 -0.06352834 0.020326978 0.02268366 0.0061101 -0.6246556 -0.017549409 -0.19419545
-0.5788251 -1.5138859 0.10573304 0.039191205 -0.24665314 0.023835737 0.20503698 0.12494774
0.06879098 -0.035495415 0.0769598 -0.055711 0.2605543 -0.5970214 -0.21333931 -0.04033327
0.18276727 -0.13059834 -0.07196057 0.102979265 -0.012971291 0.1423484 0.30226257 0.052365333
-0.12384343 -0.4864121 0.34378913 -0.11467243 -0.009173499 -0.040540162 0.1762041 -1.0550336
0.071684465 -0.19065431 0.07006885 0.2268166 0.008488901 0.21488015 0.075206414 -0.080438145
0.053678885 -0.59467804 0.1445191 0.16500324 0.087465346 -0.16422774 0.079136305 0.12765488
-0.9493791 0.03888043 -0.021947034 0.30872446 -0.13828929 0.20777917 0.08371446 -0.07998972
0.117223024 0.06894799 -0.018360943 0.016999705 -0.07866883 -0.045451425 0.047086302 -0.39872032
0.08543763 0.18125261 0.10526476 -0.0045487895 0.07910233 0.04645417 0.050435968 -0.04213437
-0.11331831 0.11333478 -0.09079704 -0.43291098 0.1469884 0.2997465 0.09099397 0.015328816
0.8262523 -1.3360541 -0.061307155 -0.059417427 0.8097814 0.17349297 -0.13529885 0.266486
0.08246896 -0.14239591 -0.0045355977 -0.002308085 -0.7255015 -0.038614556 0.04177634 0.7010024
0.3918814 0.24199723 -0.5902718 -0.17846367 -0.13792957 -0.30209854 -1.2145829 0.2240232
0.9327276 0.17245421 0.5557728 0.26410604 -0.05316176 -0.869637 -2.1001217 -0.18215396
0.2898433 -0.16947234 -1.3780665 -0.20535608 -0.37884915 -0.16968241 0.25226432 0.0028268255
-0.19592148 0.017511865 -0.41063544 0.56492627 0.46495524 -1.6633368 -0.09124708 0.120521635
0.7404994 2.0611393 0.27730757 -0.19378367 0.32945094 -0.060326293 0.12295621 0.12951031
-0.17881446 -0.1539777 0.028742583 0.17917515 0.26140302 0.80159676 0.9773547 0.004633565
0.47962332 -0.03394569 0.022460824 -0.063474216 0.32228887 0.5223526 1.0393703 0.09228112
0.49190822 0.88752866 -0.14188738 0.05866155 -0.08791838 0.053006202 0.7984607 1.3476306
0.004067487 0.19793664 0.006598397 0.36091882 0.19217518 -0.55293024 -0.08668349 -0.04452353
0.0014170824 0.562901 0.4111691 -0.03217109 0.12045242 0.9616009 -0.063974716 0.6162043
0.18837668 0.33060506 0.4657632 -0.36383367 0.117997766 0.606462 -0.17800368 0.019762501
-0.3262087 0.3375621 -0.04514354 -0.12541573 0.46566647 -0.14936319 -0.24717453 0.287757
0.30130485 0.026341116 -0.21494052 0.37114432 0.13571784 0.37959006 -0.2672447 -0.36261082
0.43474615 -0.07214032 -0.03939512 -0.047068067 0.111623794 0.37913 -0.044850215 0.13595913

layer2.bias f4 [128]
00000000: 5393 2cbd a3f6 f83c b836 873e d2ce 073c
00000010: 1c2e 8a3e 6d76 9abc 2ff0 383d 4969 a23e
00000020: 5244 b83c 9bea 973c c0c9 733e a921 86bd
00000030: c6f9 1d3e 1297 47bd 84fd 593c 291a c4bd
00000040: f3ec 403e 31ce 4abd faa8 b5bd 26c0 88bd
00000050: 3372 d9bc 6eba e43d 7467 62bd 6257 b7bd
00000060: e525 8c3e fdea e7be ee5d 423e bac4 183d
00000070: fa69 7c3e 2282 bebd 4a3a c3bc 0276 d83b
00000080: e7e5 5abc a38d 81bc afda 613e ff91 f83c
00000090: e10d 013e 9ca5 813b d78a 6e3d 78ee d7bc
000000a0: fe17 cfbc a9aa acbc f590 e0bd f244 4dbc
000000b0: 7850 863e 1814 8a3e 4445 003d e722 6ebd
000000c0: 43e1 cfbd 69cf 24bd 7798 263c f05a d1bd
000000d0: 3170 603e 355a 9c3e e16c 103c e26e 6ebd
000000e0: 2cff a7bc ece8 2d3d f6dd 14be f271 e93c
000000f0: d4a1 bdbd 18f7 813c c9f3 5cbd 860b 1ebd
00000100: 5269 0bbe e796 873e d584 83bc 0d62 6a3e
00000110: 7679 6ebd 5cba 58bc 41ac 9f3d b9ff 4ebd
00000120: 07f6 8f3e 0012 3f3d 700d 883d 2e5a 533d
00000130: 735c ca3e bd9a 9d3e d7da 21bd d75d 123e
00000140: 5f9b 5cbc a3e9 1a3e 267a 41be b543 e0bd
00000150: c80e 103e e3cd a93c 1bff de3d 182b b53d
00000160: a72f 83bd 10f4 87bd 06dd 1c3e 235a 143e
00000170: d0aa 57bd 2e3d 193d 48ad 69bd ac2f 863e
00000180: b4e4 bbbc a70a bf3e 27fe e1bd 189f 2a3c
00000190: 703a 103e 713b 273e 9797 56bd b111 3dbd
000001a0: fd01 91bd ff59 bb3d f339 0e3e b962 343d
000001b0: 59a9 b4bd 63fd 0d3d b9f6 383e 11b2 c3bd
000001c0: 4acc a6bb dbd1 323e 9172 a43c fd83 013e
000001d0: 7495 a6bc 87cc 0abe 6548 0d3d 1abf 0ebd
000001e0: 778e 14bc 0831 573b 35a5 203e 88dc 75bd
000001f0: 8dc6 323e 8537 efbb 1f15 28bd e7b4 563e
-0.042132687 0.030391043 0.26408935 0.008289056 0.26988304 -0.018855298 0.045150932 0.3172095
0.022493515 0.018544486 0.2380743 -0.06549389 0.15427312 -0.048728056 0.013305072 -0.09575302
0.18840389 -0.049513046 -0.0887012 -0.066772744 -0.026543712 0.11168371 -0.05527444 -0.08952214
0.2737266 -0.4529647 0.18981144 0.037296988 0.24649802 -0.093021646 -0.023831505 0.0066058645
-0.013360477 -0.015814608 0.22056077 0.030343054 0.1260295 0.0039565098 0.058237877 -0.026358828
-0.025279995 -0.02107747 -0.10965148 -0.012528645 0.26233268 0.26968455 0.031316057 -0.058138754
-0.10150387 -0.040236864 0.010168186 -0.10222423 0.21917798 0.30537573 0.008815021 -0.058211215
-0.020507418 0.04245846 -0.14537796 0.028496716 -0.09259382 0.015864894 -0.05394343 -0.03858521
-0.13614395 0.26482317 -0.01605455 0.22888966 -0.058221303 -0.013228025 0.07796527 -0.050536845
0.2811739 0.046648026 0.06643188 0.051599674 0.39523658 0.30782118 -0.039515343 0.1429361
-0.013464778 0.15128188 -0.18894252 -0.10950414 0.14068139 0.020728057 0.10888501 0.0884611
-0.06405573 -0.06638348 0.15318689 0.1448751 -0.052653134 0.03741186 -0.05705002 0.26208246
-0.022936203 0.37312815 -0.11034804 0.0104139075 0.14084792 0.16331269 -0.05239066 -0.04615945
-0.07080457 0.09148025 0.13889293 0.04403946 -0.08821363 0.034665477 0.18062867 -0.09555448
-0.005090271 0.17462866 0.02007416 0.12648006 -0.020334937 -0.13554583 0.03449287 -0.034850217
-0.009067169 0.0032835621 0.15688021 -0.060024768 0.17458554 -0.0073003196 -0.041035768 0.20967446

value_function.weight f4 [1, 128]
00000000: 903c 973e 28d5 a0bf 6fd2 fe3e 93bf 403d
00000010: 80bd 6c3f 0e5e 10c0 efa1 97bd 92b8 563f
00000020: eaf2 8d3e e12b a23e 090a 893f 08aa 963d
00000030: fbee 863f e37f e93c 57ec 843d be19 bcbc
00000040: cff0 893f 4391 adbc 0341 8c3e 1b57 b03e
00000050: fa1d a1bd 3549 af3f e3bd 813c bcf3 f5bc
00000060: b2de 2d3e b31d 78c0 95aa 903f d36a af3e
00000070: 884d 973f 9a1b 8bbf 1781 793e e6fa a83e
00000080: b370 9dbd 8095 b4bc ff34 a93f 7105 513e
00000090: be8b 883f 9d5f b53e f2cf 89bf ce76 1cc0
000000a0: c081 1cc0 2b5f bd3e 459b ac3e f917 693d
000000b0: 5ad7 ad3f c7e3 cc3d 65d2 443f 4b0b 823e
000000c0: b777 683c 08d6 663e aa05 d5bf d9bd 13bd
000000d0: 0c80 a33f 8fb5 c43f b068 16c0 fcd7 2bbd
000000e0: 452e c2bf b5ad 30c0 3b48 52c0 403e 813e
000000f0: 13d9 833e d9ba 2c3e 6854 983e 5245 3bbd
00000100: 4314 edbf 968b dfbd d39c a23e 6f35 b83f
00000110: 088b 35c0 f9b9 a4bf 361b 233e 7a31 28c0
00000120: 4342 793f 8e5b 0abd a570 be3f efac 2abd
00000130: ba16 5fbe 1f6f bf3f 7874 873e b6a6 953e
00000140: 5e12 413e 7cbd 4fbd 98e6 46c0 9f55 913e
00000150: 7997 7a3f c544 f3bc 94ef 603f d1fe d73f
00000160: e769 50bf 7f87 6cbf 6ae8 6d3f 2cf3 05c0
00000170: 4832 e2bc 4a93 273e 167f 95bf 8212 9fbe
00000180: ff2e 7e3a 9c15 8cbd e1e1 923e 3e50 b93e
00000190: 997b 663f 0772 5e3e f87a 993e d61b 87bf
000001a0: 95a7 7c3e 758d a5bf 21eb 813f 1e85 383d
000001b0: b4ef 9dbc 3608 afbc 0126 963f 4377 dc3c
000001c0: 32c7 993d c86e 80be beeb 63bd 4f50 d5bf
000001d0: 470f c9bc 2fa4 85bf 5d0a 803e a39b dfbf
000001e0: 78d7 87bd 4b45 7a3e bf9d 823f 7f6b f93c
000001f0: c41e 61be 494d 11c0 4b53 9ebd 7740 8d3f
0.29538393 -1.256505 0.49769923 0.0470577 0.92476654 -2.2557406 -0.07403933 0.8387538
0.2772439 0.31674102 1.0706187 0.0735665 1.0541681 0.028503364 0.06490391 -0.022961494
1.0776614 -0.02118743 0.2739335 0.34441456 -0.07867046 1.3694216 0.015837615 -0.030023448
0.16979483 -3.8768127 1.1302058 0.34261188 1.1820536 -1.0867798 0.2436565 0.3300392
-0.07687511 -0.022043943 1.3219298 0.20412232 1.0667646 0.3542451 -1.0766585 -2.4447513
-2.4454193 0.3698667 0.3371221 0.056907628 1.3581345 0.100043826 0.76883537 0.2539924
0.0141886985 0.22542584 -1.6642354 -0.036069725 1.2773452 1.5367907 -2.3501396 -0.041954026
-1.517037 -2.7606022 -3.2856586 0.25242805 0.25751552 0.16868152 0.29751897 -0.045720406
-1.8521808 -0.10915296 0.31760272 1.4391307 -2.8366108 -1.2869254 0.15928349 -2.6280198
0.9736673 -0.03377872 1.4878126 -0.04166883 -0.21786013 1.4955786 0.26456046 0.29228753
0.18854663 -0.050717816 -3.1078243 0.28385636 0.9788738 -0.029695878 0.8786557 1.6874639
-0.81411594 -0.9239425 0.9293276 -2.092967 -0.027611867 0.1636478 -1.1679409 -0.31068808
0.0009696334 -0.06840059 0.28687957 0.36194032 0.90032345 0.21723185 0.2997663 -1.055537
0.24673302 -1.2933794 1.0149881 0.045048825 -0.019279338 -0.02136622 1.1730348 0.026912337
0.075086966 -0.2508452 -0.055644743 -1.6665133 -0.024543418 -1.044073 0.25007907 -1.7469372
-0.06632894 0.24440496 1.020439 0.030446766 -0.21984392 -2.270342 -0.077307306 1.1035298

advantage.weight f4 [2, 128]
00000000: 2932 563d b9e1 063b 9f64 a5bf 4263 aabd
00000010: c283 a3bb 6b95 4c3f 17cc 2c3d c444 583f
00000020: 23a4 76bd 96a5 a33d e865 333e b866 783d
00000030: dd3f 15be dfff 453d 123d ccbc a7cc 113d
00000040: 5375 8f3d 886b 08bd 0d46 31bd 3d2f 0a3d
00000050: 42db 4ebd 6690 c8bc 21d5 b03d c3f6 803d
00000060: eab2 8abf 5c23 29be 2f25 033f e6b6 37bd
00000070: 57fe 333e 6717 83be a575 1bbb 47b3 7a3c
00000080: 6d90 aa3c 1773 bd3d 041d 6fbe accb 2a3e
00000090: 91f0 dd3d 020c 263e 00c8 1abf dcb0 98bf
000000a0: 2e19 5940 6404 893d d40f 69bd c70d 5cbc
000000b0: 58f9 b63d 581b ae3f ca43 d13e 87d3 e63c
000000c0: f38f f6bc ab8c 75bf 844c bfbf 1ccc 693d
000000d0: b8b1 333e 3c98 9e3c 98e8 8040 a581 413c
000000e0: 6788 63c0 d773 3fbf 5f2e 893f 50a9 213e
000000f0: 9bc8 56bf 53c6 0a3e 90e6 78bc 130e b6bd
00000100: d048 c13f 5f1a 93bf 74cf a53d f051 233e
00000110: be44 6140 979b 6f40 7f82 92bf dbec 033f
00000120: 51f8 c53e 43c7 16bd 7202 c8be fcec 96bd
00000130: d2f8 d63f 3e28 f33e e157 2c3e 8095 a63f
00000140: 808a 6f3d 825b e93f eb89 9c3f 43cf d73d
00000150: df4b a63e 5dfe 0c3d fe9c 1cbf 4269 d5be
00000160: 497f b43f 8dc0 41c0 5db1 473e 4fa2 38be
00000170: fbe3 443d 02c3 ff3d 8a9e 71be 3e77 91bf
00000180: b8d1 82bd 82b0 a7bf 4185 46bd 91ec 86bd
00000190: b5c8 cc3d 1cd3 9bbf 881b a63d 3583 593e
000001a0: b710 3f3d 7ff1 5fbf e575 073e 409d 96bd
000001b0: 65a9 903d 21d4 4abd bc61 523f c60d a73d
000001c0: df32 783c 6bc8 90bf ef95 953c f347 60c0
000001d0: 78aa f23c 9927 e03f de17 263e 35aa 4b3f
000001e0: 3fee 5d3d 9082 40bd 34f5 e73d e5c9 153d
000001f0: 48fb 59bf 3c2d 15c0 bac8 0abd 863d f43d
00000200: f0cb 0cbe 3a2d 6f3d 4d21 a13f 16ab aabb
00000210: 8f51 3abd aba8 41bf babd 463d 6c3e 62bf
00000220: 1228 5e3c ed26 b7bc a05c e6bd 10bb 9bbd
00000230: 3e88 bd3d 637b 483c 226a 1fbc 81f4 243d
00000240: 2b4b d9bd 29dc a0bd f952 0c3c a12a febd
00000250: 3faf e23c 4e15 2f3d f794 7b3c 7c74 0fbc
00000260: 10a5 8c3f 7f24 aa3d ccaf febe ebf3 bc3d
00000270: d562 7fbe 21c6 9a3e cece a2bd 0d85 f5bd
00000280: e17a 6abd 7128 103d b63a 933e fc9e bebd
00000290: 62d6 33be c459 1bbe 8677 263f cae8 a53f
000002a0: fa96 58c0 a8d6 ccbd a5f2 dc3c 2d78 77bd
000002b0: b480 06bd 38ed b8bf 04dd a3be c7c6 f7bd
000002c0: e34f a23b db00 7b3f c0fd ca3f b0a1 4dbd
000002d0: 643b 39be 7185 71bd 5dc7 80c0 0455 85bc
000002e0: b964 6b40 f77f 2e3f 9d7e 87bf 06a8 1dbe
000002f0: 5df6 473f 80a7 aabd 5b05 083c a5d1 3bbd
00000300: a68f bcbf 35df 873f 0ec9 06bd 83bf e83b
00000310: f2df 68c0 456e 68c0 57ac 9c3f c3b5 13bf
00000320: edec cebe 0a31 853d 0817 a33e e02b 3e3d
00000330: d6be ccbf e049 17bf 1faf 52bd 70df a3bf
00000340: 3a84 f1bd a06f ddbf 7529 9bbf a900 dbbd
00000350: 35b0 babe e3de 8ebd f9b4 e33e da60 d33e
00000360: 5bea bbbf 61f8 3e40 490b 1bbe 116e 4c3e
00000370: b147 81bd 5ea6 4abe f1c8 7e3e bed9 8c3f
00000380: f59a 8fbd 1885 9e3f 1c2c 083d d7a4 be3b
00000390: a07d 24bd 1431 9f3f 4e2d ebbd 830b 34be
000003a0: 6395 45be 2f6e 813f b77e 58be 851d dcbc
000003b0: f485 d33b ea86 03bd c2b8 3cbf 50c2 813d
000003c0: 7f48 243d 99f1 8d3f e166 13bd 9f97 6440
000003d0: 7b27 9d3d 9767 e8bf 246b 00be e78e 32bf
000003e0: 0391 6d3d 9e35 183d 0090 7bbd ca0f 0f3d
000003f0: b06b 5d3f 763a 1a40 24c7 9e3d ea97 2cbe
0.05229393 0.0020581319 -1.2921332 -0.08319713 -0.004990072 0.79915494 0.042186823 0.8447993
-0.060215127 0.079905674 0.17519343 0.060644835 -0.14575143 0.04833972 -0.024931464 0.035595562
0.070048 -0.033305675 -0.043279696 0.033736456 -0.05050207 -0.024482917 0.08634401 0.06297066
-1.083585 -0.16517395 0.5122861 -0.04485216 0.17577492 -0.25603792 -0.0023721245 0.015301532
0.02082082 0.09250467 -0.23350912 0.16679257 0.108369 0.16215518 -0.60461426 -1.1928973
3.3921618 0.066902906 -0.05689986 -0.013431019 0.08934277 1.3602095 0.4087203 0.028177036
-0.030097937 -0.9591777 -1.4945226 0.05707942 0.17548263 0.0193597 4.028393 0.011810695
-3.5552003 -0.7478613 1.0717276 0.15787244 -0.8389985 0.13552217 -0.015191689 -0.08889403
1.5100346 -1.1492423 0.08096209 0.15949225 3.5198207 3.7438715 -1.1446074 0.5153329
0.38666013 -0.036811125 -0.39064366 -0.0736942 1.6794684 0.4749164 0.16830398 1.3014374
0.058481693 1.8231051 1.2229589 0.10537579 0.3247976 0.034422267 -0.6117705 -0.41681868
1.4101344 -3.0273774 0.19501252 -0.18030666 0.04806898 0.12488367 -0.23595634 -1.1364515
-0.06387657 -1.3100741 -0.048466925 -0.0658809 0.09999219 -1.21738 0.0811072 0.21241458
0.0466468 -0.8747787 0.13228567 -0.07354212 0.070635594 -0.04951871 0.8218038 0.08156924
0.015148847 -1.1311163 0.01825997 -3.5043914 0.029622301 1.7512084 0.16220042 0.7955659
0.054182287 -0.046999514 0.11326066 0.036569495 -0.8514905 -2.330886 -0.033882834 0.11925797
-0.13749671 0.05839274 1.2588288 -0.0052083833 -0.045487937 -0.7564799 0.04852078 -0.883765
0.013559358 -0.022357428 -0.112481356 -0.07604039 0.09254502 0.012236449 -0.009729894 0.04027224
-0.1061004 -0.07854492 0.008564704 -0.124104746 0.027671454 0.042744927 0.01535534 -0.008755799
1.0987873 0.08307742 -0.49743497 0.09226211 -0.24940045 0.30229285 -0.07949601 -0.11988268
-0.057246093 0.035194818 0.2875573 -0.093076676 -0.1756225 -0.15170962 0.6502613 1.2961667
-3.3842149 -0.1000188 0.02697117 -0.060417343 -0.032837585 -1.4447393 -0.3200456 -0.12098461
0.004953371 0.9804818 1.5858688 -0.050203025 -0.18089062 -0.05896515 -4.0243363 -0.01627589
3.6780226 0.6816401 -1.0585514 -0.15396127 0.78110296 -0.08332729 0.008302058 -0.04585423
-1.4731338 1.0614992 -0.032906584 0.007102908 -3.6386685 -3.6317303 1.2240094 -0.5769922
-0.40415135 0.06503494 0.3185351 0.04642856 -1.5995739 -0.590971 -0.05143654 -1.2802563
-0.11792798 -1.729969 -1.2122027 -0.10693485 -0.3646256 -0.06976106 0.4447401 0.4128483
-1.4680895 2.9839098 -0.15141024 0.19963862 -0.06312502 -0.19790027 0.2488134 1.100395
-0.070119776 1.2384367 0.03324519 0.0058179903 -0.040158868 1.2436852 -0.114832506 -0.17582516
-0.19295268 1.011175 -0.21142088 -0.026869545 0.0064551774 -0.032111086 -0.7371942 0.0633589
0.0401082 1.1089355 -0.035986785 3.5717542 0.07673546 -1.8156613 -0.12540871 -0.697493
0.057999622 0.03716051 -0.061416626 0.034927167 0.86492443 2.4098182 0.07752827 -0.16854826

advantage.bias f4 [2]
00000000: f9fa 853d fba6 253c
0.0654201 0.010110612
