Weights/cartpole_model_weights4.pth (torch, 73600 bytes, 7 tensors)

layer1.weight f4 [128, 4]
000000 b3 59 1e 3b c1 c6 5b 3c 71 25 3c c0 17 f1 a2 be
       0.0024162352 0.013414086 -2.9397852 -0.31824562
000010 7a 7e 2f bd a6 7b cf bc ec 90 e8 3f 48 31 54 3e
       -0.042845227 -0.025327515 1.8169227 0.20721924
000020 d5 67 69 bb 5a f2 1d 3e cf 45 ea be 1f d9 00 be
       -0.0035614867 0.15424481 -0.45756385 -0.12582825
000030 6b 3f f6 be 2b ee 84 be 2b 92 a4 3d 5c 51 d4 bd
       -0.4809526 -0.25962958 0.08035692 -0.103670806
000040 10 3f ce 3b db ac 17 3c aa 1c 20 c0 ee 31 b8 bd
       0.0062941387 0.009257521 -2.5017495 -0.08993898
000050 83 36 c3 3e 71 18 19 3f f7 ac ab 3f c6 75 0b 3f
       0.38127527 0.5980292 1.341216 0.54476583
000060 92 1a 1d bd ea 7d da be 3d 96 24 3f 7e 0c 80 be
       -0.038355418 -0.4267419 0.64291745 -0.2500953
000070 26 1f b7 be ab f8 b8 be 52 6f 88 3f 1e 4b 84 3e
       -0.35765952 -0.3612722 1.0658972 0.2583856
000080 13 29 3f 39 dc 4b 52 bc 99 ae 17 c0 b6 6b a1 be
       0.00018230481 -0.012835469 -2.3700316 -0.3152749
000090 d2 ac 29 3c 1f a9 97 b8 b7 67 06 40 a9 13 99 3e
       0.010356145 -7.231742e-05 2.1000803 0.29897812
0000a0 aa e1 9c bd 6f 08 9b be e8 fa d9 be 34 61 fa be
       -0.076602295 -0.30279872 -0.4257424 -0.48902285
0000b0 42 cf f0 be dc 20 aa be d9 25 ec 3f 2e 71 f0 3d
       -0.47033125 -0.33228195 1.844905 0.11740337
0000c0 2b 18 39 bc b1 5e 1e 3c f4 8f 9d 40 26 cc 14 3f
       -0.011297266 0.009666131 4.9238224 0.58124006
0000d0 8d 8e c7 3e 9c 82 38 3d 5d 77 bf be aa 9d a0 3e
       0.38975945 0.045046434 -0.37395754 0.31370288
0000e0 d4 dc bf 3d 21 fb 93 be b6 46 3f bf 52 b9 25 be
       0.093682915 -0.28902534 -0.7471727 -0.16183975
0000f0 33 ff 51 3e 96 e7 13 3f 6d 34 74 bf 42 ae b3 3e
       0.20507507 0.5777525 -0.95392495 0.35093886
000100 37 de eb 3e 93 91 9e be b5 3a 39 bf 2d aa c6 3d
       0.46067974 -0.3097044 -0.72355205 0.09700427
000110 ff f2 bd 3d f1 13 17 3f 1c d2 9e bf 05 99 06 3e
       0.092748635 0.59014803 -1.240787 0.1314431
000120 7b f2 79 bc 35 86 79 3c 8c 58 21 40 91 11 cf 3e
       -0.015255566 0.015229751 2.5210295 0.4044309
000130 c0 ff 32 3e 30 6f b4 be c5 9f d5 3c 73 0f 81 be
       0.17480373 -0.3524108 0.02607716 -0.252071
000140 28 86 1d bf 65 78 f2 3e 07 11 84 3f 23 d8 96 bf
       -0.6153283 0.4735748 1.0317696 -1.178471
000150 23 0b 05 ba ad ed 71 bc 9e c5 11 c0 f4 fb 96 be
       -0.0005075207 -0.014766139 -2.2776866 -0.294891
000160 41 8d c9 3e 00 58 e0 be 91 d4 c4 3f 6c 21 7a 3e
       0.3936558 -0.4381714 1.537737 0.24426812
000170 e2 02 fc 3e ac 62 ef 3e e9 ae 27 c0 61 c7 b5 3d
       0.4922095 0.46754968 -2.6200507 0.08875919
000180 c7 15 25 3a cf e5 0c 3c f1 fd 4a c0 55 91 62 be
       0.00062974956 0.0085997125 -3.1717494 -0.22125752
000190 ec f3 57 3f b0 9d a4 3e a5 6b 83 3e 4a 33 6b 3e
       0.8435657 0.32151556 0.25668064 0.22968784
0001a0 34 ca 47 be fe d8 05 be 4f 39 ff bf 9e cd b1 be
       -0.19510728 -0.13071057 -1.9939364 -0.34727186
0001b0 2b 56 e8 3b 80 ee 21 3e 6e 97 74 3e 42 28 96 3e
       0.00709035 0.15813637 0.23885891 0.2932759
0001c0 de 44 ab 3c 8c b0 52 3e d1 4c 4b 3f 33 84 96 bf
       0.020906862 0.2057516 0.7941409 -1.1759094
0001d0 6c 16 f4 3a f5 78 ab bb 29 e0 f6 3f 92 e6 2d 3e
       0.0018622405 -0.005232925 1.9287158 0.16982487
0001e0 2a c2 a2 3c a1 7f 0f 3d c1 7e 7d 3f 9e b7 30 3e
       0.019867975 0.035033826 0.99021536 0.17257544
0001f0 7d ea 42 be 50 6f c3 be 91 dc c2 bf f9 3e 95 be
       -0.19034763 -0.38170862 -1.5223562 -0.29149607
000200 fb ae 45 be 0f 79 91 be fa 89 17 bf 08 06 96 be
       -0.19305031 -0.28412673 -0.5919491 -0.29301476
000210 95 71 19 be 64 90 86 3d 56 cc 8b 3f 90 c5 1d be
       -0.14984734 0.06570509 1.0921733 -0.15407395
000220 fc 51 6c bb a4 e8 80 3c ea a2 0c 40 c6 85 4b 3e
       -0.0036059609 0.015735932 2.1974435 0.1987525
000230 ae 3c 47 3f 87 f7 62 3e 1b 47 b3 3f 50 69 99 bd
       0.77826965 0.22164737 1.4006075 -0.0749079
000240 eb cb 0b bf 2b 50 cc be eb 18 bb 3f 42 36 4d bd
       -0.5460803 -0.39904913 1.4616979 -0.050100572
000250 90 8b 13 bc f3 05 31 bd 37 70 1e c0 cb b9 de be
       -0.009005442 -0.043218564 -2.475599 -0.43501124
000260 11 86 15 be 59 29 f2 3d 33 5e d9 be 4d 7e d2 bf
       -0.14601924 0.11824293 -0.4245468 -1.6444794
000270 57 99 37 3f 65 5c 25 3d 26 04 35 bd 3e e6 8d bd
       0.71718353 0.040371317 -0.04419341 -0.06928681
000280 ec b5 fa bc bb f9 8a bd 6a 12 11 c0 18 6f da be
       -0.030604325 -0.067859136 -2.266749 -0.42662883
000290 65 f6 9c be 1e 9f 01 bf ce 26 25 bf 59 42 b8 be
       -0.30656734 -0.5063342 -0.64512336 -0.3598812
0002a0 e5 0d 4a be 2a b8 79 bd c9 93 fc 3f c6 cb 53 bf
       -0.19731863 -0.06096665 1.97326 -0.8273281
0002b0 0c 55 60 3f e9 79 02 3f 5e 16 85 bf f4 a9 3a 3e
       0.8762977 0.5096727 -1.0397451 0.18228894
0002c0 7e a9 6e 3e a5 cf 8d 3d 30 00 b8 bf 08 a6 80 be
       0.23306844 0.06924371 -1.4375057 -0.25126672
0002d0 51 3d 2c 3e 83 36 64 3e 8e d8 9b 3f d3 01 29 3e
       0.16820265 0.2228642 1.2175462 0.16504602
0002e0 be 37 f6 3d 14 ad 7a 3e 0f 4a 8a 3c bf 7f 1a 3b
       0.12022351 0.24480087 0.016881017 0.0023574678
0002f0 d5 ba 81 be e4 e5 94 bd 79 a9 e1 3f d2 39 3a 3e
       -0.25337854 -0.07270411 1.7629844 0.18186119
000300 4f 66 a5 3b 70 8d 3b 3c 34 4b 16 c0 93 48 02 be
       0.0050475965 0.011447296 -2.34834 -0.12722997
000310 23 6c 66 3e 43 bb 8b 3e 47 1b 6f bf fd 32 a5 3d
       0.22502188 0.27291307 -0.93400997 0.08066366
000320 04 cb 57 3e 89 d5 c1 3e 17 c5 a7 bf bf 72 2f be
       0.21073538 0.37858227 -1.3107022 -0.17133616
000330 65 87 c9 bc 44 bd 71 3e 1b c2 6a 3f e9 a1 00 3f
       -0.024600694 0.23607355 0.9170243 0.50247055
000340 21 d6 11 3f 0e bb 08 3d 14 89 ef be 01 2f 82 bd
       0.5696736 0.033381514 -0.4678427 -0.063566215
000350 36 5d d1 3d df ff 38 bd 75 a7 99 3e f9 1e b2 3d
       0.10222857 -0.045165893 0.30010572 0.08697314
000360 ac 30 8a be 37 27 e2 be 54 55 45 c0 e9 38 15 bf
       -0.2699026 -0.44170544 -3.083333 -0.58289963
000370 f1 19 66 bc a1 e7 bb 3e 35 38 a6 3f 91 b1 a5 be
       -0.014044271 0.36700156 1.2985903 -0.32362035
000380 ba c5 4e be 79 85 58 3d 93 33 ca bf 3c 64 91 be
       -0.20192614 0.052861664 -1.5796989 -0.28396785
000390 d9 fd a5 be 7a b1 8d bd 6e 05 38 3f 5a 59 18 3e
       -0.32420233 -0.069186166 0.71883285 0.14877835
0003a0 b5 07 0c bd c7 e7 e0 3d b2 0d d6 3f 78 a2 11 bf
       -0.034187037 0.10981708 1.672293 -0.5688853
0003b0 8b e0 df 3d 54 2c 02 bf 0e dc aa bf bd 9e 2b 3d
       0.109315 -0.5084889 -1.3348405 0.04189943
0003c0 e9 34 a9 3b 44 2a c6 3b b1 de 01 c0 86 a5 4b be
       0.005163778 0.006047519 -2.029217 -0.19887361
0003d0 c2 b8 0f 3f 8e 01 03 3e 25 e3 13 bf f0 36 c3 be
       0.56141293 0.12793562 -0.5776847 -0.3812785
0003e0 ef ed 27 be c5 06 a5 bd b2 86 89 bf 73 bb a4 3e
       -0.16399358 -0.08057932 -1.0744231 0.32174262
0003f0 b0 8b 35 3e 3c cd d5 bd 30 4d 1a bf 48 2d eb bd
       0.17729068 -0.10439536 -0.6027403 -0.11483246

layer1.bias f4 [128]
000000 21 5b 11 bf 7f 02 ad be 93 f1 b4 3e 19 11 c0 3d
       -0.56779677 -0.33790967 0.35340557 0.09378261
000010 03 04 e5 be d1 67 c9 3e 50 81 22 3f 67 60 cf be
       -0.44729623 0.39337018 0.63478565 -0.40503237
000020 5f df 3e 3f 0e 23 db be 6a bc 00 3f 60 cc 01 bf
       0.7455959 -0.42800182 0.502875 -0.50702477
000030 e4 9f 6d bf ee 3f 8d 3d 7d a6 14 3f 54 9e 96 be
       -0.928221 0.06896959 0.5806654 -0.2941767
000040 ed 24 65 3e 32 b8 0c 3e a6 a5 5d 3f 14 d8 22 3f
       0.22377367 0.1374214 0.86580884 0.6361096
000050 53 c3 90 be 5e ea e3 be 80 a8 ab be 20 55 04 be
       -0.2827402 -0.44514745 -0.33526993 -0.12923098
000060 d0 a1 13 bf 28 a2 82 bd 91 9e 9d be 97 c4 b8 3e
       -0.5766878 -0.06378585 -0.3078504 0.36087486
000070 34 4b ed bb a0 6b 02 3f 70 45 8c 3e eb 71 74 be
       -0.007241631 0.5094547 0.27396727 -0.23871581
000080 a9 8a bb 3e 5c 54 0c 3f b2 b2 c9 be 44 68 96 3e
       0.36629227 0.5481622 -0.39394146 0.29376423
000090 38 3f 7b bd 39 4c 68 3f 96 50 a3 bf 3b 4d ed be
       -0.061339587 0.90741307 -1.2758968 -0.46347985
0000a0 1b 90 55 3f 37 ad fe be c2 7e c1 3e 75 b5 21 3e
       0.8342301 -0.49741527 0.3779202 0.15791877
0000b0 eb 14 0c bf 2e f6 91 be 16 15 08 3f 6f 3a 16 3f
       -0.5471942 -0.28508133 0.53157175 0.5868291
0000c0 f2 38 f5 be a1 ef 38 be 70 d2 25 be f3 97 2d 3f
       -0.47895008 -0.18060161 -0.16193557 0.6780998
0000d0 d6 b8 01 be 0d 61 1f 3f 76 80 20 bf 3b ff ee 3e
       -0.12668166 0.6225746 -0.62696016 0.466791
0000e0 29 0f 28 3f 26 71 e3 3e ca ff cb 3e ab f5 d2 3e
       0.6564813 0.44422263 0.3984359 0.41203055
0000f0 e9 e5 c5 be a1 36 2c bf 7b 64 29 3e c0 0b 24 3f
       -0.3865197 -0.6727086 0.16542237 0.6408043
000100 e4 e6 bc be c3 b6 92 be 5e 4b cd 3e 07 30 3d 3f
       -0.36894906 -0.2865506 0.40096563 0.7390141
000110 6d b2 99 be 27 2f ca be 1d 27 63 bf e6 04 17 3f
       -0.3001894 -0.394891 -0.8873156 0.5899185
000120 72 5d 80 3e 7d cb 01 bf 54 22 a5 3e 0c 4a ad 3e
       0.25071293 -0.50701123 0.32252753 0.33845556
000130 eb ec 21 3f 7c ff 13 3f 48 43 df 3e 85 03 25 bf
       0.63252133 0.57811713 0.4360602 -0.64458495
000140 d8 53 e7 be b2 d9 2a 3f d5 e2 52 3f 96 5b 22 3e
       -0.45181155 0.66738427 0.8237737 0.1585525
000150 fb 4b 12 3e 29 ad 33 3f 83 ea 1d 3f ad aa 3d 3f
       0.14286797 0.70186096 0.6168596 0.74088556
000160 39 54 4f be ea 0e d0 3c 3f 8e 81 bf 5e 43 06 3f
       -0.20246972 0.025397737 -1.0121535 0.52446544
000170 ae 7b 0c bf e2 69 b0 be 2c e4 f2 3e da 55 02 bf
       -0.5487622 -0.34455782 0.47439706 -0.5091225
000180 f9 9f ba 3e 79 bb 93 3e 1d 28 96 3e 56 6b 1d bf
       0.36450174 0.28853968 0.2932748 -0.61491907
000190 f7 b4 30 3f 9d cc fe be de 2f de 3e 18 66 2a 3f
       0.6902613 -0.49765483 0.43395895 0.6656203
0001a0 56 ab 12 3f 0c b8 36 3e cb c1 1b 3f 24 99 58 3e
       0.5729269 0.17843646 0.6084258 0.21152169
0001b0 69 93 91 3d 04 57 26 3f e9 60 0d 3e 76 ea 10 bf
       0.071081944 0.64976525 0.138065 -0.5660776
0001c0 86 9d 39 3e 76 24 5a bf 50 bb 26 3f 8c b6 ca be
       0.18126497 -0.85211885 0.65129566 -0.39592397
0001d0 11 0a 18 bf e8 14 21 3e 04 b8 e8 3e 09 5d 84 bc
       -0.5939036 0.15730631 0.45452893 -0.016157644
0001e0 1b e9 a6 3e d3 dd f1 3e 46 84 bb 3e b6 93 b7 be
       0.3259972 0.4723955 0.36624354 -0.35854882
0001f0 7e da 10 be 09 32 b9 be 4b d5 da 3e b0 bb 10 3f
       -0.14145848 -0.36170986 0.42740855 0.5653639

layer2.weight f4 [128, 128]
000000 d7 a4 13 3f bb 36 db bd 19 d7 e7 3d e0 da fb 3d
       0.576734 -0.107037984 0.113203235 0.122976065
000010 94 43 b4 3e 59 54 d0 3e e4 d4 20 3e 8e 30 6e 3e
       0.35207808 0.40689352 0.15706211 0.2326071
000020 79 4a 57 bd 49 ea a1 be 7c 14 6d 3e 0a 09 3b 3e
       -0.052561257 -0.31624058 0.23152345 0.18265167
000030 0f 78 21 3f 49 18 83 3d 5f 6b af bb 84 9b a3 3e
       0.6307382 0.064011164 -0.005353376 0.31954587
000040 1a a2 8b 3b 12 d5 17 3e 42 a0 8b 3e e3 6b eb 3d
       0.0042612674 0.14827374 0.27270705 0.11495187
000050 a0 93 4e bd 4e ae 3e be b9 b4 4f 3e c2 76 9c 3e
       -0.050433755 -0.1862118 0.20283784 0.30559355
000060 46 46 40 3f d4 a1 50 bd de bb 0e 3f c9 51 34 3e
       0.7510723 -0.05093558 0.5575541 0.17609324
000070 2c be 5e bd f1 89 ba 3e f5 44 19 be b6 e2 6d 3e
       -0.05438058 0.36433366 -0.14967711 0.23231015
000080 84 b5 2b be 94 f0 cb 3d 84 df 37 bf a6 ef 82 3e
       -0.16768461 0.09957996 -0.7182543 0.25573462
000090 93 e2 14 3c 22 3b 58 3e 27 98 0d 3e 87 1a e7 be
       0.009087223 0.21116307 0.13827573 -0.45137426
0000a0 84 73 a9 3e 52 57 dc 3c ed 6f 1f bd 49 68 79 3e
       0.33095944 0.026897106 -0.0389251 0.24356188
0000b0 16 a4 39 3e 9f 7d b3 be d8 70 04 3e 6f 0c c9 bc
       0.18129 -0.3505678 0.12933671 -0.024542062
0000c0 ef af 07 bf ad 82 50 bf 78 9b 10 3e dd 08 87 3e
       -0.5300283 -0.81449395 0.14121807 0.2637395
0000d0 5a e1 8a be 51 b3 39 3e 1c 9c 2e 3f ac 81 fe bc
       -0.27125055 0.1813481 0.68206954 -0.031067692
0000e0 48 89 44 3e f4 63 84 3d 15 f0 57 3d d2 4a 9a 3d
       0.19192994 0.06464377 0.052719194 0.07533802
0000f0 33 49 62 3e da 7c 1e 3e 43 cc 19 bd 05 14 12 3e
       0.22098236 0.15477315 -0.037548315 0.1426545
000100 3b 44 40 3f d2 5f b9 be 9e 76 13 3e 2e 50 51 3e
       0.7510411 -0.36205918 0.14400718 0.20440742
000110 4d 80 01 3f ed 57 9f 3e 81 37 b0 3e 5f d1 90 3e
       0.50586396 0.3112177 0.34417346 0.28284737
000120 2a 36 a8 bd f8 c1 47 3e 92 b7 52 3e 5c b9 4e 3d
       -0.08213456 0.19507587 0.20577839 0.05046974
000130 20 66 22 3e 9a 03 04 3e 91 f4 17 3e 0d 5e 96 be
       0.1585927 0.12891999 0.14839388 -0.2936863
000140 4e cf 92 3d ba 49 29 3d 40 e0 90 3e 4b 53 8a 3e
       0.071684465 0.041330077 0.2829609 0.27016672
000150 3a 6e 98 be 61 a9 a2 3e 6d 2e 5f 3e cb 6c 07 3e
       -0.29771596 0.3176985 0.21795054 0.13225095
000160 b5 3f b6 be 93 b5 c0 be c9 50 55 be 58 68 23 3e
       -0.3559548 -0.3763853 -0.20831598 0.15957773
000170 f8 2c 23 3e 96 d9 82 3f 9c b4 2d 3e f4 a4 79 3e
       0.15935123 1.0222652 0.16963428 0.24379331
000180 6c 2c bd be 2a 22 3a bd bf 10 89 3d 1d e8 36 be
       -0.36947954 -0.045442738 0.06692647 -0.17861982
000190 67 c1 b2 3c 29 76 8e 3e 91 98 32 3e 89 00 bb 3d
       0.021820737 0.27824524 0.17441012 0.091309614
0001a0 aa e5 59 3e 1a b2 a1 3c 1e 46 1a 3e 5d 15 db 3d
       0.21279016 0.019738246 0.1506581 0.10697434
0001b0 7a be 9b be c7 ce 84 3d 4f cd 4c 3d 7f 05 05 bf
       -0.3041876 0.06484752 0.050000485 -0.5196151
0001c0 df c0 fe 3d c4 c5 f6 bd 94 44 45 3e 33 2e 82 3e
       0.12439131 -0.120494395 0.19264442 0.25425872
0001d0 03 75 0d 3e 07 71 d9 3d 34 0c c4 3d 7d f6 37 3e
       0.13814168 0.106172614 0.0957264 0.17965122
0001e0 f0 f9 e6 bc 81 35 1b 3e 76 82 4c 3d e4 ea ab bf
       -0.028195351 0.15157129 0.049929105 -1.3431058
0001f0 c1 48 0a 3e 50 e6 e5 3e 2b 63 a3 bd ad 76 b0 3e
       0.13504316 0.44902277 -0.07977899 0.34465542
000200 01 fb 2b 3f dd 0a b9 c0 16 ff 81 3e fd 6d 21 3d
       0.67179877 -5.782576 0.25389928 0.039411534
000210 0a e2 81 3f 25 83 d7 3e db d9 5c 3d 75 93 0b 3e
       1.0147107 0.42092243 0.0539187 0.13630469
000220 08 22 70 3e 27 c9 63 c1 63 c6 ea 3d 3c 9a 0d be
       0.23450482 -14.236609 0.114636205 -0.13828367
000230 05 8b e1 c0 c8 d3 81 be 85 5c 6d 3e e7 0a b3 3c
       -7.04822 -0.2535689 0.23179825 0.021855785
000240 aa c2 2d 3f 7f f0 9d 3e 8b 78 cb 3e ff 1e fd 3d
       0.6787516 0.30847546 0.39740404 0.12359428
000250 14 bd 9b bd 21 cc 92 3f 59 95 31 c0 21 85 27 3c
       -0.07604423 1.1468545 -2.7747405 0.0102246115
000260 c3 4c 71 3f da 59 83 bd c7 f6 ba be da 71 16 3f
       0.94257754 -0.06413622 -0.365164 0.58767474
000270 05 de 58 3d 7d c9 0b 3d b8 10 54 c0 60 f9 87 bd
       0.05294611 0.0341277 -3.3135204 -0.066393614
000280 2e 7c a1 3e 01 73 fc 3d 3d 01 6b c1 9a a2 5c 3e
       0.31540054 0.12326623 -14.687802 0.21546403
000290 62 81 bd bd 92 34 77 3e e3 d7 5d bd 94 d2 52 3e
       -0.092531934 0.24141148 -0.054160964 0.20588142
0002a0 7e 4f 0b 3e e3 55 f2 3d f5 8b 3f be 9a b6 09 3f
       0.13604543 0.11832788 -0.18705733 0.5379425
0002b0 96 6c 10 3d 7d 63 07 c1 a8 2d a4 3e 76 bb f1 3e
       0.035259806 -8.461789 0.32066083 0.47213334
0002c0 0f ee 48 3f 1b ee 05 3f b3 ac 93 3e e1 e9 9c 3e
       0.7848825 0.52316445 0.28842697 0.30647185
0002d0 65 c4 34 be a6 7e 9f 3e 0b fe a3 be 03 b8 74 3e
       -0.17653044 0.31151313 -0.32029757 0.2389832
0002e0 2b d5 0e 3e 79 c0 aa 3e 6e 7c 59 3e b6 b8 c6 3e
       0.13948505 0.3334997 0.21238872 0.38812798
0002f0 92 3d 77 3f c4 97 14 be ff c4 2c 3f c8 67 81 3e
       0.96578324 -0.14511019 0.6748809 0.2527449
000300 e6 fe 84 be 89 48 2b bf 00 78 ea 3e e5 76 ea 3e
       -0.25975722 -0.66907555 0.45794678 0.45793834
000310 99 e5 9a be 2f d3 b1 3f f0 c1 5b 3d 39 c1 df 3e
       -0.30253294 1.3892573 0.05365175 0.43702105
000320 d4 97 9e 3e ba 81 8d 3f fe 46 4c 3e 70 f7 bf 3e
       0.3097521 1.1055214 0.19948956 0.37493467
000330 71 32 d4 3e 1c ea 94 3e 3d b7 6b 3f 8e 00 ee 3e
       0.41444734 0.2908486 0.92076474 0.46484798
000340 8e 48 85 3b 94 0a 0a 3f 89 72 fa 3d d1 00 d0 3e
       0.004067487 0.5392239 0.12228877 0.40625623
000350 47 1a 37 bf 9d 73 48 3e 17 ce bd 3e e0 cb 6b 3e
       -0.7152447 0.19575353 0.37071297 0.23026991
000360 31 23 b4 3e 2e fd d6 3d 8f 2e 45 3e 68 99 19 3e
       0.351831 0.10497509 0.19256042 0.14999926
000370 7f 5b 17 3d bb 7d de be 07 11 f4 3e 64 9d 32 c1
       0.03695249 -0.434553 0.4766924 -11.163425
000380 99 d1 56 c0 44 a2 00 3d 59 8a 92 3e 9a 3e 4c bf
       -3.3565428 0.03140475 0.28621176 -0.7978302
000390 84 fa 0f 3f bd 62 04 bf 6a 73 50 3e 7a c6 82 3e
       0.5624163 -0.5171316 0.20356527 0.2554205
0003a0 f2 84 a9 3e 2f a0 10 3f c0 2f 55 3e f4 ae c5 3e
       0.33109242 0.5649442 0.20818996 0.3861004
0003b0 dc 9b 77 3d f8 75 81 3e 9e c7 bf 3d cc 5e 08 3f
       0.060451373 0.25285316 0.09364246 0.5326965
0003c0 d8 f2 b7 3c ac 81 1e 3f 66 df 34 3e f8 34 2f 3c
       0.022454664 0.61916614 0.17663345 0.010693781
0003d0 b3 53 34 be 74 0f aa 3e 42 4f 0f 3e 81 8d a1 bd
       -0.17610054 0.33214915 0.13995078 -0.07888318
0003e0 fc c1 a5 3e 85 91 b1 3e 86 41 b5 3e b3 b9 02 c1
       0.3237456 0.34681335 0.35401553 -8.170337
0003f0 77 64 43 3e 0e 77 07 be 23 08 ff be bf 48 d7 3e
       0.19081293 -0.1322901 -0.49810895 0.42047688

layer2.bias f4 [128]
000000 f0 40 00 3e 7b a2 a8 3e 7f 0d ae ba 6f 4e 02 3a
       0.12524772 0.32936463 -0.0013279169 0.0004970794
000010 99 58 9d 3e ef 30 01 3d 5d 30 95 3c af 6e 42 3e
       0.30731657 0.031540807 0.018211538 0.18987535
000020 87 0b 4e 3e c2 09 41 3e 45 0f a9 3e 40 ca 85 bd
       0.20121585 0.18851379 0.33019462 -0.06532717
000030 65 ff ff 3d 86 77 23 bd 7c ca 6b 3c 4c 6e 0b 3e
       0.124998845 -0.03990891 0.014391538 0.13616294
000040 6f d2 b8 3d 30 57 15 be 9d 4e 95 3d d0 ad db 3d
       0.09024512 -0.1458404 0.07290385 0.107265115
000050 2c 52 85 3c c0 0f ae 3d 74 67 62 bd 7f f0 c7 bd
       0.016274534 0.08499098 -0.05527444 -0.09762668
000060 e5 e1 7a 3e 4a fb 1e 3d bf 10 b9 3d b7 70 12 3e
       0.24500234 0.038813867 0.09036397 0.1430081
000070 e3 f2 a6 3e c7 12 98 bd 1a b8 27 3e 26 0e 37 3e
       0.32607183 -0.074254565 0.16378823 0.17876491
000080 fc c7 34 bc 14 e2 01 be 1c 52 89 3e 57 73 3c 3e
       -0.011034008 -0.12683898 0.26820457 0.18403374
000090 3b 86 b2 3d 06 dd 3a 3e 47 a4 52 3d c0 b9 d6 3c
       0.08717009 0.18248376 0.0514262 0.02621162
0000a0 cb 23 2b bd 1d 74 1f 3e 4e 6d 6c 3d f1 15 5e 3e
       -0.04178218 0.15571637 0.05772143 0.21688057
0000b0 75 56 07 3e e9 75 28 3c 5c b5 a9 be 05 89 f0 3d
       0.13216574 0.010282018 -0.3314618 0.117448844
0000c0 85 ce 2d 3e 15 fb 03 3d aa 69 75 3d 11 f7 52 bd
       0.16973312 0.032221872 0.059915222 -0.051505152
0000d0 16 0e f1 3d c0 03 4b 3e 30 ef 33 3e e2 6e 6e bd
       0.11770265 0.1982565 0.17571712 -0.058211215
0000e0 32 85 3d bd 18 9b bb bd b8 07 ee bd bb 98 83 bd
       -0.046269603 -0.09160441 -0.11622566 -0.064256154
0000f0 51 c6 4a 3c 2c 19 1c 3e c7 0e f7 3d 96 97 1c bd
       0.012376384 0.15243977 0.120633654 -0.0382305
000100 39 19 2d 3e 35 04 8c 3e d5 80 22 3e 77 7d fd 3d
       0.16904153 0.2734696 0.15869458 0.12377446
000110 5f bb b7 3d 4c 45 3e 3e 87 88 8b bb df 60 b3 bc
       0.08971285 0.18581122 -0.0042582187 -0.021896778
000120 82 47 be 3d 98 a6 e0 bc b5 4d bb bc 96 2e 54 3d
       0.09290983 -0.027423188 -0.022864202 0.05180224
000130 9f 3a 9b 3e fe db 40 3e b0 61 02 3e 88 08 58 bd
       0.30318162 0.1883392 0.12732577 -0.05274251
000140 5f 68 38 3e 75 42 89 3d ca cd e5 3d 65 bd 61 3d
       0.18008564 0.06702129 0.11220892 0.05511226
000150 ab d9 0a 3e 4b ac 71 3c ba ba 62 3e df 2a 06 3e
       0.13559596 0.0147505505 0.22141543 0.13102292
000160 d6 2f 5d be a4 65 37 3e 9f 7e 3a 3e 4a bc 2a 3c
       -0.21600279 0.17909867 0.18212365 0.010420868
000170 4d 19 6e 3e 73 88 8a 3e e8 01 49 bd 07 4a 9c 3b
       0.23251839 0.27057227 -0.049074084 0.004769567
000180 c3 4f bc bc 72 81 a2 3e 27 4a 8a 3d e6 ac 3e 3e
       -0.022987252 0.31739384 0.06752425 0.18620643
000190 bb 54 06 3e 4f 0e 98 3c 28 7b f6 3d 58 b6 ad bc
       0.1311826 0.01856151 0.12035209 -0.021205112
0001a0 3b e0 c1 3d d0 81 b4 3d 7f fd 3d 3e 6b e6 62 3d
       0.09466597 0.08813822 0.18553732 0.055395525
0001b0 48 c3 20 be 2e 1f 28 3d 9e 56 d3 3d 33 79 b5 3c
       -0.15699494 0.04104536 0.10319255 0.022152519
0001c0 7c e8 9a bb 1a 7f 39 3e bb a9 9e 3c 8c df 8b 3c
       -0.0047274213 0.18114892 0.019368043 0.017074369
0001d0 ff 63 c3 3d e3 2a d5 bd 1d f4 42 3e f2 98 57 bb
       0.09540557 -0.104085706 0.19038434 -0.003289756
0001e0 05 9e 76 bb bd 7f a4 3e a4 0a a0 bc 5f 44 74 bd
       -0.0037630808 0.32128707 -0.019536324 -0.059635516
0001f0 69 7b 74 3e 6b 32 35 bd 2a 6f 30 bd 86 8e c4 3d
       0.23875202 -0.044237535 -0.043074764 0.09597497

value_function.weight f4 [1, 128]
000000 e3 9f c8 3e e4 f4 55 bf 25 a9 93 3f be 37 2d 3c
       0.39184484 -0.835768 1.1535994 0.010572372
000010 8d 0b 8e 3f f6 7f 39 bf b7 81 fb bf be b7 b6 3e
       1.1097275 -0.7246088 -1.9648961 0.3568706
000020 bf 5f c2 3e 42 c2 d2 3e 4f fd 97 3f 3d fa 9a 3d
       0.37963673 0.41163832 1.1874179 0.075672604
000030 8e fc aa 3f 7f 17 14 3d ff d9 11 3d 7e 3c 96 3e
       1.3358324 0.03615522 0.035608288 0.29343027
000040 b3 8f 00 40 4d 62 3b c0 7c d4 f2 3f 9f 76 d8 3e
       2.0087707 -2.9278748 1.8971095 0.42278
000050 f3 ec de be a8 13 dc 3e e3 bd 81 3c 11 36 99 bc
       -0.43540153 0.42983747 0.015837615 -0.018702539
000060 2b 32 a1 3e d1 49 c7 bf fa 4c 4d c0 6c 91 43 3f
       0.31483588 -1.5569402 -3.2078233 0.7639377
000070 8c a7 84 3f 92 bd 47 bc 8b 46 bc 3e 2d 02 ef 3e
       1.0363631 -0.012191193 0.3677257 0.46681347
000080 7a 88 a7 bd ce bf a4 bf 07 85 97 3f 43 08 a1 3e
       -0.08180328 -1.2871034 1.1837472 0.31451616
000090 23 af c9 3f a4 b7 f1 3e 9d 73 ea bf 95 a5 48 bd
       1.5756572 0.4721042 -1.8316532 -0.048986036
0000a0 c4 43 a2 bf a4 12 fb 3e 8c 4b d6 3e 1c eb f4 3e
       -1.267693 0.4903766 0.41854513 0.47835624
0000b0 27 25 d9 3e 58 5f 21 bf 93 a4 14 40 fc 78 b5 3e
       0.42411157 -0.6303611 2.3225448 0.35443866
0000c0 d8 5e 8a 3d 0b a9 c8 3e 50 4f b1 bc a2 93 eb bf
       0.06756371 0.3919147 -0.021644264 -1.8404429
0000d0 fa 05 a6 3e 82 29 eb 3e d2 6e 87 be fc d7 2b bd
       0.32426435 0.45930105 -0.26451737 -0.041954026
0000e0 cd bd a2 c0 84 fd f0 bf 25 63 46 c0 97 0d 41 c0
       -5.085669 -1.8827367 -3.0998013 -3.0164545
0000f0 0b ad 4d c0 ef e5 95 3e cc 05 c4 3e 9a 6e 43 bd
       -3.2136867 0.29276988 0.38285673 -0.0477129
000100 76 e8 57 be e1 dd 09 bf 7d 05 db 3e 4b d8 dd 3f
       -0.2108477 -0.53854185 0.42777625 1.7331632
000110 8e f9 38 bf 96 a0 a1 3e f2 e5 83 bd 67 71 82 bd
       -0.7225579 0.3156783 -0.06440343 -0.06369286
000120 73 67 b0 3f d4 0a 06 c0 73 11 50 40 39 35 19 bd
       1.378157 -2.094411 3.251065 -0.037404273
000130 18 1d 39 3f 76 39 be 3e 01 ee b4 3e 1d 83 6e 3c
       0.7231002 0.37153214 0.35337833 0.014557627
000140 7f 44 61 3f 7f 92 24 3e 92 b7 5f bf e0 a0 c3 3e
       0.8799514 0.16071509 -0.8738948 0.38208675
000150 29 bd ed 3e 6f 03 c4 bc ae 18 93 3f c2 d2 be 3e
       0.4643338 -0.023927419 1.1491907 0.3727017
000160 3c 57 15 c0 e4 32 95 bf 47 e0 83 3f 0f 6f c0 c0
       -2.3334494 -1.1656156 1.0302819 -6.013557
000170 e2 89 16 3e 3f 83 86 3f 1e 0b ab bf ea 09 29 bd
       0.14701036 1.0508803 -1.3362768 -0.04126922
000180 b9 07 36 3b 01 ed eb be 11 6e bf 3e d6 18 e6 3e
       0.00277756 -0.46079257 0.37388662 0.44940823
000190 75 02 ba 3e 87 1e d4 bc 07 96 ce 3e 24 37 09 bd
       0.3633 -0.025893463 0.40348837 -0.03349985
0001a0 0f 25 b9 3e e7 ab 9a bf 1f bd 90 3f 07 20 1a 3d
       0.36161086 -1.208371 1.1307715 0.0376282
0001b0 bd fc 47 c0 4d 6f d6 bc fb 0e ca 3e 1f 19 95 3e
       -3.124801 -0.02617612 0.39464554 0.29120728
0001c0 ec fa 9b 3d 75 69 1c bf a2 c3 e6 bf e9 0d e1 bf
       0.07616219 -0.61098415 -1.8028452 -1.758237
0001d0 aa 1c 4e c0 ee eb 50 c0 eb dc b1 3e a2 b8 0a bd
       -3.2204995 -3.2644 0.3473886 -0.033867486
0001e0 d6 a9 dc bf b2 1c b3 3f 71 65 ff 3e 4f 79 f5 3b
       -1.723933 1.3993132 0.4988208 0.0074912678
0001f0 5b d9 fc be 15 9b 16 c0 55 dc 25 c0 0e e5 e9 3e
       -0.4938458 -2.3532155 -2.591573 0.45682567

advantage.weight f4 [2, 128]
000000 f1 45 bd 3c 18 a9 70 3f 84 b1 87 be f3 69 d1 bd
       0.02310464 0.94008017 -0.2650262 -0.10225286
000010 2b 97 27 be 19 d1 42 be c0 41 fa be 59 37 27 3e
       -0.1636626 -0.19025077 -0.48878288 0.16329707
000020 44 90 06 bd 24 95 b1 3d 08 de 1d 3d 60 a8 5c 3d
       -0.032852426 0.086710244 0.038541824 0.053871512
000030 a3 07 5d be 9a 61 85 3d 14 fa c5 bc 88 e2 82 bf
       -0.21584944 0.06512757 -0.024167098 -1.0225382
000040 ed 1d ea bd be 30 f3 bd e7 aa 9f be 34 05 80 3c
       -0.11431489 -0.11874531 -0.31185076 0.015627481
000050 fa 0f 2a bf 34 1f 91 3d 21 d5 b0 3d b1 39 85 3d
       -0.6643063 0.0708603 0.08634401 0.065051444
000060 77 2f 7f bf 90 4b 85 3d 88 d6 c7 bf 1c d8 05 bf
       -0.996818 0.06508553 -1.5612345 -0.5228288
000070 5f 85 a0 3d 70 ac 51 3c 61 15 8d 3c c9 5f 73 bb
       0.078379385 0.01279746 0.017222108 -0.003713595
000080 1e 69 30 bc a2 95 5d 3f 39 e9 ad 3c 75 2e 35 3e
       -0.010767249 0.86556447 0.021229373 0.17693503
000090 b8 ac 62 3e d0 01 23 3e 25 09 0e bf 88 1d 7c 3d
       0.221362 0.1591866 -0.55482703 0.0615516
0000a0 28 2c b3 3e eb a4 8b 3d ff 07 b2 bd ee a0 d2 bb
       0.34994626 0.06818565 -0.086929314 -0.0064278757
0000b0 8e 5a 43 3d 2e ef 50 3f 42 5b ca 3f 53 41 15 3d
       0.04769378 0.8161496 1.58091 0.03643925
0000c0 2f 92 7b bf 5f 59 e2 be 11 0d ee 3c 7a 67 95 3f
       -0.98269933 -0.4420881 0.029058965 1.1672204
0000d0 dd 0f e1 3d 74 5c 4a bd 13 c0 df 3f a5 81 41 3c
       0.10989354 -0.049404576 1.7480491 0.011810695
0000e0 c5 56 55 3f a5 51 08 3e ab ba ae 3f 7b 7e b7 3f
       0.83335525 0.13312395 1.3650717 1.4335474
0000f0 a9 9c b1 bf d6 ba 31 3e c1 64 56 bc c8 d8 c7 bd
       -1.3875934 0.17356429 -0.013085545 -0.097581446
000100 ce c5 7b 3f 9d 23 86 bf 44 b0 69 3d 3a ff 0b 3e
       0.983487 -1.0479618 0.057052866 0.1367158
000110 ad 01 25 3f c0 1b 5f 3e 91 d2 8d 3c fd e0 c8 3b
       0.6445568 0.2178793 0.01731232 0.0061303363
000120 74 7e 18 3f 76 5d e5 3f 57 2f 8e 40 25 dc 9e bd
       0.5956795 1.7919147 4.443279 -0.07756833
000130 b7 5d 4a 3f 0a d9 7a 3d 9f e1 0f 3e a9 38 3d 3c
       0.7904925 0.06124214 0.14050911 0.011549153
000140 2b b9 98 3e 06 1a a7 3e 5b f6 3a bf 95 e1 08 3e
       0.29828772 0.32637042 -0.7303216 0.13367303
000150 28 09 41 3d 39 23 f8 3c fd a1 31 3d cb 5d 67 3d
       0.047127873 0.030290233 0.043367375 0.056485932
000160 9b 6c 89 3e fb df 1a c0 97 6c 5d be 14 b6 34 c0
       0.26840672 -2.4199207 -0.21623455 -2.8236132
000170 fa 0b 97 3f 0e c1 12 3f 6c 05 57 3d b6 89 18 bd
       1.180053 0.5732583 0.052495405 -0.037240706
000180 9d 6d 72 bd 98 a6 84 bf df 03 76 bd 65 93 4e bd
       -0.059186567 -1.036334 -0.060062286 -0.050433535
000190 d5 e7 cc 3d 30 a9 3f bd 08 ed 5f 3d 93 c7 61 3d
       0.10005156 -0.04679221 0.05466941 0.05512197
0001a0 47 be 9d 3c e0 00 e8 bd 5a e0 ed bd 8a e0 69 bd
       0.01925577 -0.11328292 -0.11615057 -0.057098903
0001b0 c1 83 94 3f 0f 4f 08 bd ec 7b 22 3e 6b 33 90 3e
       1.1602708 -0.03327852 0.15867585 0.2816423
0001c0 d2 4b 84 3c e7 27 89 bf 3a 1a ca bf 31 92 e8 be
       0.016149435 -1.0715302 -1.5789254 -0.45424035
0001d0 d2 ae bc bf 68 df 24 3f d2 23 2f 3e 61 ca b4 3b
       -1.4740851 0.6440339 0.17103508 0.0055172895
0001e0 e1 35 f7 3d 63 77 b1 be 27 50 0d be cd 3e 5e 3d
       0.120708235 -0.34661397 -0.13800107 0.05425911
0001f0 1a 41 73 bf 07 1a fa bc 60 6c 00 bf a0 94 bf 3d
       -0.9502121 -0.030529989 -0.5016537 0.0935452
000200 24 cd dd bd de 2f 61 bf 23 47 6d 3e e9 df 62 3c
       -0.10830143 -0.87963665 0.23171668 0.01384733
000210 c7 cc e7 3d f7 83 6e 3e 50 59 14 3f 67 1c 4f be
       0.11318355 0.23292528 0.5794878 -0.20225678
000220 9f 2b 62 bc d7 e1 ee bc a2 fb c5 3c e8 db 8d bd
       -0.013804345 -0.029160423 0.02416784 -0.069267094
000230 07 8c 26 3e 7f 24 95 bb 03 f0 2b bc 5c 98 8c 3f
       0.16264354 -0.00455147 -0.010494235 1.0983996
000240 0b 49 a0 3d 93 ca e1 3b ec e4 8d 3e 79 13 d9 bd
       0.07826432 0.006890604 0.27713716 -0.10599417
000250 da 37 24 3f 92 72 57 bd f7 94 7b 3c e0 8b 31 bc
       0.6414772 -0.052599497 0.01535534 -0.010836571
000260 0d 8a 81 3f b2 b7 16 be da bc c9 3f 0e fb 11 3f
       1.0120255 -0.14718512 1.5760758 0.57023704
000270 61 a6 1b be 25 05 09 3d a5 f0 ca bd a6 93 ce bd
       -0.15200187 0.03345217 -0.099091806 -0.100867555
000280 b1 30 d2 bc 4e e4 3c bf c5 6b 06 3d bb 66 d3 bd
       -0.025657983 -0.73785865 0.03281762 -0.10322329
000290 7e c5 93 be 8a 4f 18 be 29 b9 19 3f 11 de 2a 3d
       -0.28861612 -0.14874092 0.60048157 0.041715685
0002a0 0c 1b af be 01 77 cf bd d0 75 69 3d 3c 13 8a bd
       -0.34200323 -0.1013012 0.05699712 -0.0674195
0002b0 a9 60 10 3c 98 92 66 bf 7c 01 bf bf 95 59 04 be
       0.008812108 -0.90067434 -1.4922328 -0.12924798
0002c0 51 22 75 3f 59 44 ed 3e 3c 1b 7f 3d 1a 86 94 bf
       0.9575549 0.46341208 0.062281832 -1.1603425
0002d0 3b 23 ec bd 7b 93 20 3c 3b 3b df bf 04 55 85 bc
       -0.11530157 0.009800787 -1.7439951 -0.01627589
0002e0 ab e4 35 bf df 1e 4c be eb 0a ad bf 45 fe b6 bf
       -0.71052045 -0.19933651 -1.3518957 -1.4296347
0002f0 21 33 aa 3f 39 91 f8 bd 29 05 cb 3b 06 3c 18 bd
       1.3296853 -0.12137074 0.0061956835 -0.037166618
000300 d2 54 72 bf 3b d0 75 3f 87 78 13 bc 0b c9 f4 3c
       -0.94660676 0.9602086 -0.009000904 0.029881021
000310 85 6e 43 bf d7 80 d8 bd d3 4b 7e 3d 4b d4 8a bd
       -0.76340514 -0.10571449 0.06208403 -0.06778773
000320 ca f8 1c bf c8 c0 e1 bf 23 7e 90 c0 1d 0a 4e 3d
       -0.6131712 -1.7636957 -4.5153975 0.050302614
000330 1d ea 35 bf 35 91 35 be 50 b2 c1 bc af db 1d 3c
       -0.71060354 -0.17731173 -0.023644596 0.009634896
000340 2b 2a b7 be 03 d6 6e be 75 b7 3d 3f 69 7a 0a be
       -0.3577436 -0.23323826 0.7410806 -0.13523258
000350 b7 19 b2 bd 8b 68 86 bd d2 70 57 be 0d a1 77 bd
       -0.08696311 -0.06562909 -0.21039131 -0.060456324
000360 75 19 a7 be f7 17 18 40 fa 09 85 3e b7 f2 35 40
       -0.3263661 2.3764627 0.25984174 2.8429391
000370 6a f9 98 bf 96 72 25 bf 86 57 22 bd 85 da 9a 3a
       -1.1951115 -0.6462797 -0.03963425 0.0011814391
000380 e2 35 99 bd 6d f5 76 3f 5f ab 37 3d 8f c7 1d bc
       -0.074809805 0.9646824 0.044841167 -0.009630098
000390 b9 bd 24 bd e0 b3 95 3d 53 07 b5 bd 86 d5 97 bc
       -0.040219996 0.07309699 -0.088392876 -0.018534433
0003a0 7c 89 29 be c2 ac 7f 3e 5e a4 17 3d a9 68 31 bd
       -0.16556352 0.24968246 0.037021987 -0.043312702
0003b0 92 a5 8a bf fd 0b 46 bd c5 b2 97 bd e3 01 0c be
       -1.0831778 -0.048351277 -0.074071445 -0.13672595
0003c0 59 2f 20 3d 75 51 86 3f 24 d5 c7 3f 7f 87 05 3f
       0.039107654 1.0493609 1.561192 0.52159876
0003d0 b4 4b ca 3f 78 5f 35 bf e2 76 09 be 10 8d bd 3d
       1.5804353 -0.708488 -0.13424256 0.09255421
0003e0 a0 b2 0b bc 5b 6d ac 3e a1 66 42 3e ce 35 8d 3c
       -0.008526474 0.33677182 0.18984462 0.01723757
0003f0 8e b1 76 3f a8 2e e0 3d 48 98 0b 3f 80 44 12 be
       0.96364677 0.10946399 0.5452924 -0.14283943

advantage.bias f4 [2]
000000 eb 17 fa 3c 5a 53 38 3d
       0.030528983 0.045001365
