Weights/cartpole_model_weights4.pth (torch, 19304 bytes, 5 tensors)

layer1.weight f4 [512, 4]
0	0x3e1e6cb4	0.15471154
1	0xbe30c526	-0.17262706
2	0xc0a5ea27	-5.184833
3	0xbf5875d9	-0.8455482
4	0xbd6ac40c	-0.05731587
5	0x3df215dc	0.118205756
6	0x4073585e	3.8022685
7	0x3f19109c	0.5979097
8	0x3ce8cf9a	0.028419305
9	0x3c99eca7	0.018789602
10	0xc0855f36	-4.1678724
11	0xbec16b4a	-0.37777168
12	0xbe422a25	-0.1896139
13	0xbe3586ee	-0.17727253
14	0xbe825e88	-0.25462747
15	0x3b5e166b	0.0033887874
16	0x3d7c62ca	0.06161765
17	0x3df48cb2	0.11940898
18	0xbf37c7b3	-0.7178909
19	0xbf008cd6	-0.502149
20	0x3e48c640	0.19606876
21	0x3f93909d	1.1528507
22	0x3fca4936	1.5803592
23	0x3f4054d4	0.7512944
24	0xbf314a1a	-0.69253695
25	0xbf2a8ee0	-0.6662426
26	0xbf62e61e	-0.8863238
27	0xbeeb3706	-0.45940417
28	0xbe1cfffe	-0.15332028
29	0xbd5643ac	-0.05231063
30	0xbedc4a9e	-0.43025678
31	0x3f40e9e7	0.75356907
32	0xbe0b19c3	-0.13584046
33	0xbe31a4b0	-0.1734798
34	0xbe769604	-0.24080664
35	0xbea5d151	-0.32386258
36	0xbea51b74	-0.32247508
37	0x3ece52d2	0.40297562
38	0x3ec7135d	0.3888196
39	0x3e655179	0.2239436
40	0x3e1b9a2d	0.15195532
41	0xbe23e6c0	-0.16005993
42	0xc0850e63	-4.158006
43	0xbf1de74a	-0.61681044
44	0xbe571714	-0.21004897
45	0xbde4e623	-0.111767076
46	0x3f570436	0.839908
47	0x3f21e205	0.63235503
48	0xbd6741d3	-0.05645926
49	0x3e31db1f	0.17368744
50	0x3f4b8a29	0.7950769
51	0x3f3f890e	0.74818504
52	0x3db9f803	0.090805076
53	0x3deb590e	0.11491595
54	0x3d9d02ce	0.076665506
55	0xbf066d0b	-0.52510136
56	0xbf78e405	-0.9722293
57	0xbf53c681	-0.8272477
58	0xbf99e7c8	-1.2023859
59	0xbe6c681d	-0.23086591
60	0x3d98bae7	0.07457524
61	0x3e03bb15	0.12864335
62	0xbe8fa90e	-0.28058666
63	0x3e321de0	0.17394209
64	0x3e283bff	0.16429137
65	0xbde7b5ce	-0.11313973
66	0xbea5cb15	-0.32381502
67	0x3dd53b50	0.104117036
68	0x3d545acd	0.051844407
69	0x3e8b25d5	0.271773
70	0xbe579c95	-0.21055825
71	0xbca0230f	-0.019547967
72	0x3ef198a4	0.47186768
73	0x3f7d9633	0.9905731
74	0x404cdc42	3.2009435
75	0x3f7e61e8	0.99368143
76	0xbf081d37	-0.5316958
77	0xbf9474a1	-1.1598092
78	0xc000b5cd	-2.0110962
79	0xbf59a2be	-0.8501395
80	0x3e0fc7c1	0.14041044
81	0xbea39665	-0.3195068
82	0xc09d1ff3	-4.91015
83	0xbf88e962	-1.0696223
84	0xbcafb8c3	-0.021450406
85	0xbd58c751	-0.052924458
86	0xc07a4de8	-3.911005
87	0xbf0106e0	-0.50401115
88	0x3e7ae23f	0.24500369
89	0x3bb62613	0.005558738
90	0x3f46a3f2	0.7759391
91	0x3f176676	0.5914072
92	0x3e08a46b	0.1334397
93	0x3dd8726c	0.10568699
94	0xbea0cbe3	-0.31405553
95	0xbe4c0c13	-0.19926481
96	0x3daa73f5	0.08322898
97	0xbd91bf13	-0.07116523
98	0xc08c1202	-4.377198
99	0xbf030c05	-0.51190215
100	0x3e2d7ad0	0.1694138
101	0x3dfd9cea	0.123834446
102	0xbda37323	-0.07980945
103	0xbce48aba	-0.027898181
104	0xbe957efb	-0.2919844
105	0x3be6a492	0.0070386613
106	0xbe7400b9	-0.238284
107	0xbe3178a1	-0.17331173
108	0xbce7d1cf	-0.028298287
109	0x3db14998	0.08656615
110	0x407eaae7	3.979181
111	0x3efcf603	0.49406442
112	0xbe8e1c4a	-0.27755958
113	0x3ed28246	0.41115016
114	0x3fcb99e9	1.5906345
115	0xbcffb33a	-0.031213392
116	0xbec07cef	-0.37595317
117	0x3e554579	0.20827283
118	0x3f977f88	1.1835794
119	0x3f11177d	0.56676465
120	0x3e00a5e7	0.12563287
121	0xbca4fe51	-0.020140799
122	0xbe9c0f26	-0.30480307
123	0x3e66c10d	0.2253458
124	0xbf80b6a5	-1.0055739
125	0xbf02f77c	-0.5115888
126	0x3d1fae88	0.038984805
127	0xbec38706	-0.38188952
128	0xbf64685c	-0.8922174
129	0xbebe4e00	-0.37168884
130	0x3f4ebf86	0.8076099
131	0xbebbf9a1	-0.3671389
132	0xbf50b515	-0.8152631
133	0xbe4f7845	-0.20260723
134	0x3eedef54	0.46471655
135	0xbe94f0bd	-0.2908992
136	0xbcabd5a0	-0.020975888
137	0x3d97ba1b	0.07408544
138	0x408538cd	4.1631837
139	0x3efef359	0.49795035
140	0x3f4c01cb	0.79690236
141	0x3f027c60	0.5097103
142	0x3e19642c	0.14979619
143	0xbea94708	-0.33062005
144	0xbf62872d	-0.8848751
145	0xbebbe30c	-0.3669666
146	0x3f219b83	0.6312792
147	0xbec0731d	-0.37587824
148	0xbf3789f8	-0.716949
149	0xbf62af71	-0.8854895
150	0xbfdb6450	-1.7139988
151	0xbf16b658	-0.58871984
152	0x3f2faf41	0.6862679
153	0x3ef3fd39	0.4765413
154	0x3fdfdd0c	1.7489333
155	0xbe623798	-0.2209152
156	0x3e8ac281	0.2710152
157	0xbebfd012	-0.37463433
158	0xbdc5963d	-0.09647796
159	0xbe8008f7	-0.2500684
160	0x3d5d0473	0.05395932
161	0xbd04ff49	-0.03247002
162	0xc08438cd	-4.1319337
163	0xbee39493	-0.4444929
164	0xbc8debb6	-0.01732431
165	0x3d7e2c74	0.062054113
166	0x4073249e	3.79911
167	0x3ee215de	0.44157308
168	0xbf87a31f	-1.0596656
169	0xbf1b5702	-0.6067964
170	0xbf196a90	-0.59928226
171	0xbeba242f	-0.3635573
172	0x3f017ac9	0.5057798
173	0x3f896a63	1.0735592
174	0x40054beb	2.0827587
175	0x3ee67e56	0.45018262
176	0xbd9da7b7	-0.07698005
177	0xbe5373d5	-0.20649655
178	0x3ed397c2	0.4132672
179	0xbee74668	-0.45170903
180	0x3d5a0fe6	0.05323782
181	0xbc8c2fe5	-0.017112682
182	0x4084dff9	4.1523404
183	0x3ee6f69a	0.45110017
184	0xbf5db79a	-0.8660828
185	0xbe85f966	-0.26166838
186	0x3d38414b	0.044984143
187	0xbdd9527f	-0.10611438
188	0xbcde6a1e	-0.02715021
189	0x3ddacea2	0.10683943
190	0x40814e8d	4.0408387
191	0x3f164eda	0.5871407
192	0xbe8b5544	-0.2721349
193	0x3d160036	0.036621295
194	0xbd9d7855	-0.07688967
195	0xbdd93a62	-0.10606839
196	0xbe8fc0f3	-0.28076896
197	0x3e215120	0.15753603
198	0xbdefb6f3	-0.11704817
199	0x3e059996	0.1304687
200	0xbcb8d8bc	-0.022564285
201	0x3c084681	0.008317591
202	0xc08cad4d	-4.396155
203	0xbf01132d	-0.50419885
204	0xbe9782c0	-0.29591942
205	0x3ea301f0	0.31837416
206	0xbda759e8	-0.08171445
207	0x3eea985d	0.4581937
208	0x3f6172c4	0.88065743
209	0x3f19c922	0.6007253
210	0x3f2b3db0	0.66891
211	0x3ed895b5	0.42301717
212	0x3dd7c867	0.105362706
213	0xbe0cd285	-0.13752182
214	0xbe15e7c8	-0.14639199
215	0x3d2472d9	0.04014859
216	0xbf2afbd2	-0.667905
217	0xbf8eb94a	-1.1150296
218	0xbff550d4	-1.9165292
219	0xbf367045	-0.7126506
220	0xbea57e46	-0.323229
221	0x3e96b2cc	0.29433286
222	0x401bc4e1	2.4338915
223	0x3f4963b4	0.7866776
224	0xbed334bc	-0.4125117
225	0x3e4399dc	0.19101661
226	0xbe63ac37	-0.22233663
227	0x3c757a61	0.014982791
228	0xbe0884cf	-0.13331912
229	0x3e0ff571	0.14058472
230	0x3f371024	0.71509004
231	0x3f3cf3b2	0.7380935
232	0x3ed9c680	0.42534256
233	0x3f216381	0.63042456
234	0x3fb9c6ca	1.4513791
235	0xbeb4692a	-0.35236484
236	0x3f9146d2	1.1349738
237	0x3e2bb350	0.16767621
238	0xbe9b3013	-0.30310115
239	0x3e54a9e9	0.2076794
240	0xbccc90ef	-0.024971453
241	0x3e8389a5	0.25690952
242	0xbce8f810	-0.028438598
243	0x3d4a0b57	0.04932722
244	0x3e7ecec4	0.24883562
245	0xbee6d397	-0.45083305
246	0x3ea9865d	0.33110324
247	0xbefacadf	-0.48982903
248	0x3ad5a1a6	0.0016298785
249	0xbe111a40	-0.1417017
250	0xbeac849b	-0.3369492
251	0x3e0dd19a	0.13849488
252	0x3fa81bf9	1.3133537
253	0xbeb31fea	-0.34985286
254	0xbf874021	-1.0566446
255	0x3da99134	0.082796484

layer1.bias f4 [512]
0	0xbf1ba7d0	-0.60802937
1	0xbf21a60f	-0.6314401
2	0xbf47eb9c	-0.78093886
3	0x3f677183	0.9040758
4	0x3f584d8a	0.84493315
5	0xbe9fac81	-0.31186298
6	0xbea14e80	-0.31505203
7	0x3f2d3f67	0.6767487
8	0x3f9183e5	1.1368376
9	0x3f7d14bb	0.9885976
10	0xbf607ad3	-0.87687415
11	0x3f8e7e79	1.1132346
12	0x3f6c0cc2	0.92206967
13	0x3f56561d	0.8372515
14	0x3dc0a831	0.0940708
15	0x3f5ac7c6	0.8546108
16	0x3f0db0c7	0.55347866
17	0x3f9ab1d6	1.2085521
18	0xbf3103c6	-0.6914638
19	0xbf2c72df	-0.6736278
20	0xbfba0c42	-1.4534991
21	0xbf396aef	-0.7242879
22	0x3f57d8f5	0.84315425
23	0x3f841701	1.031952
24	0xbf5ff11a	-0.87477267
25	0x3f83dfc2	1.030266
26	0x3f8d1183	1.1020969
27	0xbf4fc7e6	-0.81164396
28	0x3f0c9c4f	0.5492601
29	0xbf386327	-0.72026294
30	0x3f4978ee	0.7870015
31	0xbc9c3e06	-0.019072544
32	0xbe2ee79e	-0.17080542
33	0xbfbca33c	-1.4737315
34	0xbf54bda1	-0.8310185
35	0x3f6875c4	0.90804696
36	0xbe5d6497	-0.21620403
37	0xbeb04260	-0.3442564
38	0x3b6ed42e	0.0036442387
39	0x3f801655	1.0006815
40	0xbf4f5986	-0.80995977
41	0xbf418d9e	-0.75606716
42	0xbc9d39f6	-0.019192677
43	0x3d8ccaaa	0.068745926
44	0x3f9517d4	1.1647897
45	0xbf2d283f	-0.67639536
46	0x3e20f88d	0.15719815
47	0xbf4e55d0	-0.8059969
48	0x3f6ae72b	0.91758984
49	0x3f2adc1f	0.6674213
50	0xbf509cf6	-0.81489503
51	0x3f8707dd	1.0549275
52	0xbf7fabd2	-0.9987155
53	0x3f2f1d85	0.6840442
54	0xbf56a266	-0.8384155
55	0x3eea23b5	0.45730367
56	0x3f859f08	1.0439157
57	0x3f6c569e	0.9231967
58	0x3e498b37	0.19682012
59	0x3e4a3a09	0.19748701
60	0x3f779b72	0.96721566
61	0x3f811335	1.0083987
62	0x3f2dee21	0.6794148
63	0xbf74c8cf	-0.9561891
64	0x3e2275e2	0.15865281
65	0x3f77f4fb	0.96858186
66	0x3e05d845	0.13070782
67	0xbf7d44e2	-0.9893323
68	0xbf8c985c	-1.0983996
69	0xbf19b415	-0.6004041
70	0x3f732f93	0.9499447
71	0x3d8eba88	0.06969172
72	0xbf11a72f	-0.56895727
73	0x3f5add0d	0.85493547
74	0xbd825101	-0.063631065
75	0x3f364b57	0.7120871
76	0xbf0d1706	-0.55113256
77	0x3f639795	0.8890317
78	0x3f8adfc1	1.0849534
79	0x3f62c56f	0.8858251
80	0x3f6fdb32	0.9369384
81	0xbf852232	-1.040106
82	0xbf433582	-0.7625352
83	0x3e2ef16f	0.17084287
84	0xbf01f6b5	-0.5076707
85	0x3f550370	0.8320837
86	0xbf3b9936	-0.73280656
87	0x3f60c1d8	0.8779578
88	0x3f84736b	1.0347723
89	0xbef2312d	-0.47303143
90	0x3fb6ca29	1.4280444
91	0x3f51898a	0.8185049
92	0xbf950f26	-1.1645248
93	0x3f8488db	1.0354265
94	0xbf1ab203	-0.60427874
95	0xbf0d83c7	-0.552792
96	0xbe366003	-0.17810063
97	0x3eb07195	0.34461656
98	0x3f5549d8	0.833158
99	0x3e1a5df0	0.15074897
100	0xbf83358b	-1.0250715
101	0x3f35c901	0.7100983
102	0x3f81331f	1.0093726
103	0x3f8c1153	1.0942787
104	0x3f853682	1.040726
105	0x3f37a56d	0.71736795
106	0x3f672cdb	0.9030282
107	0xbed75376	-0.42055863
108	0x3f612190	0.8794184
109	0xbf5ff136	-0.87477434
110	0xbfb32719	-1.3996307
111	0xbd1ee24b	-0.03879003
112	0x3f8121dd	1.0088459
113	0x3e9f05cd	0.31059113
114	0xbe10e5d2	-0.1415017
115	0x3eb0ed26	0.3455593
116	0xbf8c3a82	-1.0955355
117	0xbf1d2ed8	-0.613996
118	0x3f6bf8c7	0.9217648
119	0x3f2deaa9	0.6793619
120	0xbe099067	-0.13433991
121	0x3f5f65aa	0.872645
122	0xbf61bca4	-0.8817847
123	0x3ed1d19e	0.40980238
124	0x3f61985b	0.881231
125	0x3f4f6282	0.81009686
126	0xbeb974eb	-0.36222014
127	0x3f61e0a4	0.882334
128	0x3f773ff7	0.9658198
129	0x3e7cd4a5	0.24690492
130	0xbf651db4	-0.8949845
131	0xbf7e109b	-0.9924409
132	0x3f558399	0.8340393
133	0x3f599b2e	0.8500241
134	0x3f77b5f5	0.9676202
135	0xbf6b80eb	-0.9199359
136	0x3dd5fa16	0.10448091
137	0x3f843ebc	1.0331645
138	0x3e7b89b9	0.24564256
139	0x3f416887	0.7555012
140	0x3ef380b8	0.47559142
141	0x3e5b266c	0.21401376
142	0xbf28077e	-0.6563643
143	0xbe4a33e7	-0.19746362
144	0xbeeb4187	-0.4594843
145	0xbed79052	-0.42102295
146	0x3f3f545b	0.7473809
147	0x3f3e49e5	0.74331504
148	0x3e50ce18	0.20391119
149	0xbf198af9	-0.5997768
150	0xbfac6646	-1.3468711
151	0xbf5780e8	-0.8418107
152	0x3f5431c5	0.8288844
153	0xbeff2493	-0.4983259
154	0x3f6833ff	0.9070434
155	0x3db46677	0.08808606
156	0xbf577718	-0.841661
157	0x3f650238	0.8945651
158	0xbf05a3ab	-0.5220286
159	0x3eee61c8	0.46558976
160	0xbc4ef30f	-0.012631192
161	0xbf80986a	-1.0046513
162	0x3f4e4b87	0.80583996
163	0x3e478fc9	0.19488443
164	0x3f7f214d	0.9966019
165	0xbf779c28	-0.9672265
166	0x3f84a6b8	1.0363379
167	0x3f6124d1	0.879468
168	0x3f771330	0.9651365
169	0x3e229436	0.1587685
170	0xbf50b235	-0.8152192
171	0xbe7d38d4	-0.2472871
172	0x3f86d257	1.0532941
173	0xbe8190ac	-0.25305688
174	0xbecd8458	-0.40140033
175	0xbf0c87cb	-0.54894704
176	0xbd73d79a	-0.059531786
177	0xbf670be8	-0.9025254
178	0x3f898fe5	1.0747038
179	0xbf400f0a	-0.7502295
180	0x3f97d9b2	1.186331
181	0xbf585b93	-0.8451473
182	0xbf3dad29	-0.74092346
183	0xbf18a2b9	-0.59623295
184	0x3f603cd2	0.87592804
185	0x3e894f3a	0.26818258
186	0xbf172e6e	-0.5905522
187	0x3f69e8a3	0.913706
188	0x3f96f8e0	1.1794701
189	0x3f654ef3	0.8957359
190	0x3f9294a4	1.1451612
191	0x3f123e8e	0.571267
192	0xbbc043d6	-0.0058674617
193	0xbf91f6d7	-1.1403455
194	0x3e2959d9	0.1653818
195	0xbf6ba6cc	-0.92051387
196	0x3eab4c2e	0.33456558
197	0x3f6f6c5c	0.9352472
198	0xbcf244e0	-0.029573858
199	0x3e4d3aed	0.2004201
200	0x3f2ac1f8	0.6670222
201	0xbfaaa3da	-1.3331254
202	0x3f38187a	0.7191235
203	0x3f834fc3	1.0258716
204	0x3f877cad	1.0584923
205	0x3f74887c	0.9552076
206	0xbf4a5ca3	-0.790476
207	0x3f16f903	0.5897371
208	0x3f74687f	0.9547195
209	0xbf47ee2e	-0.7809781
210	0xbf49a51e	-0.78767574
211	0x3f81d001	1.0141603
212	0xbf67f508	-0.90608263
213	0xbf15ec33	-0.58563536
214	0x3f7a43c3	0.97759646
215	0x3e1546e9	0.14577831
216	0x3f6be277	0.9214243
217	0xbf303c7c	-0.6884229
218	0x3f3ab7a7	0.7293648
219	0x3f4e9a0d	0.8070381
220	0xbe6143b3	-0.21998481
221	0xbdc7c390	-0.097540975
222	0x3f8a52c4	1.0806508
223	0x3f61ac91	0.8815394
224	0x3f561dfa	0.8363949
225	0x3f61a797	0.88146347
226	0xbf255124	-0.64576936
227	0x3f7501a4	0.9570563
228	0x3eb0dbb2	0.34542614
229	0xbf831ebb	-1.0243753
230	0x3f0df486	0.5545124
231	0x3f5bbbc6	0.85833395
232	0x3f130571	0.5743018
233	0xbf36b2e8	-0.7136674
234	0xbef6d6d0	-0.48210764
235	0x3efac5c3	0.48979005
236	0xbe15392e	-0.14572594
237	0xbee7c91d	-0.45270625
238	0xbfbf9a47	-1.4968957
239	0x3f46b5f0	0.77621365
240	0xbf4b9faf	-0.7954053
241	0x3e0a0e2e	0.13481972
242	0x3f3fd28d	0.7493065
243	0x3e60abfe	0.2194061
244	0x3f89a328	1.0752916
245	0x3f4b631d	0.7944811
246	0x3f2ef0b9	0.68336064
247	0xbf52a7f4	-0.82287526
248	0x3f211ec0	0.62937546
249	0x3f495d12	0.7865764
250	0x3f782acd	0.9694031
251	0xbf687243	-0.9079935
252	0xbf04b75f	-0.518423
253	0xbf88a096	-1.0674007
254	0xbf291a7e	-0.6605605
255	0x3f804231	1.00202

value_function.weight f4 [1, 512]
0	0xbebd28ad	-0.36945096
1	0xc04af237	-3.1710336
2	0xc0b15b9d	-5.5424333
3	0x3edf69c2	0.43635374
4	0x3f0269e7	0.50942844
5	0xbfd16a36	-1.6360538
6	0xbf3b1aef	-0.7308797
7	0x3ee75a2e	0.4518599
8	0x3f094ae6	0.5362991
9	0x3f06ad5d	0.5260828
10	0xc0987669	-4.7644544
11	0x3f44f269	0.7693239
12	0x3f1a8143	0.6035349
13	0x3f1bd72d	0.6087521
14	0x3f7081e2	0.93948185
15	0x3f0c6248	0.54837465
16	0x3ebb928c	0.36635244
17	0x3f07f7c6	0.5311245
18	0xc00a401c	-2.160163
19	0xc0223b72	-2.5348783
20	0xbfbb3303	-1.4624943
21	0xc0a32ef2	-5.0994806
22	0x3f1370c9	0.5759397
23	0x3f03be33	0.51462096
24	0xc09c374c	-4.88175
25	0x3f040a1a	0.51577914
26	0x3f0981f8	0.5371394
27	0xc09e0468	-4.938038
28	0x3ee38736	0.44439095
29	0x3fb07a99	1.3787414
30	0x3f1180a9	0.56836945
31	0xbf011535	-0.50422984
32	0xbf1c5eb7	-0.61082023
33	0xc015bc8a	-2.3396325
34	0xc096f917	-4.7179065
35	0x3f137bc7	0.57610744
36	0xbf044db2	-0.51681054
37	0xbf6342ca	-0.8877379
38	0x3f447f54	0.7675679
39	0x3f1662a4	0.58744264
40	0xc0874f06	-4.2283964
41	0xc0998afb	-4.7982154
42	0xbf42e55c	-0.76131225
43	0xbfa1dbee	-1.2645242
44	0x3f1034d2	0.563306
45	0xc089594b	-4.29215
46	0x3f0ca8de	0.5494517
47	0xc0943939	-4.631985
48	0x3f003160	0.5007534
49	0x3ee1690b	0.44025454
50	0xc0858293	-4.172189
51	0x3f0de027	0.55420154
52	0xbfa52776	-1.2902668
53	0x3f1385a2	0.5762578
54	0xbfc2423c	-1.5176463
55	0x3fc53d57	1.5409344
56	0x3f07c8cc	0.53040767
57	0x3ec8e3bd	0.3923625
58	0x3efa58bd	0.48895827
59	0x3f8b1f55	1.0868937
60	0x3f009809	0.5023199
61	0x3f180e4b	0.5939681
62	0x3f13b0b7	0.5769152
63	0xc01294c8	-2.290331
64	0x3e8cc0de	0.27490896
65	0x3f306650	0.68906116
66	0x3f5d3607	0.86410564
67	0xbf827415	-1.0191675
68	0xbfe8d16a	-1.8188908
69	0xbf97792a	-1.1833851
70	0x3efa9cf9	0.48947886
71	0x3f022cb3	0.50849456
72	0xc07f88f6	-3.9927344
73	0x3f0c2bde	0.54754436
74	0x3fbb76a1	1.4645578
75	0x3f298a62	0.6622678
76	0x3d23da06	0.040002845
77	0x3f16d51f	0.58918947
78	0x3f0df508	0.55452013
79	0x3f079350	0.52959156
80	0x3f0c4cfb	0.5480496
81	0xbf8b87d3	-1.0900825
82	0xc070ccf6	-3.7625098
83	0x3f61a04c	0.8813522
84	0xbfbe71ca	-1.4878476
85	0x3f1b0f67	0.6057038
86	0xc0807f64	-4.0155506
87	0x3f0ea848	0.55725527
88	0x3f17b43e	0.592594
89	0xbf7d8ecd	-0.9904602
90	0x3f473c34	0.7782624
91	0x3f0c0611	0.54696757
92	0xc012e761	-2.2953722
93	0x3ed932ba	0.42421514
94	0xbfa61d64	-1.2977719
95	0xbf9f42d1	-1.2442266
96	0xbfe3ec85	-1.7806555
97	0x3f180882	0.5938798
98	0x3f3d3d19	0.7392135
99	0x3f866a63	1.0501217
100	0xc07a36d7	-3.9095972
101	0x3ef834e7	0.4847786
102	0x3f1577a9	0.5838571
103	0x3f0ff6cc	0.5623596
104	0x3f2861f7	0.6577448
105	0x3f00c5f8	0.50302076
106	0x3f1a8e84	0.6037371
107	0x3eadf6e6	0.3397743
108	0x3f09722a	0.53689826
109	0xc091dcec	-4.558218
110	0xbf81c259	-1.0137435
111	0x3f3c266b	0.7349612
112	0x3ef76a2f	0.483232
113	0x3f5325de	0.82479656
114	0xbf6e0edd	-0.9299143
115	0x3f7fdbf4	0.99944997
116	0xc0832756	-4.0985518
117	0xbb88d2c0	-0.004175514
118	0x3f25ddfc	0.64791846
119	0x3f0871d9	0.5329872
120	0xbf1b9038	-0.60766935
121	0x3f0550b8	0.5207629
122	0xc0952447	-4.6606784
123	0xbff1d668	-1.8893557
124	0x3eb4e933	0.35334167
125	0x3f139509	0.57649285
126	0xbf88f81d	-1.0700718
127	0x3f0d7da3	0.5526983
128	0x3f12c766	0.5733551
129	0x3f42a8dc	0.7603891
130	0xc09c20d1	-4.879006
131	0xbfa9c094	-1.3261895
132	0x3d92ce93	0.07168307
133	0x3f319353	0.69365424
134	0x3f11885b	0.56848687
135	0xc0a70a6d	-5.2200227
136	0xbf6460af	-0.8921003
137	0x3ec75b5e	0.38936895
138	0x3f88e5d2	1.0695136
139	0x3f1dc891	0.61634165
140	0x3f61c074	0.88184285
141	0x3ef521d5	0.47877374
142	0xbffd66ef	-1.9797038
143	0xbf0e77aa	-0.5565134
144	0xbf33766a	-0.7010256
145	0x3fbf8699	1.4962951
146	0x3ee3d7b8	0.44500518
147	0x3f110c4f	0.56659406
148	0x3f0019d5	0.50039417
149	0xc068fec0	-3.6405487
150	0xbf7fe5f3	-0.9996025
151	0xbfc3de54	-1.5302224
152	0x3f10bb04	0.56535363
153	0xbf8f0462	-1.1173213
154	0x3f0268f1	0.5094138
155	0x3f0798e2	0.52967656
156	0xbfc04520	-1.5021095
157	0x3ef61f3e	0.4807071
158	0xbb637278	-0.003470568
159	0x3f0c737a	0.54863703
160	0xbf50ea0a	-0.81607115
161	0x40563025	3.3466885
162	0x3f096640	0.53671646
163	0x3f72946c	0.94757724
164	0x3f04de31	0.5190154
165	0xc0965817	-4.698253
166	0x3f06d78d	0.52672654
167	0x3f068c70	0.5255804
168	0x3f3a5b54	0.72795606
169	0x3fb0f5c8	1.3825006
170	0xc09bfffc	-4.874998
171	0xbf2561c9	-0.64602333
172	0x3f1859b8	0.595119
173	0xbee620e2	-0.44946963
174	0xbfa823c9	-1.3135921
175	0xc02d6cb6	-2.7097602
176	0xbf06cdd8	-0.5265784
177	0xc09fe612	-4.9968348
178	0x3f099ea9	0.5375772
179	0xc08627bb	-4.19235
180	0x3f1454f3	0.5794212
181	0xbfb96804	-1.4484868
182	0xbfd823ea	-1.688596
183	0xbf742082	-0.95362103
184	0x3f141200	0.57839966
185	0x3f9d76e3	1.2301906
186	0xbf24ca10	-0.6437082
187	0x3f06b02c	0.52612567
188	0x3f0272ea	0.50956595
189	0x3f019c5b	0.50629205
190	0x3f0e619c	0.5561769
191	0x3ee72051	0.45141843
192	0xbf319b4d	-0.69377595
193	0xbf798196	-0.9746336
194	0xbfa314ca	-1.2740719
195	0xbfbd5ce5	-1.4793974
196	0xbf9d0074	-1.2265763
197	0x3f182956	0.59438074
198	0xbf78b018	-0.971437
199	0x3f6cea2c	0.9254482
200	0x3f17b1e4	0.59255815
201	0xc01004d4	-2.2502947
202	0x3f124a6b	0.571448
203	0x3f1309cd	0.5743683
204	0x3f122798	0.57091665
205	0x3f0ee40f	0.5581674
206	0xbfca3cf6	-1.5799854
207	0x3f24ea7e	0.64420307
208	0x3f10405e	0.56348217
209	0xc09edcd8	-4.9644585
210	0xc0a07aee	-5.015006
211	0x3f107c23	0.5643942
212	0xbfb92eba	-1.4467385
213	0xbfc3e09d	-1.5302922
214	0x3f06eef6	0.52708375
215	0x3f50f135	0.8161805
216	0x3f197b21	0.59953505
217	0xbfd5036f	-1.6641673
218	0x3ef9afcb	0.48766932
219	0x3f0df3f0	0.55450344
220	0xbef4dbb5	-0.47823873
221	0xbe5fc1c0	-0.21851254
222	0x3f086900	0.5328522
223	0x3f0b3705	0.5438083
224	0x3f0b26f0	0.5435629
225	0x3f2a9bc5	0.66643935
226	0xc06e76b8	-3.725996
227	0x3f12b986	0.57314336
228	0xc00a1e31	-2.1580927
229	0xbf7c3c6a	-0.98529685
230	0x3f19c7fd	0.6007078
231	0x3f1a2b55	0.6022237
232	0x3f2e7e88	0.6816182
233	0xc0810e14	-4.0329685
234	0xc073920e	-3.8057895
235	0x3f3bd393	0.7336971
236	0xbf4f3029	-0.8093286
237	0x3f3cdc35	0.7377351
238	0xbfdce0a7	-1.7256058
239	0x3f06aa33	0.52603453
240	0xbf940d04	-1.1566472
241	0x3f881b30	1.0633297
242	0x3f091c44	0.53558755
243	0x3f70e40d	0.9409798
244	0x3f022a86	0.50846136
245	0x3f036945	0.51332504
246	0x3f01b1ee	0.50662124
247	0xc09414ca	-4.6275377
248	0x3f087e9a	0.5331818
249	0x3f14c29a	0.5810944
250	0x3f06fd6b	0.52730435
251	0xc092f5b0	-4.592491
252	0xc00559ba	-2.0836015
253	0xc06ebb10	-3.7301674
254	0xbff305c6	-1.8986137
255	0x3f0ba33b	0.54545945

advantage.weight f4 [2, 512]
0	0x4058968a	3.3841882
1	0xc0085f26	-2.1308074
2	0xbf4d09df	-0.8009319
3	0x3dc01768	0.093794644
4	0x3dfcaf74	0.123381525
5	0xbe38d9df	-0.18051861
6	0x3e11895a	0.14212552
7	0xbdf2dd6b	-0.118586384
8	0x3cba7808	0.022762313
9	0x3d0a477c	0.03375958
10	0xbf4f942e	-0.8108548
11	0xbdb3c220	-0.08777261
12	0xbe864ebb	-0.26231942
13	0xbd605e6c	-0.054777548
14	0x3e94d60f	0.29069564
15	0x3d6f49ae	0.058419876
16	0x3e026a94	0.12735969
17	0x3c6af7d5	0.014341314
18	0x3f196948	0.5992627
19	0x3e30dad5	0.17270978
20	0xc0590fec	-3.3915968
21	0x3eb7d7d8	0.35906863
22	0xbe682369	-0.22669758
23	0xbcacd446	-0.021097314
24	0xbf76479f	-0.96203035
25	0x3aa8d783	0.001288161
26	0x3d7d1bd1	0.061794106
27	0x3fcd6fd3	1.6049751
28	0xbe3cc5b1	-0.18434788
29	0x401babb6	2.4323554
30	0x3dd3e4e7	0.10346394
31	0x3e123092	0.1427634
32	0xbb8a9a4d	-0.00422982
33	0x3e872a53	0.26399478
34	0x3fa45152	1.2837317
35	0xbe04517e	-0.12921712
36	0xbd9beea9	-0.0761388
37	0x3d92441c	0.07141897
38	0x3c5d9722	0.013524802
39	0xbd15c936	-0.036568843
40	0xbf49f718	-0.7889266
41	0x3fb0ac89	1.3802654
42	0xbe616587	-0.22011386
43	0x3f4b5af0	0.79435635
44	0xbd97dde2	-0.07415368
45	0xbfa3a2ea	-1.2784092
46	0x3e0967e7	0.13418542
47	0x3e9a9b91	0.30196813
48	0x3c3caf16	0.011516353
49	0x3dce3c0f	0.10070049
50	0x3d6c6d93	0.057721686
51	0x3e071ed0	0.13195348
52	0x3b9c0cb0	0.0047622547
53	0x3d849601	0.064739235
54	0xbdeb7f08	-0.11498839
55	0x3fb958cc	1.4480224
56	0x3d928f93	0.07156291
57	0xbeeff539	-0.46866778
58	0xbd3de7a6	-0.046363495
59	0x3e8d5d36	0.27610177
60	0xbc828692	-0.015933309
61	0xbdb85f2e	-0.09002529
62	0x3e2e6b65	0.17033155
63	0x3e0a37aa	0.13497797
64	0xbd716ebe	-0.058943503
65	0xbe944d28	-0.28965116
66	0x3e4d3e20	0.2004323
67	0x3e57d061	0.21075584
68	0xbdee93f8	-0.116493165
69	0x3f43b317	0.76445144
70	0x3db9af87	0.09066682
71	0x3e6c08ef	0.23050283
72	0x3db58d13	0.088647984
73	0xbd4df784	-0.050284877
74	0xbfc3e963	-1.5305599
75	0x3dbd0910	0.09230244
76	0xc045f9f6	-3.0933814
77	0x3d674bc5	0.056468744
78	0x3cd05325	0.025430271
79	0xbd49dd52	-0.049283333
80	0x3cc5489d	0.024082476
81	0xbde44069	-0.11145098
82	0x3fe3d7dc	1.780025
83	0x3e37e1be	0.17957208
84	0x3cde0d5f	0.027105985
85	0xbebfa40d	-0.37429848
86	0xbfb8616b	-1.440473
87	0x3e15a39c	0.14613193
88	0x3c1060ce	0.008812143
89	0x3eb82d51	0.35972074
90	0x3e28c5ae	0.16481659
91	0xbd6fb0b3	-0.058518123
92	0x40521aba	3.2828813
93	0x3d388350	0.045047104
94	0x3e79f82b	0.24411075
95	0xbdbd88da	-0.09254618
96	0xbd481e8e	-0.048857264
97	0xbe8ac30a	-0.27101928
98	0x3e4e306d	0.2013566
99	0x3e411b92	0.18858173
100	0x401c18bb	2.4390094
101	0xbdd0760d	-0.101787664
102	0x3c826931	0.0159193
103	0x3cc74989	0.024327056
104	0xbda34edc	-0.079740256
105	0xbcdfd16c	-0.02732154
106	0xbd8cf51f	-0.06882691
107	0x3eeeff73	0.46679267
108	0x3d656d02	0.05601216
109	0xbf4aa39f	-0.79155916
110	0x3ddabf6e	0.106810436
111	0xbe68fced	-0.22752734
112	0xbb4776c7	-0.0030435787
113	0x3ddeccd0	0.10878909
114	0x3e8d2291	0.27565435
115	0x3d7cb87f	0.061699387
116	0xc01e6ccf	-2.4753911
117	0xc053f269	-3.3116705
118	0xbc911f5b	-0.017715147
119	0x3e6abfb9	0.22924699
120	0x3d7c35b7	0.061574664
121	0x3ba480bf	0.0050202305
122	0x40185783	2.3803413
123	0x3eae7569	0.34073952
124	0xbec3f2fa	-0.38271314
125	0x3c37d2c2	0.011219682
126	0xbeb61040	-0.35559273
127	0x3d550706	0.05200865
128	0x3bc432b6	0.0059874905
129	0xbf2f7575	-0.685386
130	0xbfd21221	-1.6411783
131	0x3bb50598	0.0055243485
132	0xbf27ba39	-0.6551853
133	0x3eba176a	0.3634599
134	0x3c406707	0.011743314
135	0xbfb48008	-1.4101572
136	0xbda96c9c	-0.08272669
137	0x3e9d640b	0.3074039
138	0x3df86b6b	0.12129863
139	0xbdc7100b	-0.09719857
140	0x3dbd8783	0.092543624
141	0xbddef05c	-0.10885689
142	0xbe852400	-0.26004028
143	0x3dd3111b	0.10305997
144	0x3d0db839	0.034599517
145	0x3f10e950	0.56606007
146	0x3c739d9c	0.01486912
147	0x3c92047c	0.017824404
148	0xbe947900	-0.28998566
149	0xc0088f42	-2.1337438
150	0x3cbdd957	0.023174925
151	0xbe00741c	-0.12544292
152	0x3db6aeaf	0.08920037
153	0x3c381a90	0.011236802
154	0xbd3a3002	-0.04545594
155	0x3e579f72	0.21056917
156	0x3e0b1c4f	0.13585018
157	0x3cc1fda3	0.023680514
158	0xbac59194	-0.0015073293
159	0x3e014ddd	0.12627359
160	0xbe042f05	-0.12908562
161	0x40157f19	2.3358824
162	0xbda688eb	-0.08131584
163	0x3e42aa83	0.19010358
164	0x3dcd582e	0.100265846
165	0xbfe7e0b4	-1.8115449
166	0x3d49d53a	0.049275614
167	0x3e3a15e8	0.18172419
168	0xbeab1073	-0.33410987
169	0xbe2ec23b	-0.1706628
170	0x3fdbd52c	1.717443
171	0x3e165abb	0.14683048
172	0xbdd990da	-0.10623331
173	0xbea10040	-0.31445503
174	0x3da9901b	0.08279439
175	0x3ea3fe4f	0.3202996
176	0x3c7ccd35	0.015429785
177	0xbfb03ae9	-1.3767978
178	0xbd643055	-0.055710156
179	0xbf754c40	-0.95819473
180	0xbd9a48bf	-0.075334065
181	0xbf06fc3f	-0.52728647
182	0x3f36b92c	0.713763
183	0xc06336ec	-3.5502272
184	0xbdd6b03b	-0.10482832
185	0xbe8bac78	-0.2728002
186	0xbee87096	-0.45398396
187	0x3dd91622	0.105999246
188	0x3b4a94e0	0.003091149
189	0x3dc99382	0.09842588
190	0x3d87e0ca	0.06634672
191	0x3e30b75a	0.17257443
192	0x3dc6d258	0.09708089
193	0xbf95f580	-1.1715546
194	0xbee3ab4b	-0.44466624
195	0xbf8d0201	-1.1016237
196	0xbd180d84	-0.037122265
197	0xbb360143	-0.0027771748
198	0x3e832ec5	0.2562162
199	0x3e403045	0.18768413
200	0xbe5b6375	-0.21424659
201	0xc0423103	-3.0342414
202	0x3d79a5d6	0.06094917
203	0xbe5d033b	-0.21583264
204	0x3d3faa09	0.046793018
205	0xbdd8fa87	-0.10594659
206	0x3e887ae1	0.2665625
207	0xbe418c5a	-0.18901196
208	0x3e0b871a	0.13625756
209	0x3fcc6c29	1.5970508
210	0x3f743c75	0.9540475
211	0xbcb89614	-0.0225325
212	0xbe89f8d9	-0.26947668
213	0xbe3700f4	-0.17871457
214	0xbdedce0b	-0.11611565
215	0x3db60049	0.08886773
216	0xbd83fbcc	-0.06444511
217	0x3f339c05	0.7015994
218	0x3de1f499	0.110329814
219	0xbc978f9e	-0.0185011
220	0x3e2e4920	0.17020082
221	0x3e25eab6	0.16202816
222	0x3df56cae	0.1198362
223	0x3d09132e	0.033465557
224	0x3cba6c0b	0.022756597
225	0xbebbec0d	-0.3670353
226	0x40086049	2.1308768
227	0xbc6e3944	-0.01454002
228	0x3eb2ea78	0.3494451
229	0xbb60f6f3	-0.003432688
230	0xbd85f12a	-0.06540139
231	0xbda78040	-0.081787586
232	0x3d901f8f	0.07037269
233	0xbfa36736	-1.2765872
234	0x3f471901	0.7777253
235	0x3efa3c7d	0.48874274
236	0x3e73fa00	0.23825836
237	0xbf671fe6	-0.9028305
238	0x3f043fb5	0.5165971
239	0x3b2bf04e	0.0026235762
240	0xbea47baf	-0.32125613
241	0x3de2e5e3	0.11079004
242	0xbd95d318	-0.073156536
243	0x3cd772b2	0.026299808
244	0x3deba1bd	0.115054585
245	0xbc32390f	-0.010877862
246	0x3d68c732	0.056830592
247	0x3fa38b8f	1.2776965
248	0xbe35eb2e	-0.17765495
249	0x3d0bf892	0.034172602
250	0x3c1208fc	0.008913275
251	0xbf2e44b7	-0.680736
252	0xc0167b56	-2.3512778
253	0x4031cb82	2.7780461
254	0x3f0e5899	0.5560394
255	0x3d0089cc	0.031381413

advantage.bias f4 [2]
0	0x3b330131	0.0027313943
1	0xbcd49eb4	-0.025954582
